logs/lp/2019_12_3/1/model.pth (torch_old, 94088 bytes, 4 tensors)

encoder.layers.0.linear.bias f4 [16]
0	0x3cf2ee3a	0.02965461
1	0x3cf0caf3	0.029393649
2	0x3d42995a	0.04750953
3	0x3ce1e2d0	0.027573973
4	0x3ceedfb4	0.029159404
5	0x3d42505a	0.04743991
6	0x3d03b80d	0.032157946
7	0x3cf52ffb	0.029930105
8	0x3cf19745	0.029491076
9	0x3d37440d	0.044742633
10	0x3d1b90db	0.03797994
11	0x3cd9968c	0.026561044
12	0x3d081e3a	0.03323195
13	0x3d662d0c	0.056195304
14	0x3ceb3225	0.028710434
15	0x3d0e6ee4	0.034773722

encoder.layers.0.linear.weight f4 [16, 1433]
0	0xbd3499bd	-0.04409193
1	0xbd358aeb	-0.044321936
2	0xbd04cfa6	-0.03242459
3	0x3cb9db30	0.022687525
4	0xbdbbf457	-0.091774635
5	0xbcc92099	-0.024551677
6	0xbd3ba1ca	-0.04580859
7	0x3c0beae0	0.008539885
8	0x3d7cc179	0.061707947
9	0x3da3edba	0.08004327
10	0xbd0e3439	-0.034717772
11	0x3acb23ec	0.0015498376
12	0xbd47048b	-0.048588317
13	0x3d0a580a	0.033775367
14	0xbccf5ee1	-0.025313796
15	0xbd878460	-0.066170454
16	0x3d506368	0.05087605
17	0xbd51c846	-0.051216386
18	0xbd904802	-0.070449844
19	0x3cc09f02	0.02351332
20	0x3c11c8d8	0.008897983
21	0xbdb43986	-0.08800034
22	0xbd2d187d	-0.042259682
23	0x3daa71ac	0.083224624
24	0x3cf93a2c	0.030423246
25	0xbcdd1185	-0.026985893
26	0x3c7499dd	0.014929262
27	0x3bf82144	0.007572325
28	0xbd118a65	-0.035532374
29	0xbc9391e5	-0.018013904
30	0xbc1feae6	-0.009760594
31	0x3c8680d2	0.016418848
32	0xbc9028b2	-0.01759753
33	0x3b88efbe	0.00417897
34	0xbd1234cf	-0.035694893
35	0xbccbd905	-0.024883756
36	0x3ce024a2	0.027361218
37	0x3bcb5c6b	0.0062060854
38	0x3de2098c	0.11036977
39	0x3bea1dfa	0.0071446868
40	0xbdea708b	-0.11447247
41	0xbd898b4c	-0.06716022
42	0x3ccc385b	0.024929216
43	0xbd5ef5cf	-0.05443364
44	0xbcb460b2	-0.022018764
45	0xbc042a58	-0.008066736
46	0xbd38a353	-0.045077633
47	0xbd43070e	-0.04761415
48	0xbca33011	-0.01992038
49	0xba1fa1fb	-0.00060895056
50	0xbd84fd75	-0.064936556
51	0xbd6be61d	-0.0575925
52	0x3e0dae09	0.1383592
53	0xbd0c3869	-0.034233484
54	0xbd9349b0	-0.07191789
55	0xbd484177	-0.048890557
56	0x3d3cf796	0.046134554
57	0x3b46f199	0.0030356406
58	0xbccdd04d	-0.02512374
59	0x3d51f601	0.05126
60	0x3cb00a3b	0.021489253
61	0xbd837800	-0.064193726
62	0x3d5e9044	0.0543368
63	0x3ca80df6	0.02051447
64	0x3dc1f9af	0.094714515
65	0x3d1eb982	0.038751133
66	0xbc82c1ba	-0.015961517
67	0x3d0b26c0	0.0339725
68	0x3c092483	0.0083705215
69	0xbcb5d8bb	-0.022198072
70	0xbb2841fb	-0.0025674093
71	0x3bf5550d	0.0074869455
72	0x3cbc1a6d	0.02296182
73	0x3cc92c77	0.024557335
74	0xbd690c9f	-0.056896802
75	0xbd0e52b3	-0.034746837
76	0x3ca9de6a	0.020735938
77	0x3d030b38	0.03199312
78	0xbd9b1e3b	-0.075741254
79	0x3cfbb591	0.030726226
80	0x3a1cd341	0.0005982407
81	0xbc9927ff	-0.01869583
82	0xbd2917a7	-0.041282322
83	0xbd35485d	-0.044258464
84	0xbc36ab6f	-0.011149271
85	0xbd8b5daf	-0.06804978
86	0xbd8023ce	-0.06256829
87	0xbcf9267f	-0.030413864
88	0x3d169b50	0.03676921
89	0xbd539bf0	-0.051662385
90	0x3d70ba7d	0.0587716
91	0x3ae61e41	0.0017556624
92	0x3c9f2c58	0.019430324
93	0xbdc2aa7c	-0.095051736
94	0xbd0867b9	-0.033302043
95	0xbbb8d868	-0.005641032
96	0x3bca5076	0.0061741425
97	0x3d28f56d	0.04124968
98	0xbccba701	-0.024859907
99	0x3d3eebd4	0.046611622
100	0x3da0ef44	0.07858136
101	0x3ca24de9	0.019812541
102	0x3cf6a5fe	0.030108448
103	0x3d904f85	0.07046417
104	0x3db02d3e	0.08602379
105	0xbcbd66b7	-0.023120267
106	0xbd5bd68b	-0.0536714
107	0x3cb3209c	0.021866135
108	0xbda0a8cf	-0.07844698
109	0xbc92ecc0	-0.017935157
110	0xbc9eb193	-0.019371783
111	0x3d63ba4e	0.055597596
112	0xbbab78fa	-0.0052329274
113	0xbd56b617	-0.05241975
114	0xbc66adaa	-0.014079491
115	0x3d2fbc1e	0.042904012
116	0x3c285120	0.010273248
117	0xbc76f70b	-0.015073548
118	0xbb450578	-0.0030063074
119	0xbd04ce38	-0.032423228
120	0xbccdd468	-0.025125697
121	0xbd9e8666	-0.07740478
122	0xbbb7c7a4	-0.005608516
123	0xbb88f335	-0.004179383
124	0x3d4d40b6	0.05011054
125	0x3d96ead6	0.0736901
126	0xbd72be7e	-0.0592637
127	0x3d2d7ccc	0.042355344
128	0x3e0a4726	0.13503703
129	0x3d1ac80d	0.03778844
130	0xba66aab3	-0.000879924
131	0x3d9a746a	0.075417355
132	0x3c6dd385	0.014515762
133	0x3d266a87	0.040628936
134	0xbc602602	-0.013680937
135	0x3e2cf8c8	0.16891778
136	0x3dd19c4e	0.10234891
137	0xbd1af6b0	-0.037832916
138	0x3cee8983	0.029118305
139	0xbd16c51a	-0.036809064
140	0x3b97278a	0.0046128677
141	0xbc5403ba	-0.012940342
142	0xbd51ce4a	-0.051222123
143	0x3d37e33b	0.04489444
144	0x3d647615	0.055776674
145	0x3ae32bcb	0.0017331777
146	0xbc8b1ea7	-0.01698239
147	0xbd6bd891	-0.05757958
148	0xbd10acb8	-0.035320967
149	0x3d309763	0.043113124
150	0xbd2ea8ae	-0.042641334
151	0x3e0a2a8a	0.1349279
152	0xbc1062bc	-0.008812603
153	0x3cfa8df9	0.030585276
154	0xbdcedaff	-0.10100364
155	0xbd09254f	-0.033482846
156	0x3d1731bc	0.036912665
157	0x3d12917f	0.035783287
158	0xbd7df1a1	-0.061998013
159	0xbcaf46f7	-0.021396143
160	0x3cff411f	0.031158982
161	0xbc29d32b	-0.010365288
162	0x3dc68a54	0.09694353
163	0xbd67643d	-0.05649208
164	0xbcc2689a	-0.023731519
165	0x3c000da7	0.007815755
166	0x3d2194fa	0.039448716
167	0x3d00955e	0.031392448
168	0xbe2dc70f	-0.16970466
169	0x3d0cc62c	0.03436868
170	0x3d28b6c1	0.041189913
171	0x3d0de6a5	0.034643788
172	0x3de55215	0.111972965
173	0x3ce56ee9	0.028006988
174	0xbc3f0594	-0.011659045
175	0x3df66de4	0.12032679
176	0xbc8ebc4e	-0.017423775
177	0xbd010cf0	-0.03150648
178	0xbce3a645	-0.027789244
179	0x3ccc45fb	0.024935713
180	0xbd36c19a	-0.044618227
181	0xbd1bb03d	-0.03800987
182	0xbd2bb507	-0.041920688
183	0x3dcaffa4	0.09912041
184	0x3be579bf	0.0070030387
185	0x3d00f672	0.03148503
186	0xbc46b77c	-0.012128707
187	0xbd8e168e	-0.06937896
188	0xbc3664f2	-0.011132466
189	0xbca62c60	-0.020284832
190	0xba69416e	-0.00088979944
191	0xbdfe2acc	-0.124105066
192	0xbc16b417	-0.00919821
193	0x3d011782	0.03151656
194	0xbd6146f5	-0.05499931
195	0xbcd13033	-0.025535678
196	0xbd674765	-0.05646457
197	0xbda785dc	-0.081798285
198	0x3cc4811a	0.023987342
199	0x3bad7411	0.005293377
200	0xbc89742e	-0.016779032
201	0xbc731790	-0.014837161
202	0x3d0a1115	0.033707697
203	0x3d89104b	0.06692561
204	0x3c68710e	0.014187111
205	0xbd978635	-0.07398645
206	0xbde7c52c	-0.113169044
207	0x3c1ed38a	0.0096939895
208	0xbd705924	-0.05867876
209	0xbc6bbc87	-0.01438821
210	0xbcc318d0	-0.023815542
211	0xbcdc85aa	-0.026919205
212	0x3e03a058	0.12854135
213	0x3dbf2605	0.093334235
214	0xbcbbe09a	-0.022934247
215	0xbd126358	-0.035739273
216	0x3d23b55c	0.03996788
217	0xbd759ce7	-0.059964087
218	0x3cca69fd	0.024708742
219	0xbd2addc8	-0.041715413
220	0x3cb38917	0.021915955
221	0xbcef3a92	-0.029202733
222	0x3df0f1e4	0.11764887
223	0xbbbf16fa	-0.0058315964
224	0xbce51975	-0.02796624
225	0xbc70ac48	-0.014689513
226	0x3c52b1c2	0.012859764
227	0xbcdab6fb	-0.02669858
228	0xbc88456f	-0.016634671
229	0x3d2c18d2	0.042015858
230	0x3d02dc40	0.031948328
231	0x3cc83ab6	0.024442058
232	0x3d08df90	0.03341633
233	0xbc6ac56b	-0.014329295
234	0xbd5d6c55	-0.05405839
235	0xbd8d6313	-0.069036625
236	0x3e06904d	0.13140984
237	0x3d9800da	0.074220374
238	0x3d2ce8a7	0.042214062
239	0xbc7234e9	-0.014783123
240	0x3cef749f	0.029230414
241	0xbc50d007	-0.01274491
242	0xbcf5a388	-0.029985204
243	0xba838417	-0.0010033873
244	0xbc65961d	-0.014012841
245	0xbda36886	-0.07978921
246	0xbd82b952	-0.06383003
247	0xbd18d988	-0.03731683
248	0xbd8c3e9f	-0.068478815
249	0x3d1109e3	0.03540982
250	0x3cd5c8ac	0.026096664
251	0x3d0c70fd	0.03428744
252	0xbcdef6ea	-0.027217347
253	0xbcacf186	-0.021111261
254	0xbd0f5b47	-0.03499916
255	0xbd79a520	-0.06094849

encoder.layers.1.linear.bias f4 [16]
0	0x3e8a8404	0.27053845
1	0x3e8a87b3	0.27056655
2	0x3e64234c	0.2227909
3	0x3e9f5516	0.31119603
4	0x3ec7252f	0.38895556
5	0x3ede3092	0.4339643
6	0x3eb0ba00	0.34516907
7	0x3e9da9b6	0.30793542
8	0x3eaa1455	0.33218637
9	0x3eb76a74	0.35823405
10	0x3ea0967b	0.31364807
11	0x3ea91677	0.33024952
12	0x3e96d9fa	0.29463178
13	0x3e8211f7	0.2540433
14	0x3ea2b8d9	0.31781653
15	0x3ea74572	0.3267017

encoder.layers.1.linear.weight f4 [16, 16]
0	0x3de6e5e2	0.112743154
1	0x3e646935	0.22305758
2	0x3d0f0ca5	0.03492417
3	0xbedf299f	-0.43586442
4	0x3f1611d2	0.5862094
5	0x3ea96f1f	0.3309259
6	0xbe9ce16b	-0.3064073
7	0x3f11b2d0	0.5691347
8	0x3d51c9c0	0.051217794
9	0x3f11a85f	0.5689754
10	0x3e721e58	0.23644388
11	0x3e683377	0.22675882
12	0xbecfa561	-0.40555862
13	0x3e000caa	0.12504831
14	0x3ca8c5cd	0.020602131
15	0xbc25c68d	-0.010118139
16	0x3d8c0613	0.06837096
17	0x3f24fdfd	0.64450055
18	0xbe21e579	-0.15810193
19	0xbe2111f6	-0.15729508
20	0x3eb720fb	0.3576735
21	0x3e9c07f5	0.3047482
22	0x3f18a3d3	0.59624976
23	0x3eae5e19	0.34056166
24	0x3e3cd5dd	0.18440957
25	0xbe8c52b1	-0.2740684
26	0x3ea28653	0.31743106
27	0x3f10b4e8	0.5652604
28	0x3de245cf	0.11048471
29	0x3e738440	0.23780918
30	0x3e4c4ab8	0.19950378
31	0x3ed4c246	0.4155447
32	0x3eaab4e2	0.33341128
33	0x3df64274	0.12024394
34	0xbeefb0cd	-0.46814576
35	0xbe3f74aa	-0.18696848
36	0x3f1b4046	0.6064495
37	0x3ee15fe8	0.44018483
38	0xbe41f590	-0.18941331
39	0x3edb9469	0.42886665
40	0x3e9742f5	0.29543272
41	0x3f0a4414	0.5401013
42	0x3e64a854	0.22329837
43	0xbe3a2569	-0.18178333
44	0x3e84db5e	0.25948614
45	0x3ec625bd	0.38700667
46	0x3e94f30a	0.29091674
47	0x3f0ea297	0.5571684
48	0x3e18bd35	0.14915927
49	0x3f1499c0	0.58047104
50	0x3ef10d73	0.47080573
51	0x3ea2d445	0.31802574
52	0xbe10dc5f	-0.14146565
53	0x3eb62e69	0.35582283
54	0x3c9125f2	0.017718289
55	0x3d3eaa71	0.046549264
56	0xbef4f1b3	-0.47840652
57	0x3df75fed	0.12078843
58	0xbf190415	-0.59771854
59	0x3e62e2d7	0.22156845
60	0xbea26c87	-0.31723425
61	0x3f000ebe	0.50022495
62	0x3cd911bb	0.026497712
63	0x3ed4c9d4	0.41560233
64	0xbe59dce2	-0.21275666
65	0x3f1743df	0.5908794
66	0x3eee7d3f	0.4657993
67	0xbe648044	-0.22314554
68	0x3f1fc434	0.6240876
69	0xbdd22f0a	-0.10262878
70	0x3daa1b5a	0.08305998
71	0xbef1e21c	-0.4724282
72	0xbec96556	-0.39335126
73	0xbe0d000e	-0.13769552
74	0x3e90428c	0.2817577
75	0x3e033d95	0.1281646
76	0x3ebd606a	0.3698762
77	0xbd2ec5c9	-0.04266909
78	0xbd873ea5	-0.06603745
79	0x3e5c1e13	0.21495847
80	0x3d7067e2	0.05869282
81	0xbddc6364	-0.10761145
82	0xbea3191e	-0.318551
83	0x3e8518d8	0.25995517
84	0x3e465838	0.1936959
85	0xbedfa019	-0.43676832
86	0x3eac784f	0.33685538
87	0xbe8778a2	-0.26459223
88	0xbea3d5a8	-0.31998944
89	0x3e90f19b	0.2830933
90	0x3e0efdaa	0.13963953
91	0x3e3c8abf	0.18412302
92	0x3de8d6d6	0.11369102
93	0xbe83c766	-0.25738066
94	0x3dbeda0e	0.093189344
95	0xbe2e0bf6	-0.1699675
96	0x3f15f8d8	0.5858283
97	0x3eb988be	0.36237139
98	0xbe2f7a9a	-0.17136613
99	0x3ddea8b4	0.10872021
100	0xbe544f19	-0.20733298
101	0xbe3505ec	-0.1767804
102	0xbe013143	-0.12616448
103	0xbb4d0ef6	-0.0031289435
104	0xbeb08234	-0.34474337
105	0x3ebc8770	0.3682208
106	0xbedd1250	-0.43178034
107	0xbdd47dbb	-0.10375544
108	0xbe391477	-0.18074213
109	0x3e26085e	0.1621413
110	0x3eaf6481	0.34256366
111	0x3f25c92a	0.64760077
112	0x3e6d763f	0.23189639
113	0x3e862d02	0.26206213
114	0x3eabdb39	0.3356569
115	0x3ea0f105	0.31433883
116	0xbeb55a02	-0.35420233
117	0x3ef6733f	0.481348
118	0xbda2927d	-0.07938097
119	0xbe944ce9	-0.28964928
120	0x3eb7ec34	0.35922396
121	0xbdd1b86c	-0.10240254
122	0xbd8d6cae	-0.06905495
123	0xbddb1337	-0.10697024
124	0x3e9fbc63	0.31198415
125	0x3e92b6fd	0.28655234
126	0xbe8227bc	-0.2542094
127	0x3eb352fa	0.35024244
128	0x3e86df0f	0.26342055
129	0xbef1283e	-0.47101015
130	0xbea4d5be	-0.32194322
131	0x3ecb5ba2	0.39718348
132	0x3e5741c0	0.21021175
133	0x3ed16051	0.40893796
134	0x3ed4a70e	0.41533703
135	0x3f03bedb	0.514631
136	0xbea0e211	-0.31422475
137	0x3e6c4519	0.23073234
138	0x3ebedbf7	0.37277195
139	0xbf044e16	-0.5168165
140	0xbc35274b	-0.011056731
141	0x3f0dd114	0.5539715
142	0x3e84fcf9	0.25974253
143	0xbe8aaf84	-0.27087033
144	0xbf23d7ee	-0.6400136
145	0x3e2fa5b9	0.17153062
146	0x3dd0c174	0.10193148
147	0x3de6e5c9	0.11274297
148	0x3c229f20	0.009925634
149	0xbe67be73	-0.22631244
150	0x3f0a3ee4	0.54002213
151	0xbe830e74	-0.25596964
152	0x3eb2a6d6	0.3489291
153	0x3e9dc0c3	0.30811128
154	0x3f1a463e	0.6026343
155	0xbdac6613	-0.084179066
156	0x3e5322eb	0.20618789
157	0x3e8e35fe	0.27775568
158	0x3b713608	0.0036805887
159	0xbe5d15b0	-0.21590304
160	0xbf055288	-0.5207906
161	0x3e957670	0.29191923
162	0xbe9d8d79	-0.30771998
163	0xbc8b6c50	-0.01701942
164	0xbec5c2e5	-0.38625255
165	0xbd6bfd21	-0.05761445
166	0x3efd95c0	0.49528313
167	0x3e9d07ac	0.30669916
168	0x3ee02321	0.437768
169	0x3efd3c86	0.49460238
170	0x3eb9cf8b	0.36291155
171	0x3eb66c96	0.3562972
172	0x3d02ceba	0.03193543
173	0xbe4e5770	-0.20150542
174	0x3d8dc2c8	0.06921917
175	0x3e14cc64	0.14531094
176	0x3e17809e	0.14795157
177	0xbe8e9c33	-0.27853546
178	0x3e5904d6	0.21193251
179	0xbe5c64f6	-0.21522889
180	0x3e82248d	0.2541851
181	0xbdf88db3	-0.12136402
182	0xbe877554	-0.26456702
183	0x3ec261af	0.37965152
184	0x3f0a8757	0.5411276
185	0x3e94f1a1	0.29090598
186	0xbe413120	-0.18866396
187	0x3f005545	0.5013011
188	0xbe83cc5d	-0.25741854
189	0x3f1357c1	0.57555777
190	0xbecef44b	-0.40420756
191	0x3cff27bf	0.031146882
192	0x3e6dd6b5	0.23226435
193	0xbedd311f	-0.4320154
194	0x3eb459af	0.35224673
195	0x3ee8d3fe	0.45474237
196	0xbd5c15f0	-0.05373186
197	0x3e99910b	0.29993472
198	0x3e851e3b	0.25999627
199	0xbecfebf5	-0.40609708
200	0x3edb73c0	0.42861748
201	0x3f0a20eb	0.5395648
202	0x3f156113	0.5835125
203	0xbf0062b1	-0.5015059
204	0x3eba6c40	0.36410713
205	0x3eecd800	0.46258545
206	0x3da6bc9d	0.08141444
207	0xbd0b6fce	-0.034042172
208	0x3e1a613d	0.15076156
209	0x3d9bc473	0.07605829
210	0x3d8b964d	0.06815777
211	0xbd88d3af	-0.066810004
212	0x3f0fc4ee	0.56159866
213	0x3ea9a102	0.33130652
214	0x3f12e1b2	0.57375634
215	0xbe34d6e6	-0.17660102
216	0x3d8cd095	0.06875721
217	0xbd25caaa	-0.04047648
218	0xbe7af332	-0.24506834
219	0x3f049094	0.5178311
220	0x3eebfdc1	0.46092036
221	0x3e4648ae	0.19363663
222	0xbeec6c7c	-0.46176517
223	0xbe5c24b5	-0.21498378
224	0x3dd98015	0.10620133
225	0x3eb2e41e	0.34939665
226	0x3f12f242	0.57400906
227	0x3df5881b	0.11988851
228	0xbb949dab	-0.004535397
229	0x3efc5d77	0.49290058
230	0xbe7e0eb2	-0.24810293
231	0xbe8ed887	-0.27899572
232	0xbe9b73b8	-0.30361724
233	0xbda07dc6	-0.078364894
234	0xbdd72631	-0.10505331
235	0xbd7bae41	-0.06144548
236	0xbdf2d99b	-0.11857911
237	0x3f145afd	0.5795134
238	0x3d06e4d9	0.03293309
239	0xbe7397cd	-0.23788376
240	0xbebcbb47	-0.3686163
241	0xbe9d6bb3	-0.3074623
242	0xbe8e3ef7	-0.27782413
243	0x3ef0acaa	0.47006732
244	0x3dc4a989	0.09602649
245	0xbd8229a8	-0.063556015
246	0x3f0b9dc4	0.54537606
247	0xbc517ce2	-0.012786122
248	0xbc8a4deb	-0.016882857
249	0x3eac223d	0.33619872
250	0xbe7eb03c	-0.24871916
251	0x3eaa41a1	0.33253196
252	0xbe98f8f2	-0.2987743
253	0xbcd34f39	-0.025794612
254	0x3f0207db	0.50793236
255	0x3f06ae3f	0.5260963
