logs/lp/2019_11_29/1/model.pth (torch_old, 34293 bytes, 4 tensors)

encoder.layers.0.conv.weight f4 [500, 16]
0	0x3e8d607e	0.2761268
1	0x3e9e818b	0.30958208
2	0x3f32a55c	0.6978357
3	0x3e0604fe	0.13087842
4	0x3f7ef98d	0.99599534
5	0xbf0c939a	-0.5491272
6	0x3d6ddbbc	0.058070883
7	0x3f0c9deb	0.54928464
8	0xbed14504	-0.40872967
9	0xb3422b6c	-4.5208637e-08
10	0x3f565d11	0.8373576
11	0x3e8b5118	0.27210307
12	0x3f10667e	0.5640639
13	0x3f3b8f06	0.7326511
14	0x3ceae215	0.028672257
15	0xbe8ed6d8	-0.27898288
16	0x3b318d29	0.0027092195
17	0x3d5c078d	0.05371814
18	0x3ddd6c90	0.10811722
19	0x3d7bcd13	0.06147487
20	0xbdabe420	-0.08393121
21	0xbcf2b482	-0.029627088
22	0x3d4376f2	0.047720857
23	0x3d58ba0a	0.052911796
24	0x3dd08c76	0.10183041
25	0xb21ca702	-9.118368e-09
26	0xbc9e2771	-0.019305917
27	0x3da943b5	0.08264867
28	0xbd6f3e41	-0.05840898
29	0x3d2fb1d6	0.042894207
30	0x3e7b1068	0.24517977
31	0x3d0076c0	0.03136325
32	0xbe36b775	-0.17843421
33	0xbc83e0ae	-0.016098347
34	0x3ea33891	0.31879094
35	0xbdd39aa0	-0.10332227
36	0x3e027708	0.1274072
37	0xbbb21167	-0.0054342034
38	0x3ce092e4	0.027413793
39	0x3e5ac1d2	0.21362999
40	0x3c6590da	0.014011586
41	0x31ae677b	5.075831e-09
42	0x3e03bff4	0.12866193
43	0x3e42165b	0.1895384
44	0xbe218f31	-0.1577728
45	0xbc3ae52d	-0.011407179
46	0x3e6ab604	0.22920996
47	0xbdbf33b6	-0.09336035
48	0xbc6b8e3b	-0.014377172
49	0x3d327af0	0.043574274
50	0x3db0dc23	0.08635738
51	0x3a1f3f6e	0.00060748204
52	0x3d57b57a	0.052663304
53	0xbdb744b0	-0.08948648
54	0x3bccae18	0.0062463395
55	0x3d69ed04	0.0571108
56	0x3da1172a	0.07865746
57	0x306b4d2d	8.5602175e-10
58	0x3d65c9da	0.056100704
59	0x3cf71f43	0.030166274
60	0xbc9d1ccb	-0.019178769
61	0x3d749419	0.05971155
62	0x3daec722	0.08534075
63	0xbd01c98a	-0.031686343
64	0x3ded6e27	0.115932755
65	0x3da698f8	0.08134645
66	0xbda1c5ac	-0.07899031
67	0x3da4f7d5	0.08055083
68	0xbd57e1a6	-0.05270543
69	0xbe147ff6	-0.14501938
70	0xbd1d918d	-0.038468886
71	0xbd9e0de3	-0.077174924
72	0x3dc78491	0.09742082
73	0xb1f26d3d	-7.055546e-09
74	0x3ce6b054	0.028160252
75	0xbda56e18	-0.08077639
76	0x3dbccb32	0.09218444
77	0x3e0f7340	0.14008808
78	0xbd216445	-0.039402265
79	0xba401064	-0.0007326661
80	0xbdaa6142	-0.08319332
81	0xbe851d39	-0.25998858
82	0xbd928875	-0.07154933
83	0x3db341d4	0.0875279
84	0x3d25e197	0.040498342
85	0xbed4e859	-0.41583517
86	0xbcad7390	-0.021173269
87	0x3e569bdd	0.20957895
88	0x3ee26b51	0.442225
89	0xb21cb49a	-9.121459e-09
90	0x3dd97fb2	0.10620059
91	0x3e423b53	0.18967943
92	0xbe185c74	-0.14879018
93	0x3e3c0862	0.18362573
94	0x3e1fa6ec	0.1559102
95	0xbe09e63b	-0.13466732
96	0x3e3454d1	0.1761048
97	0x3e6670a6	0.2250391
98	0xbd110b4b	-0.03541116
99	0x3de674a5	0.11252717
100	0x3dbb8272	0.0915574
101	0xbdc1ebac	-0.09468779
102	0xb9e63aeb	-0.00043912916
103	0xbd160e33	-0.036634635
104	0xbdc3b834	-0.09556618
105	0xb263bd6d	-1.32562095e-08
106	0x3dd78bdb	0.10524722
107	0xbdcdea45	-0.10054449
108	0x3e8286e1	0.2549353
109	0x3e14e717	0.14541279
110	0x3d7a94eb	0.061177175
111	0x3ba3cb0a	0.0049985694
112	0xbd5ab523	-0.0533954
113	0x3d6c89a8	0.057748467
114	0x3e22fac2	0.15915969
115	0xbc602c09	-0.013682374
116	0x3c8f192c	0.017468058
117	0x3bc96f11	0.0061472734
118	0x3cd056f3	0.025432086
119	0x3d7d0c15	0.0617791
120	0x3d916cf2	0.07100858
121	0x3244b68c	1.1450208e-08
122	0x3b54fb29	0.0032498336
123	0x3d69f4a1	0.057118062
124	0xbd85a640	-0.0652585
125	0xbc26317f	-0.010143637
126	0x3e06b68d	0.13155575
127	0xba831df5	-0.0010003435
128	0x3e52c1f8	0.20581806
129	0x3e7e17d3	0.24813776
130	0x3acbdd89	0.0015553694
131	0x3da4fe71	0.08056343
132	0x3e9602fa	0.29299146
133	0xbe9558f9	-0.29169443
134	0xbd9736bf	-0.07383489
135	0xbc8a25d2	-0.016863737
136	0xbdfaa519	-0.12238521
137	0x312b308c	2.491137e-09
138	0x3ec86dfd	0.39146414
139	0xbe29f4c2	-0.16597274
140	0x3ec1b2f5	0.37831846
141	0x3ec96645	0.39335838
142	0xbe13d1e7	-0.1443554
143	0xbe095405	-0.13410957
144	0x3e2a4411	0.16627528
145	0x3e68756a	0.2270104
146	0x3ca845de	0.020541128
147	0x3c8d20e4	0.017227598
148	0x3e9d4640	0.3071766
149	0xbcdf0ab9	-0.027226793
150	0xbb17d249	-0.0023166111
151	0xbd01575e	-0.03157746
152	0xbe814446	-0.252474
153	0xb233720b	-1.0445102e-08
154	0x3e299c54	0.1656354
155	0xbe1b7a53	-0.15183382
156	0x3eab6660	0.33476543
157	0x3d6a25f6	0.05716511
158	0x3c0c23f4	0.008553494
159	0xbcc24b4a	-0.023717541
160	0xbe19fcde	-0.15037867
161	0x3e145a2a	0.1448752
162	0x3e51e602	0.20497897
163	0xbe08be6f	-0.13353895
164	0x3e9c36d7	0.3051059
165	0x3e7b03fd	0.2451324
166	0x3db039a4	0.08604744
167	0x3da8fad9	0.082509704
168	0xbe78c903	-0.2429543
169	0x320c35d4	8.161312e-09
170	0xbd136aec	-0.03599064
171	0xbbfedb10	-0.007777579
172	0xbb8b7600	-0.00425601
173	0xbe99e55a	-0.30057794
174	0x3bb2b995	0.005454252
175	0x3c99f0fd	0.01879167
176	0xbd114d1a	-0.03547392
177	0xbc77497d	-0.015093205
178	0x3cc8d314	0.024514712
179	0xbcf75533	-0.030191993
180	0x3d6339fb	0.055475216
181	0xbda3a9b9	-0.079913564
182	0xbd1b0e22	-0.037855275
183	0xbc2e0438	-0.010621123
184	0x3dadb598	0.08481902
185	0xb23529ca	-1.0545088e-08
186	0x3d2a799a	0.041619875
187	0xbd8d5542	-0.06901027
188	0x3c0fd558	0.008778892
189	0x3c84e772	0.016223643
190	0xbd88a51e	-0.066721186
191	0xbd37c210	-0.044862807
192	0x3d9e8d52	0.077417985
193	0x3dbb4c4d	0.091454126
194	0x3ce20aa5	0.027592966
195	0x3d4e0767	0.05030003
196	0x3cdb88c9	0.026798623
197	0xbd2dcb51	-0.042430226
198	0x3c928e18	0.017890021
199	0x3b1686f7	0.002296863
200	0x3c6210e3	0.013797971
201	0x329d6d57	1.8326928e-08
202	0x3cb7ed00	0.022451878
203	0x3c0daa7a	0.008646602
204	0x3d6d258e	0.057897143
205	0x3d52d7af	0.051475223
206	0x3ddf153a	0.108927205
207	0x3cd777fe	0.026302334
208	0x3dfe969b	0.124310695
209	0x3e339278	0.17536342
210	0xbb07e63d	-0.0020736598
211	0x3dde93ee	0.10868059
212	0xbd6d2b4a	-0.05790261
213	0x3d8c5130	0.06851423
214	0x3db59280	0.08865833
215	0xbd845097	-0.06460684
216	0x3c219f0e	0.009864582
217	0x31ea8e0e	6.826446e-09
218	0xbe090395	-0.13380273
219	0xbd711afe	-0.058863632
220	0x3de98d49	0.11403901
221	0xbc8c9435	-0.017160514
222	0x3e35c6eb	0.17751662
223	0x3e0233e5	0.12715109
224	0xbbe44656	-0.0069663925
225	0x3cbde8ae	0.02318224
226	0x3cb2ecb2	0.02184138
227	0xbcd95c35	-0.026533226
228	0x3d5604fb	0.052250843
229	0x3ce1d13e	0.027565595
230	0xbc10c8a9	-0.008836904
231	0xbcf54bd9	-0.029943394
232	0xbc4ff3d9	-0.012692415
233	0x2f2286ee	1.4781751e-10
234	0xbaf25675	-0.0018488901
235	0xbd661d51	-0.056180302
236	0x3cd13f4c	0.025542878
237	0xbd197cba	-0.037472464
238	0xbca9430d	-0.020661855
239	0x3bbb8f77	0.0057238895
240	0x3ec7c893	0.39020213
241	0x3ec62b5b	0.38704953
242	0xbdde03c4	-0.10840562
243	0x3e949886	0.29022616
244	0x3e0ef5ba	0.13960925
245	0xbe9d4140	-0.30713844
246	0xbd02a4da	-0.031895496
247	0x3d0c63ca	0.034274854
248	0xbd80931a	-0.062780574
249	0xb7623bab	-1.3484542e-05
250	0x3ea1486c	0.31500566
251	0xbdaa1cc2	-0.08306266
252	0x3ee47a5b	0.446246
253	0x3f01044c	0.5039718
254	0x3e224852	0.158479
255	0xbd409437	-0.04701635

encoder.layers.0.conv.bias f4 [16]
0	0x3d91c89d	0.07118342
1	0xbd833109	-0.06405837
2	0xbd9da176	-0.07696812
3	0x3cb0d120	0.021584094
4	0x3e095532	0.13411406
5	0x3e91faae	0.28511566
6	0x3cc6478d	0.02420404
7	0x3d889274	0.06668559
8	0x3e85500b	0.2603763
9	0xbe05b29f	-0.1305642
10	0x3de24dd2	0.11049999
11	0x3db15397	0.086585216
12	0x3d8dd4d5	0.0692536
13	0x3dd8da8d	0.1058856
14	0xbd944b52	-0.07240929
15	0x3e0a5980	0.13510704

encoder.layers.1.conv.weight f4 [16, 16]
0	0xbd555265	-0.05208053
1	0xbd2cdd5a	-0.042203285
2	0xbf998525	-1.1993757
3	0xbf761b04	-0.9613497
4	0x3f1ac2b2	0.6045333
5	0xbf4915c0	-0.7854881
6	0x3e7f0b03	0.24906544
7	0xbf33f29c	-0.7029207
8	0x3d78b46e	0.060718946
9	0x3d826427	0.06366759
10	0xbe7787d8	-0.24172914
11	0xbf5d5ca7	-0.864695
12	0xbf393493	-0.72345847
13	0x3f1b0dcc	0.6056793
14	0x3eb574bc	0.35440624
15	0xbf175b3a	-0.59123576
16	0xbeea4507	-0.4575579
17	0x3cdfcac1	0.02731836
18	0xbf2d1ae8	-0.6761918
19	0xbf6960ea	-0.91163504
20	0x3ef39bc1	0.47579768
21	0xbfc73037	-1.5561589
22	0xbf20fdc0	-0.6288719
23	0xbfbf8cf5	-1.4964892
24	0xbdae37a7	-0.085067086
25	0x3d7e1b2f	0.062037643
26	0xbf024dc3	-0.50899905
27	0xbf642f9d	-0.8913515
28	0xbf25d914	-0.6478436
29	0x3ee3d985	0.44501892
30	0xbe5236c3	-0.20528702
31	0xbf9b7a18	-1.2146635
32	0xbe9935ef	-0.2992396
33	0xbf45d66e	-0.7728032
34	0x3f6a30a9	0.914805
35	0x3edf2557	0.43583176
36	0xbf88a5a8	-1.0675554
37	0x3edb8c6e	0.42880577
38	0xbfebbb82	-1.8416598
39	0x3ea2096c	0.31647813
40	0xbf7b08c7	-0.9806027
41	0xbf66182b	-0.8988063
42	0xbeb1fb16	-0.34761876
43	0x3eb95375	0.36196485
44	0x3d8ebcf5	0.069696344
45	0xbf747298	-0.95487356
46	0xbf900c5d	-1.1253773
47	0x3ef3ed3c	0.47641933
48	0xbf205e15	-0.6264356
49	0xbd217331	-0.039416496
50	0xbf9991a0	-1.1997566
51	0xbf0686e9	-0.52549607
52	0x3e6b8081	0.22998239
53	0xbf2ee402	-0.6831666
54	0x3ee7ee68	0.45299077
55	0xbeb82569	-0.35966042
56	0xbe814c34	-0.2525345
57	0xbefe472c	-0.49663675
58	0xbec38ab5	-0.38191763
59	0xbe4e33f2	-0.20137003
60	0xbe95c319	-0.2925041
61	0x3dee489b	0.11634942
62	0x3e6c9c32	0.23106459
63	0xbeb0cc60	-0.34530926
64	0x3da5792b	0.080797516
65	0x3ec44f44	0.38341725
66	0x3ff87e1b	1.9413484
67	0xbec5e0dc	-0.38648117
68	0xbe6e6f81	-0.23284723
69	0xbeb617ed	-0.3556513
70	0xbfe87e1b	-1.8163484
71	0xbe81e32e	-0.25368637
72	0x3f2715ea	0.65267813
73	0xbed77a19	-0.4208534
74	0x3e9580d8	0.29199862
75	0xbef852d1	-0.48500684
76	0xbf82d91b	-1.0222505
77	0xbe929ad3	-0.28633747
78	0xbf719358	-0.94365454
79	0xbf069138	-0.52565336
80	0xbf0703a3	-0.52739924
81	0xbf086f1c	-0.5329454
82	0x3f5f24eb	0.8716571
83	0x3f7630c4	0.9616816
84	0x3f523869	0.82117325
85	0xbef87723	-0.48528394
86	0xbf4ef674	-0.8084481
87	0xbecd61b5	-0.40113607
88	0xbf588468	-0.84577036
89	0x3f82ef98	1.0229368
90	0xbedf26e2	-0.43584353
91	0x3f429289	0.76004845
92	0x3f79fc18	0.9765029
93	0x3f5f8970	0.8731909
94	0xbe94dd4a	-0.2907508
95	0xbec463ff	-0.3835754
96	0xbef0e827	-0.47052118
97	0xbf2a6d12	-0.6657268
98	0xbe711ba3	-0.23545699
99	0x3e5f72c4	0.21821123
100	0xbdfb8a42	-0.1228223
101	0xbeee4ec9	-0.46544483
102	0xbee206ce	-0.44145817
103	0xbe90cf94	-0.2828337
104	0xbf156c90	-0.5836878
105	0x3f33e824	0.70276093
106	0xbefcd5c8	-0.49381852
107	0x3e9521bb	0.29127297
108	0x3e4aeeeb	0.19817702
109	0xbd63f13a	-0.055649973
110	0xbe181d5d	-0.14854951
111	0xbf3bd3e7	-0.7337021
112	0x3d80f6a7	0.06297045
113	0xbdd2116d	-0.1025723
114	0x3f256942	0.64613736
115	0x3d95218d	0.0728179
116	0xbf652aad	-0.89518243
117	0x3f11a02c	0.5688503
118	0xbf6b2df6	-0.91867006
119	0x3f13d1b6	0.5774187
120	0xbf0fe10b	-0.56202763
121	0xbef5bf68	-0.47997594
122	0xbdfdd82b	-0.123947464
123	0x3e244a21	0.16043903
124	0xbe60cccd	-0.21953125
125	0xbf5cde3e	-0.86276615
126	0xbee87fb7	-0.4540994
127	0x3e92361b	0.28556904
128	0x3f05470f	0.5206155
129	0xbd72aa1e	-0.059244268
130	0xbf9f06be	-1.2423933
131	0x3deb366d	0.1148499
132	0xbf2d807f	-0.67774194
133	0x3f27d233	0.65555114
134	0x3ff0c421	1.8809854
135	0x3f02d737	0.5110964
136	0xbd92c3aa	-0.07166226
137	0xbeed9e15	-0.4640967
138	0x3eb13676	0.34611863
139	0x3e68a2a6	0.22718295
140	0x3ec0eaa7	0.37679026
141	0xbf358d50	-0.7091875
142	0x3f8548f4	1.0412889
143	0x3f38570d	0.7200783
144	0xbde8d513	-0.11368766
145	0xbd27f31c	-0.04100333
146	0xbe0e8da9	-0.13921227
147	0xbd0d945f	-0.034565326
148	0x3e20b45b	0.156938
149	0x3bc17a7f	0.0059044953
150	0x3cd94c40	0.026525617
151	0xbc9dff81	-0.019286873
152	0xbc8b2f09	-0.016990202
153	0xbcdfb298	-0.02730684
154	0xbd093112	-0.033494063
155	0x3b7e44e2	0.0038798382
156	0x3c0eb2aa	0.008709589
157	0x3dd74910	0.105119824
158	0x3bfc7c30	0.007705234
159	0xbd76329e	-0.060106866
160	0x3eddb643	0.43303117
161	0x3f274e0f	0.6535348
162	0x3ee40097	0.445317
163	0xbf1f9141	-0.62331015
164	0xbf0b7fff	-0.5449218
165	0x3f23b382	0.6394578
166	0xbf609e45	-0.877415
167	0x3ef81bd4	0.4845873
168	0x3f61416e	0.8799046
169	0xbf88d276	-1.0689228
170	0x3ef101cf	0.47071692
171	0xbf4487ec	-0.767699
172	0xbf8f820b	-1.1211561
173	0xbf23f398	-0.6404357
174	0xbf218265	-0.6308959
175	0x3ea70fdc	0.32629287
176	0xbe2350a5	-0.15948732
177	0xbf4b9d28	-0.79536676
178	0xbc881105	-0.016609678
179	0x3d0d382a	0.03447739
180	0xbf530faf	-0.82445806
181	0x3f30241d	0.68805104
182	0xbe3497ec	-0.17636079
183	0x3f004229	0.5010095
184	0xbf508522	-0.81453145
185	0xbea6d22f	-0.32582232
186	0xbea23f84	-0.31689084
187	0x3de0e4e1	0.10981155
188	0x3f02d201	0.5110169
189	0xbf69796b	-0.91200894
190	0xbf194962	-0.598776
191	0x3f07b1ed	0.5300587
192	0xbe689c53	-0.22715883
193	0x3ef4fb77	0.47848102
194	0xbec4a209	-0.38404873
195	0xbf3efc0f	-0.7460336
196	0x3f427b1a	0.7596909
197	0xbfa38ad6	-1.2776744
198	0xbf3d1d1f	-0.7387256
199	0xbf7fb1e3	-0.9988081
200	0x3f2200a5	0.63282233
201	0xbdae447a	-0.085091546
202	0xbe67b5ba	-0.22627917
203	0xbf5e50ca	-0.86842024
204	0xbf975fd5	-1.1826121
205	0x3f585451	0.84503657
206	0xbe281283	-0.16413312
207	0xbf881ca4	-1.063374
208	0x3e4c8eb0	0.19976306
209	0x3edd7535	0.43253484
210	0xbfb24c44	-1.3929524
211	0xbf6b5205	-0.91922027
212	0xbef08480	-0.4697609
213	0x3e65b206	0.22431192
214	0x3ef50e5f	0.47862527
215	0x3e23eeba	0.16009036
216	0x3f28acb2	0.6588851
217	0xbf6f5452	-0.9348804
218	0x3e907663	0.28215322
219	0xbf6aa135	-0.9165223
220	0xbf84a647	-1.0363244
221	0xbebcabde	-0.36849874
222	0xbe243aaa	-0.16038004
223	0x3f3f4f7c	0.7473066
224	0xbf5b2add	-0.8561228
225	0xbfc87d77	-1.5663289
226	0xbfd6018a	-1.671922
227	0xbe03f3ea	-0.12886015
228	0xbf77cee9	-0.96800095
229	0xbf269bad	-0.6508129
230	0xbf82096f	-1.0159129
231	0xbf041c27	-0.5160546
232	0xc00740d9	-2.113333
233	0xbb8b5288	-0.004251782
234	0xbf976af5	-1.1829516
235	0xbdf22c5e	-0.118248686
236	0x3e7a2ac8	0.24430382
237	0xbf7d88c0	-0.9903679
238	0xbf43f27b	-0.7654187
239	0xbf9708c1	-1.1799546
240	0xbf1a42fd	-0.60258466
241	0xbee7b18a	-0.4525264
242	0xbf18ca1e	-0.59683406
243	0x3dabde24	0.08391979
244	0x3ef61d46	0.4806921
245	0xbf19f300	-0.60136414
246	0x3e859fec	0.26098573
247	0xbf05024d	-0.51956636
248	0xbf1f8d46	-0.6232494
249	0x3f3196bd	0.69370633
250	0xbf039705	-0.5140231
251	0x3ea51669	0.3224366
252	0x3f0a413c	0.5400579
253	0x3ef4dda6	0.47825354
254	0x3e9a4c18	0.3013618
255	0xbf48ed20	-0.78486824

encoder.layers.1.conv.bias f4 [16]
0	0x3e2a4e83	0.16631512
1	0x3e9ecc02	0.3101502
2	0x3f3367f4	0.70080495
3	0x3e8930fe	0.2679519
4	0x3ea749eb	0.32673582
5	0x3ea0be6f	0.3139529
6	0x3f06a1fb	0.5259091
7	0x3e85f623	0.2616435
8	0x3ed66227	0.4187176
9	0x3e800f7e	0.2501182
10	0x3e44b1d2	0.19208458
11	0x3e85e9b6	0.2615487
12	0x3ed17000	0.40905762
13	0x3ea90740	0.33013344
14	0x3ea2a6af	0.31767794
15	0x3e8b2abf	0.2718105
