logs/nc/2020_1_18/4/model.pth (torch_old, 132087 bytes, 13 tensors)

encoder.layers.0.conv.att f4 [1, 1, 32]
000000 e6 ad e1 ba cb aa 5f 37 61 5b 8b 3c 4c de b3 3a
       -0.0017217963 1.3331602e-05 0.017011346 0.0013722866
000010 ee 87 8b b7 a8 77 6a 3c 78 86 9a 38 a7 f3 0b bc
       -1.6633388e-05 0.014310755 7.368339e-05 -0.008541978
000020 92 3c 15 bc 5e c5 94 37 67 6b b2 bc 78 3f cb 3c
       -0.009108679 1.7734881e-05 -0.021779729 0.024810538
000030 7f 26 9a 34 4d e8 9d 38 b7 36 d6 3c 0d 72 fa b5
       2.8712745e-07 7.529613e-05 0.026149137 -1.8659645e-06
000040 05 ce f1 ba b3 6a 83 38 28 4a 86 3c d3 e3 21 ba
       -0.001844824 6.266441e-05 0.016392782 -0.0006175611
000050 55 11 bd 36 ee 20 83 3e 83 73 9b 38 f2 6d 0c bc
       5.6346566e-06 0.2561106 7.412492e-05 -0.008571135
000060 3f 38 f0 ba 70 60 1c b7 54 a2 b2 bc a0 12 6c 3e
       -0.001832731 -9.320778e-06 -0.02180592 0.2305398
000070 31 38 1e 33 05 73 c6 38 9d a9 e9 3c cf 21 08 37
       3.6838347e-08 9.4628e-05 0.02852326 8.114103e-06

encoder.layers.0.conv.bias f4 [16]
000000 c4 a4 df bc e3 1c bf b9 08 b8 1e 3e 76 d4 8f bb
       -0.027300246 -0.0003645188 0.1549989 -0.004389341
000010 08 f6 02 bb 62 fe f9 3d 3b cb 24 ba 2e 24 cf bc
       -0.0019983072 0.12206723 -0.0006286387 -0.025285807
000020 9e 51 d4 bd 40 1f ac b7 de 3e 92 3e 49 67 9c 3d
       -0.1036713 -2.051855e-05 0.2856359 0.076368876
000030 a1 31 99 b7 f9 b4 a5 ba b6 b5 13 3f 9f fd c4 b7
       -1.8262132e-05 -0.0012642435 0.57699144 -2.3483122e-05

encoder.layers.0.conv.linear.weight f4 [16, 1000]
000000 92 8a d8 b8 d1 74 a2 37 8f 45 22 b7 c2 60 2a 38
       -0.00010325493 1.9366302e-05 -9.672148e-06 4.062127e-05
000010 ae 06 52 38 f9 45 5f 38 40 01 6f b8 97 38 31 37
       5.0074123e-05 5.323251e-05 -5.6983205e-05 1.0563198e-05
000020 08 1f fe b6 95 ea 18 b8 07 0d 8d b8 55 70 1a b8
       -7.5734024e-06 -3.6458096e-05 -6.7258305e-05 -3.682108e-05
000030 4a 77 06 b8 03 7b 59 36 76 9c df 39 19 16 4b 37
       -3.2059186e-05 3.2407122e-06 0.00042650447 1.2104888e-05
000040 c1 4b f4 37 0c 54 21 36 35 f5 b9 37 b0 fb bc b6
       2.9122342e-05 2.4039791e-06 2.2167902e-05 -5.632137e-06
000050 1c 6e 02 38 8e ab e7 36 62 52 36 b7 f7 25 97 34
       3.1096963e-05 6.904308e-06 -1.0867227e-05 2.8153565e-07
000060 6d de 32 b6 91 1f 13 38 81 d7 47 38 51 d4 5a b8
       -2.6653536e-06 3.507693e-05 4.7646e-05 -5.2172985e-05
000070 ba 05 15 38 5b 2b 53 b7 30 4c 81 b7 39 89 d8 b7
       3.55297e-05 -1.25866745e-05 -1.5413476e-05 -2.5813106e-05
000080 6c 99 0f b9 b8 9a 64 38 f8 74 ab 38 6e 55 85 b8
       -0.00013694697 5.450353e-05 8.1757025e-05 -6.357847e-05
000090 dc 33 b8 36 a8 a7 40 b8 a5 ba 0a b8 5a c9 f2 b7
       5.4896645e-06 -4.593251e-05 -3.307559e-05 -2.894241e-05
0000a0 b9 66 0e 38 28 f5 37 38 fe 56 01 b7 28 30 45 b8
       3.3951106e-05 4.385892e-05 -7.709254e-06 -4.701331e-05
0000b0 95 9a 04 b8 a2 31 b1 38 a3 aa a2 37 d8 0a 1c b8
       -3.1615218e-05 8.4492625e-05 1.9391364e-05 -3.7203397e-05
0000c0 b3 96 fd 37 d5 7e b5 37 ec 4e b5 b8 24 88 01 b8
       3.0230125e-05 2.1635942e-05 -8.645453e-05 -3.0882788e-05
0000d0 a8 24 bc b8 a1 8c ef 37 5d b9 7d b7 3d 69 a6 b8
       -8.971366e-05 2.8556506e-05 -1.5123133e-05 -7.935099e-05
0000e0 fe e4 2d b8 8c 4e 0f 38 5a 18 47 b8 b3 de 3c 38
       -4.145968e-05 3.416701e-05 -4.7467976e-05 4.5030098e-05
0000f0 37 38 5d b8 36 ca 93 38 3e fd a3 b7 26 37 46 38
       -5.274286e-05 7.047171e-05 -1.954904e-05 4.725824e-05
000100 8e 1a 62 37 c9 9c 39 b8 6e 35 34 b8 1e fd fe b7
       1.34768325e-05 -4.4253455e-05 -4.2965105e-05 -3.0397026e-05
000110 60 fb 14 b8 56 d3 55 b7 f0 b3 5d b7 7d 93 d9 b7
       -3.552006e-05 -1.2744995e-05 -1.32145215e-05 -2.5937095e-05
000120 4a ec 90 37 7c 5b 42 37 63 47 d4 b7 e9 87 97 37
       1.7276168e-05 1.1584601e-05 -2.5305611e-05 1.806389e-05
000130 44 34 47 b8 54 05 a2 b8 b0 77 36 38 79 b6 24 b7
       -4.7493973e-05 -7.7257544e-05 4.350365e-05 -9.817647e-06
000140 d7 74 34 b8 42 0f cf 37 1f df 8e 37 d4 a6 f3 b6
       -4.302416e-05 2.4683428e-05 1.7031618e-05 -7.2613857e-06
000150 7e 71 1a 37 f6 b0 6a 38 79 c3 7a 38 6e 0c 9e b6
       9.20554e-06 5.5954755e-05 5.9786693e-05 -4.710214e-06
000160 fd 98 8b 38 1d 62 5b b8 81 53 2f b7 c8 42 7b b8
       6.656533e-05 -5.2305044e-05 -1.0450255e-05 -5.990526e-05
000170 5e 82 ce 38 51 4a 84 36 66 b7 23 38 44 b8 44 38
       9.847128e-05 3.942558e-06 3.903303e-05 4.6901652e-05
000180 72 91 84 b8 b4 a3 83 36 c3 e5 0e b8 3a 1d bb 38
       -6.321342e-05 3.923162e-06 -3.406942e-05 8.922299e-05
000190 79 7f 51 38 43 64 19 38 50 c4 29 38 44 61 9c 37
       4.99482e-05 3.657142e-05 4.047557e-05 1.8641942e-05
0001a0 78 79 8e b7 a6 80 18 38 ca 80 ff b6 5e 9e 61 38
       -1.6984282e-05 3.6359437e-05 -7.6145852e-06 5.379167e-05
0001b0 8e 0f ac b8 2b 03 f6 b7 c5 a1 0d b7 e6 5c 69 b8
       -8.2044964e-05 -2.932696e-05 -8.44192e-06 -5.5638047e-05
0001c0 a7 e5 f5 37 31 89 2e 38 84 33 01 b8 11 82 28 b7
       2.9313216e-05 4.1612602e-05 -3.0803974e-05 -1.0043864e-05
0001d0 bf 28 94 b6 34 87 6d 36 fe cd 7a 36 38 89 02 38
       -4.415487e-06 3.539445e-06 3.7372806e-06 3.112221e-05
0001e0 e7 4a 5a 38 04 eb e0 b7 01 59 b1 b7 e7 4e a9 36
       5.204501e-05 -2.6812319e-05 -2.114149e-05 5.045778e-06
0001f0 7e 36 7a 38 8d 24 46 b8 e0 82 a5 37 98 9e 68 38
       5.9655395e-05 -4.724092e-05 1.9730476e-05 5.5460812e-05
000200 d5 f4 65 b8 cb 02 fd 37 18 84 5f b7 6d 6c e5 37
       -5.4825872e-05 3.016125e-05 -1.3322591e-05 2.7349417e-05
000210 6c 2e 28 38 f6 1f 4c b7 51 d0 b9 37 6b e5 c5 b7
       4.0097555e-05 -1.2166789e-05 2.2150723e-05 -2.3591061e-05
000220 d9 c6 0e b8 79 07 54 38 dc 9b f2 35 84 ad c7 b7
       -3.404063e-05 5.05517e-05 1.8075766e-06 -2.3803448e-05
000230 73 7e 08 b8 6d c6 f6 b7 9b d1 c9 37 ec d0 70 b8
       -3.254269e-05 -2.9417884e-05 2.4058672e-05 -5.7415033e-05
000240 f7 b8 1b 37 b6 5b 7c 36 72 18 11 38 7d 38 85 37
       9.281785e-06 3.760431e-06 3.459346e-05 1.588114e-05
000250 49 48 e2 37 0b b0 9c b7 9f 23 4c b7 e0 86 2b 37
       2.697496e-05 -1.8678626e-05 -1.2167641e-05 1.0223797e-05
000260 b1 53 40 b7 fe 88 8b b8 2a f3 85 37 47 da db b7
       -1.1463578e-05 -6.653553e-05 1.5968068e-05 -2.6208478e-05
000270 8f 6e dc b6 ef 31 65 b6 99 c5 e4 b8 19 a6 ff 37
       -6.5693816e-06 -3.4152724e-06 -0.00010908693 3.0475714e-05
000280 75 d5 78 36 ea d1 35 b8 bc 48 0e b8 ab 34 13 b8
       3.7079128e-06 -4.334926e-05 -3.3923177e-05 -3.5096582e-05
000290 53 fe e7 b6 44 ea da 37 f8 4d 0c 38 90 a9 8f b7
       -6.9139437e-06 2.6096714e-05 3.3451215e-05 -1.7125887e-05
0002a0 53 88 36 b8 ed 59 2a b8 c9 e1 b6 b8 b4 67 af 35
       -4.3519143e-05 -4.061491e-05 -8.720492e-05 1.3068698e-06
0002b0 6e a1 db b7 e9 c2 a9 33 40 9d 0b 38 a9 51 bf b7
       -2.6182006e-05 7.90513e-08 3.3286633e-05 -2.2807e-05
0002c0 f9 2c 49 b8 73 94 20 38 61 ca c2 38 cb 02 4a 38
       -4.796402e-05 3.8285227e-05 9.288337e-05 4.8163154e-05
0002d0 b5 ac 8e b8 5a 1b 58 b8 7d 47 33 38 e4 b0 b8 36
       -6.803257e-05 -5.1523886e-05 4.2743504e-05 5.50422e-06
0002e0 2b 6e 7c 38 b8 f9 c9 35 98 22 ae 38 28 c9 86 37
       6.0184084e-05 1.5048345e-06 8.30341e-05 1.6067715e-05
0002f0 73 e9 81 37 b1 78 dc 37 51 6a d1 b8 60 4b bc b6
       1.5486707e-05 2.6282245e-05 -9.9856996e-05 -5.6116114e-06
000300 7f 02 06 37 6d ef 6a b8 71 94 1e 37 84 4b 01 b6
       7.987604e-06 -5.601293e-05 9.452096e-06 -1.9266454e-06
000310 b6 03 ee b5 f3 31 c7 b7 a1 b2 42 b7 ca 2b 1e b7
       -1.7733462e-06 -2.3745908e-05 -1.1604891e-05 -9.427729e-06
000320 04 97 65 38 19 f8 2a 37 92 4e 3d 36 87 60 a0 b8
       5.47385e-05 1.0190554e-05 2.8208929e-06 -7.647374e-05
000330 89 82 98 36 cd a0 1d 37 ef c9 9d 37 6c 6b 9b 38
       4.5451493e-06 9.395369e-06 1.8809891e-05 7.410985e-05
000340 16 5b 12 38 0a b1 2e 38 47 e4 b6 35 2d 18 0f b8
       3.4893943e-05 4.1649713e-05 1.3626494e-06 -3.4116372e-05
000350 f5 87 b9 b5 8a 2a 79 37 ed 44 f8 b7 a3 b2 7b b8
       -1.3823143e-06 1.4851461e-05 -2.9596e-05 -6.000943e-05
000360 85 af bd b9 9e 24 53 37 43 72 9b b7 9a 13 1f 38
       -0.0003617966 1.2585106e-05 -1.8530647e-05 3.792681e-05
000370 e9 19 cd 37 d0 70 5b b8 a2 7f 6f 38 d8 55 17 37
       2.444997e-05 -5.2318734e-05 5.7100908e-05 9.020288e-06
000380 7d 96 84 37 fc a1 c5 b6 a9 d4 60 37 d3 58 9b 38
       1.5805703e-05 -5.889915e-06 1.3400954e-05 7.407521e-05
000390 70 8c 8b 36 a4 0d 2b b7 05 00 e9 37 8e a1 c0 b8
       4.158872e-06 -1.019557e-05 2.7775774e-05 -9.185365e-05
0003a0 84 aa 3e b8 40 89 02 b6 cd 7e 02 b8 36 7e 9b b8
       -4.5458335e-05 -1.94514e-06 -3.1112508e-05 -7.4144846e-05
0003b0 d3 4e 03 38 ae 2e bd b7 4a d1 1a 38 ca 74 90 b8
       3.1306245e-05 -2.2552293e-05 3.6911377e-05 -6.888209e-05
0003c0 cf 6c 5d b7 f7 d4 aa b7 14 62 88 b7 eb 55 51 b8
       -1.31979605e-05 -2.0364749e-05 -1.6258135e-05 -4.99095e-05
0003d0 42 f4 53 37 71 fd 80 38 fd 00 42 b7 36 87 d7 b7
       1.2633451e-05 6.150723e-05 -1.1563531e-05 -2.569296e-05
0003e0 55 e7 bd 38 98 b2 90 b7 5d 7c b5 37 96 7e 30 36
       9.055311e-05 -1.7249302e-05 2.1634793e-05 2.6299726e-06
0003f0 31 d9 43 b8 d9 a1 46 38 bc ea db 37 04 2f af 37
       -4.66939e-05 4.735761e-05 2.6216141e-05 2.0883519e-05

encoder.layers.0.conv.linear.bias f4 [16]
000000 1d 41 b0 bc 81 0c f3 b9 0c d9 f1 3d 39 1b 68 bb
       -0.021515423 -0.00046357888 0.118089765 -0.0035416617
000010 a1 2d 4b b6 74 05 56 3c 49 5f a7 ba 07 85 67 bd
       -3.0275917e-06 0.013062824 -0.0012769486 -0.05652335
000020 c5 aa af bd 29 af 49 b8 50 54 cc be 19 9a 04 3d
       -0.085774936 -4.8085265e-05 -0.39908075 0.03237352
000030 34 40 21 b6 6f 81 08 bb f5 ed 1b 3f 84 ea f8 b6
       -2.402824e-06 -0.0020829102 0.6090997 -7.418277e-06

encoder.layers.0.conv_e.weight f4 [1000, 16]
000000 9f aa 06 a6 d7 1c 80 1b 78 eb 84 99 e1 ca b5 ba
       -4.6721824e-16 2.119446e-22 -1.3743585e-23 -0.0013869667
000010 92 b7 3e 2d 51 8a 56 1c e2 31 37 39 1b f6 bf 9a
       1.084101e-11 7.098543e-22 0.00017470823 -7.9393353e-23
000020 c5 dc ed 1b 18 4a 32 ba e2 81 e9 9a ca e6 ef 19
       3.935103e-22 -0.0006801202 -9.657638e-23 2.4805236e-23
000030 b8 3a 3a 33 bb 1e 28 3a 67 ee ab 3a 9a e1 8a 31
       4.3359904e-08 0.00064132706 0.0013117314 4.0419765e-09
000040 bb fe 6e a5 e8 2b 94 1b ed 2c 71 9b 5e b3 12 3c
       -2.0729515e-16 2.451292e-22 -1.9949569e-22 0.008953897
000050 ea 08 9c 2d 12 cb 8b 9b 82 17 e8 3b b6 90 be 9b
       1.7739105e-11 -2.3126852e-22 0.0070828805 -3.152638e-22
000060 80 df e7 9b 68 3c 1c 3c dd 95 7a 98 8c db 9e 9b
       -3.8360178e-22 0.009535886 -3.2387404e-24 -2.6280786e-22
000070 e5 a1 9f 32 13 28 9b 3b c2 08 1e 3c 77 47 75 33
       1.8583657e-08 0.004735002 0.009645643 5.7108505e-08
000080 99 1c 27 a6 29 ab 4b 9a 63 e7 a0 1b 9a ca 6c 3b
       -5.797852e-16 -4.2117678e-23 2.661931e-22 0.0036131502
000090 99 d4 05 ab ef e3 1e 9c 70 82 97 3b eb 6f 96 9b
       -4.754613e-13 -5.257241e-22 0.0046237037 -2.4887744e-22
0000a0 67 11 0b 1b 6e 3e 45 3b 5e 95 81 1b 93 0f 57 9b
       1.1503434e-22 0.0030097025 2.1437786e-22 -1.7789415e-22
0000b0 35 b8 e8 b0 16 47 4c b9 a8 36 9a 3b 09 24 8d b1
       -1.6932576e-09 -0.00019481438 0.0047062226 -4.107737e-09
0000c0 3e 6a 78 a5 b8 82 3f 9b 3c e4 80 9c 96 ac f5 3b
       -2.1546567e-16 -1.5841387e-22 -8.529327e-22 0.0074973805
0000d0 f5 a1 49 ad b1 1d 34 1c 98 c4 ba 3b dc 6e 88 1b
       -1.1461489e-11 5.959538e-22 0.0056997053 2.2570954e-22
0000e0 23 6c e3 9b 53 4d cf 3b 21 44 f5 9b 50 ac 65 1c
       -3.7623882e-22 0.0063263564 -4.0575877e-22 7.5992453e-22
0000f0 3d c2 47 33 3c 58 ac 3b de 7f 0f 3c 8d 09 a4 b2
       4.6509957e-08 0.005259542 0.008758513 -1.9096456e-08
000100 3c 6e 18 26 a5 d8 96 9b 61 9f 92 9a 9a 78 47 3b
       5.288499e-16 -2.4955422e-22 -6.0641675e-23 0.0030436874
000110 27 56 14 ad f5 9e 57 1c f1 0f 22 3b 36 a7 07 1c
       -8.431956e-12 7.134298e-22 0.002472874 4.488387e-22
000120 f3 5e 02 9c 61 81 a3 3a 18 4e 62 1c 99 4f 86 1c
       -4.313611e-22 0.0012474471 7.487806e-22 8.887952e-22
000130 0e 07 f1 32 4f 12 ff 37 71 70 ae 3b eb a3 0c b3
       2.80593e-08 3.0406894e-05 0.0053234627 -3.2745373e-08
000140 f2 60 b5 a5 35 97 30 1c be 5f 0b 1a 81 01 09 3a
       -3.1464188e-16 5.8428946e-22 2.8821866e-23 0.00052263594
000150 c3 c5 d3 ad fd 84 1d 9c a5 ae 18 39 ac 4c b7 9b
       -2.4075747e-11 -5.2118826e-22 0.0001456091 -3.0324358e-22
000160 a2 c6 c5 18 35 43 8a 3b 03 40 48 9b 9a 8c b3 1b
       5.1123874e-24 0.0042194375 -1.6564296e-22 2.9703928e-22
000170 bb 5c 80 31 4f cb 7f ba ef 8c 17 3b 1f 9a 7c b0
       3.7358325e-09 -0.00097577734 0.0023124774 -9.1896085e-10
000180 99 74 a4 a5 c2 7e 64 9b 6b c3 c8 9a 67 7f 11 bb
       -2.8528475e-16 -1.8900676e-22 -8.3033776e-23 -0.0022201182
000190 a7 82 5c ac 77 a4 a5 9a 7e 9f 1f ba 2a 36 a7 9a
       -3.1336407e-12 -6.850811e-23 -0.0006089135 -6.915709e-23
0001a0 ca 3f 5a 9b f2 e2 39 bb 5b 24 f4 99 e0 48 ee 1b
       -1.8053149e-22 -0.002836403 -2.5243693e-23 3.9420892e-22
0001b0 ee 7e 2d b1 7e be 57 bb c8 69 98 bb ea 5f f6 b2
       -2.5246965e-09 -0.0032919939 -0.004651282 -2.8681786e-08
0001c0 45 4e c4 24 0e a4 e6 1b e1 b9 90 9b e7 46 cd bb
       8.5134044e-17 3.8156326e-22 -2.3942923e-22 -0.0062645557
0001d0 c7 52 dc 2c 5b 9c d9 9b 98 ff 2a bb b2 b7 f1 18
       6.261966e-12 -3.600068e-22 -0.0026092287 6.2482525e-24
0001e0 3e 3e 00 1c 4e 98 8c bb fb 40 7e 1c 71 cc 10 9b
       4.2432094e-22 -0.004290617 8.4125536e-22 -1.197746e-22
0001f0 97 be 20 b1 b2 e3 d1 bb d3 a2 b2 ba eb b2 a5 32
       -2.3391402e-09 -0.006405317 -0.0013628848 1.928989e-08
000200 cd 25 08 a5 7d 2d d5 9b 63 80 5c 9c 66 6d 09 3c
       -1.1808927e-16 -3.526729e-22 -7.295783e-22 0.008387899
000210 6f b8 44 ac a3 26 da 9b 08 c3 d2 3b 2b 58 c0 9a
       -2.7955656e-12 -3.6090043e-22 0.006431941 -7.955178e-23
000220 e2 70 0c 9c 08 2a d6 3b 83 73 6c 9c 9f 7d 67 1c
       -4.646801e-22 0.0065357722 -7.8235145e-22 7.659385e-22
000230 19 4c 1c 34 b7 73 b3 3b b8 b6 16 3c 42 86 fe 32
       1.4556316e-07 0.005476441 0.009198837 2.9630545e-08
000240 4d 65 8d a4 21 6a 83 9b 39 9c b1 9b 61 4a 9f bb
       -6.132061e-17 -2.1740716e-22 -2.938315e-22 -0.0048611616
000250 40 63 3d ac b6 6b 0e 9c 60 64 d1 ba 53 b5 c0 9b
       -2.691361e-12 -4.712307e-22 -0.0015975349 -3.1880914e-22
000260 39 35 7e 1b 14 be 02 bb 0d b7 77 1c a4 ab 41 1c
       2.1027585e-22 -0.0019949721 8.196203e-22 6.4080184e-22
000270 71 e0 41 32 aa 22 14 bb 13 e6 a4 ba 81 cb bb 35
       1.1285111e-08 -0.002260367 -0.0012580774 1.3991813e-06
000280 d5 fb d7 a5 55 90 0b 9c a5 29 7d 9c 90 d6 7f 3a
       -3.7467203e-16 -4.6177787e-22 -8.37645e-22 0.00097594503
000290 e8 b2 d6 2c 3d 5f 09 9c 5a 73 89 3a 1c 43 79 1c
       6.1021084e-12 -4.545259e-22 0.0010486648 8.2473926e-22
0002a0 91 ca 6a 9c ca 03 8a 3a 8b da 42 1b e6 f9 3f 1c
       -7.7685916e-22 0.0010529694 1.6117919e-22 6.3519585e-22
0002b0 13 4e 99 33 92 8e df ba 15 90 5b 3b 36 de da b1
       7.138819e-08 -0.0017056039 0.0033502628 -6.3698975e-09
0002c0 23 da 8a a5 1b c8 30 9b 7c 09 9c 1b a3 de dc ba
       -2.4087e-16 -1.4623036e-22 2.5814164e-22 -0.0016851019
0002d0 d6 fa 37 2b d6 49 68 9c ea 2c 91 bb 31 fd 20 9c
       6.5362765e-13 -7.685779e-22 -0.004430403 -5.32668e-22
0002e0 a2 f4 05 1c 6e c9 01 ba 46 a7 c9 9b 74 a5 44 9a
       4.432219e-22 -0.0004950975 -3.3360759e-22 -4.0665502e-23
0002f0 54 ab 08 33 fa 8b ae bb 41 33 04 bb e9 7b 63 31
       3.182079e-08 -0.005326745 -0.0020172151 3.3103282e-09
000300 4e 8a fa a5 56 72 0d 9c b3 80 23 9c 55 8e 7b 3b
       -4.3461806e-16 -4.680076e-22 -5.4098516e-22 0.0038384397
000310 81 8e 69 2c 69 e3 f4 9b d5 09 23 3b 83 45 63 1b
       3.3190397e-12 -4.0513374e-22 0.0024877687 1.879946e-22
000320 4b ad cc 9b 43 fe de 3b bd d0 8a 9b 2f e3 ae 1b
       -3.3860957e-22 0.0068052127 -2.296508e-22 2.89327e-22
000330 b0 c7 1e b2 93 fb 21 3b ce 77 f5 3b 75 13 ad b2
       -9.242214e-09 0.00247166 0.0074910885 -2.0148699e-08
000340 45 5b 1d a5 f0 d1 49 9b 40 48 53 1b 3c 52 7b ba
       -1.3648503e-16 -1.6694165e-22 1.7476856e-22 -0.0009587144
000350 82 6f 0d 2d f0 f2 69 1c 61 ae 86 3b 84 12 11 1b
       8.039682e-12 7.740722e-22 0.004110143 1.2000102e-22
000360 29 d2 c5 99 8a 4d 7f ba dd 40 95 9a 50 b6 de 1b
       -2.0454206e-23 -0.0009739032 -6.172975e-23 3.6844636e-22
000370 8d 3f db 32 48 b4 ec 37 c5 ff a9 3a a2 0d 81 32
       2.5523855e-08 2.8217342e-05 0.0012969902 1.5023776e-08
000380 e3 f3 ea a4 64 e8 bf 9b ba ab 8a 9b 18 76 3a 3a
       -1.01894484e-16 -3.1748478e-22 -2.294116e-22 0.0007112934
000390 8d 16 29 ad e3 05 18 9b 28 b2 4e bb 17 d2 fe 9b
       -9.611545e-12 -1.2575047e-22 -0.0031539295 -4.2156542e-22
0003a0 ba 06 6e 1b 18 52 74 bb 56 60 78 9b 60 59 2a 1b
       1.9689072e-22 -0.0037280377 -2.0545207e-22 1.4090949e-22
0003b0 f5 4d e4 30 af a2 3e 3a f1 5c cf ba 90 7a 81 32
       1.661134e-09 0.00072721665 -0.0015820545 1.5073311e-08
0003c0 4f 83 f3 26 63 2e 2f 1a ec 78 80 9b 74 4e b2 39
       1.6897103e-15 3.6226623e-23 -2.1253968e-22 0.00034009258
0003d0 cb 5d 0e 2c 1a 71 85 9b fe 9d 6b bb 85 d7 62 1b
       2.023148e-12 -2.2076094e-22 -0.0035952325 1.876392e-22
0003e0 1c 5a 4c 1c ef f1 a8 bb 65 ae 0f 9c de 30 da 1a
       6.76144e-22 -0.005155794 -4.754013e-22 9.0241636e-23
0003f0 45 e5 f6 b1 55 69 00 bb e7 c6 c2 ba 1d e5 f4 32
       -7.185607e-09 -0.0019594033 -0.0014860303 2.8509527e-08

encoder.layers.0.conv_e.bias f4 [16]
000000 5f 20 4d b5 16 c4 e4 b7 81 14 13 b6 07 ee 92 3e
       -7.641556e-07 -2.7271028e-05 -2.1916642e-06 0.28697225
000010 16 2f 8b b1 8b 78 fb b9 2e 08 d4 3e a2 d5 bc ba
       -4.0507855e-09 -0.00047964262 0.4141249 -0.0014406929
000020 6d 1e 87 bb 95 4f e3 3e 2e 39 d9 b9 9f 28 62 bb
       -0.0041235 0.44396654 -0.00041432068 -0.0034509075
000030 c8 32 52 b4 e0 8b df 3e b9 fe c6 3e 9a 98 2a b6
       -1.9576248e-07 0.43661404 0.38866213 -2.54208e-06

decoder.scale f4 [2]
000000 95 9a d7 3f 14 df b7 3f
       1.684405 1.4364953

decoder.point f4 [2, 16]
000000 02 75 0a 3e 0e 29 08 3b df 4c 86 3d 15 66 38 3d
       0.13521197 0.0020776424 0.06557631 0.045019228
000010 d9 2e 2f bd 66 ee 2a be 0d 46 56 3d 77 44 a2 3d
       -0.042769287 -0.16692504 0.0523129 0.07923215
000020 e4 d5 4b 3b 11 2f 5c 3c 61 de ff 3c b7 ec 6c be
       0.003110283 0.013438956 0.031233968 -0.23137175
000030 84 db 9e 3d b3 64 ec 3c 98 8e cc 3e 1d 5a 0d 3e
       0.07756713 0.02885661 0.3995254 0.13803907
000040 21 31 41 3d bf 9f 0d bb 43 be aa 3d fb e0 c8 bb
       0.047165994 -0.0021610109 0.08337071 -0.0061303354
000050 71 90 87 3c e4 0f a0 bd 2c 04 5d bd c4 b1 60 3a
       0.016548367 -0.07815531 -0.053959057 0.0008571411
000060 d8 23 29 bc 88 53 a2 bc e7 73 18 3c 64 6d 2a bd
       -0.010323487 -0.019815221 0.009304977 -0.04160823
000070 1e 20 7f 3c 0d 24 09 3c 45 ed be 3e 8d fd c2 3d
       0.015571622 0.008370412 0.37290397 0.09521017

decoder.tangent f4 [2, 16]
000000 5d 89 10 3e af e4 4c 3b 9e b1 a6 bd ae c8 4a 3d
       0.141149 0.0031264236 -0.081393465 0.04950779
000010 36 94 2d bd 2c 7e ca 3e 0e 8e 67 3d b7 95 b9 3d
       -0.042377673 0.39549387 0.05653196 0.09061759
000020 77 6c 09 3b b3 2a 61 3c d6 8d 21 bc 5f e8 95 3e
       0.002096919 0.01374309 -0.0098604765 0.29278848
000030 5a 30 ae 3d 18 7f fc 3c 27 a6 c8 be 60 9a 16 3e
       0.08505316 0.030822322 -0.39189264 0.14707327
000040 23 5d ec bc 6c 23 46 3b 59 b5 72 3d d9 3b aa 3b
       -0.028853005 0.0030233515 0.059254978 0.0051951227
000050 25 18 8b bc 9c 12 06 bf 15 41 2b 3d 17 95 0e ba
       -0.016979286 -0.52372146 0.041810114 -0.0005439086
000060 95 97 1f 3c c7 3e bf 3c 0a 96 f2 3c cf ab fa be
       0.00974073 0.023345364 0.02961256 -0.48959205
000070 be 27 21 bc 63 be fc bb d2 8a 6f 3e 1b 56 a9 bd
       -0.009836135 -0.0077131256 0.233928 -0.082683764

decoder.cls.weight f4 [16, 2]
000000 cc 59 07 29 a1 e1 06 aa fd d7 7f 9c 75 85 e3 1c
       3.0053908e-14 -1.1979872e-13 -8.465158e-22 1.5056098e-21
000010 a6 86 49 1c 70 7e 1b 1e 2b 2c 96 be ae b5 95 3e
       6.667935e-22 8.231778e-21 -0.29330572 0.29240173
000020 c5 42 42 b1 af eb f5 30 00 51 9e 1e c9 0d 45 9e
       -2.826867e-09 1.7893081e-09 1.6762402e-20 -1.0431944e-20
000030 35 87 a8 be ab d7 a6 3e 51 2c ab 1b 68 3c 85 9c
       -0.32915655 0.32586417 2.8318216e-22 -8.816816e-22
000040 2e 27 1b 9e a8 94 8f 9e 62 98 aa be 64 57 ac 3e
       -8.213734e-21 -1.5202197e-20 -0.33319384 0.33660424
000050 1d dd e4 9d f4 82 b8 9d 2e b9 4e 1e 31 d8 79 1b
       -6.0579723e-21 -4.8839797e-21 1.09438435e-20 2.0666652e-22
000060 a7 c7 1e b6 41 aa e5 35 64 af ac be ec 59 aa 3e
       -2.3660048e-06 1.711138e-06 -0.33727562 0.3327173
000070 ff 5b b5 be 4f fb b4 3e 75 1a 82 b5 16 36 88 b5
       -0.3542175 0.35347983 -9.693455e-07 -1.0148531e-06

decoder.cls.bias f4 [2]
000000 4d 93 84 3c 4d 93 84 bc
       0.01618352 -0.01618352

decoder.w_e.weight f4 [1, 16]
000000 73 55 2b a3 3b ab 6c 9d a9 74 4c 9b 29 e6 38 3d
       -9.288023e-18 -3.1322864e-21 -1.691218e-22 0.045141373
000010 44 ae 54 31 16 82 e1 18 b6 40 73 bd 8c bc 7d 1b
       3.0949119e-09 5.829249e-24 -0.059387885 2.0988592e-22
000020 e6 01 4a 1d 9f 87 fd bd d8 45 20 9d 16 6a 58 9d
       2.6735459e-21 -0.12379383 -2.1211932e-21 -2.8642207e-21
000030 d1 50 70 34 ba ca ea bd af c8 3a bd 7a 60 50 b4
       2.2381143e-07 -0.11464448 -0.045601543 -1.9406608e-07

decoder.w_h.weight f4 [1, 16]
000000 3b df f6 1c 3f 66 39 a1 11 0c c3 3e 21 50 a1 9e
       1.6336618e-21 -6.281576e-19 0.38095143 -1.7079679e-20
000010 d5 64 90 b3 70 28 97 3f 04 44 1e 21 a8 77 22 bb
       -6.723864e-08 1.1809216 5.36225e-19 -0.002479056
000020 cb ed 0d bc b0 60 c9 1e 99 5d df 3c fe 65 8d 3f
       -0.008662651 2.1321692e-20 0.02726631 1.104675
000030 71 c9 95 9f be ee f0 1e a6 14 60 3e ff ff 17 9f
       -6.343721e-20 2.550973e-20 0.21882877 -3.218725e-20
