logs/nc/2020_1_18/10/model.pth (torch_old, 132087 bytes, 13 tensors)

encoder.layers.0.conv.att f4 [1, 1, 32]
0.00047605412 0.00045577445 -0.038291376 -0.050072145 -1.41834635e-05 0.024046315 -0.04195187 -0.008536244
-0.0030188602 1.165871e-09 0.0075763226 0.055850048 -0.014587137 1.038999e-05 0.00932189 -0.084219985
0.0004547131 0.0011569356 -0.037761554 -0.049570877 -1.432837e-05 0.10577422 -0.042343304 -0.008588287
-0.0030462102 1.2855748e-09 0.099812284 0.12074888 -0.014322453 1.4965525e-05 0.009248292 -0.08412806
00000000: e796 f939 03f5 ee39 6bd7 1cbd 7318 4dbd
00000010: 83f5 6db7 c7fc c43c b9d5 2bbd 9adb 0bbc
00000020: 12d8 45bb 703c a030 cd42 f83b 05c3 643d
00000030: e3fe 6ebc ab50 2e37 d7ba 183c 877b acbd
00000040: 8f66 ee39 51a4 973a dcab 1abd d50a 4bbd
00000050: e163 70b7 27a0 d83d 2c70 2dbd e3b5 0cbc
00000060: eda2 47bb 24b0 b030 626a cc3d 304b f73d
00000070: b9a8 6abc 7114 7b37 2686 173c 554b acbd

encoder.layers.0.conv.bias f4 [16]
-0.0010764925 -0.00022220143 -0.081170104 -0.048305105 -1.274557e-07 0.051818535 -0.03926166 -0.01997258
-0.0014531133 -1.0267216e-08 0.086279646 0.04566633 -0.011367555 -1.6713131e-05 -0.07224793 0.22262889
00000000: 1819 8dba befe 68b9 833c a6bd 93db 45bd
00000010: c2da 08b4 ac3f 543d d6d0 20bd 899d a3bc
00000020: 6476 beba b263 30b2 62b3 b03d 9e0c 3b3d
00000030: fb3e 3abc 2d33 8cb7 b9f6 93bd d4f8 633e

encoder.layers.0.conv.linear.weight f4 [16, 1000]
5.873057e-06 -1.6283144e-06 7.0595106e-06 -2.4915096e-06 3.9413217e-07 -6.7697833e-06 5.9122517e-06 8.379897e-07
-3.177728e-06 1.0142927e-05 -2.265378e-05 8.078593e-06 -1.0934298e-05 9.286969e-06 -0.0003934668 -1.2650449e-05
-8.856396e-06 1.5911783e-05 1.1032696e-06 1.1229957e-05 1.3323013e-05 -1.1844588e-05 1.5537482e-05 -8.610052e-06
-1.0623515e-05 1.0756274e-05 -1.4690874e-05 -1.4401749e-05 3.4891156e-07 2.195758e-05 8.782727e-06 4.402252e-06
-1.2928601e-05 3.4245807e-07 6.734084e-06 -1.3187614e-05 2.6128262e-05 -2.2668975e-05 2.7831798e-05 1.090359e-06
-1.9621031e-05 8.666886e-06 2.9376142e-05 -3.2538475e-05 6.949922e-06 1.9229501e-05 -6.4823257e-06 4.0000205e-06
1.022674e-05 -1.1690673e-05 -1.2226521e-05 -1.2630945e-05 -6.382411e-06 4.78033e-06 -2.2002625e-07 -1.6078453e-05
2.0679465e-05 1.6922895e-05 -1.779098e-05 1.1908862e-05 1.5639268e-06 -2.7238399e-05 -8.901757e-06 -4.4719727e-06
9.611909e-06 -1.1182952e-05 2.2680235e-06 -3.6276042e-06 1.6790496e-07 8.202707e-06 -4.0109466e-05 9.565772e-06
2.0721143e-07 -6.2474724e-06 -8.107163e-06 -9.085638e-06 1.7082511e-06 2.571933e-05 3.289866e-06 -9.832539e-06
1.4699112e-05 -3.2446678e-06 -1.235793e-05 9.787033e-06 -1.0102988e-05 -2.747545e-06 -2.7435608e-05 -1.6024393e-05
-1.7106933e-06 1.8351651e-05 -1.2375624e-05 1.0231472e-05 -6.241951e-06 1.0919419e-05 -2.8225602e-05 -1.9367848e-05
-9.515989e-06 1.0921955e-05 2.7905155e-06 -5.0332687e-06 -3.362101e-06 -5.0611884e-06 -1.0140093e-05 6.0279276e-06
-9.038846e-06 7.3556157e-06 -1.7350874e-05 -5.5160494e-06 -1.7362061e-05 -9.4348e-06 -6.3955554e-06 3.227088e-05
5.0337635e-06 -5.787833e-08 -1.4882726e-05 2.1436845e-06 3.265514e-05 7.174846e-07 -2.017148e-06 -1.078578e-05
-6.0972275e-06 -1.2547226e-05 -1.9178892e-06 7.176247e-06 -2.8128039e-05 -1.4943907e-05 1.2570963e-05 4.494583e-06
1.1887041e-05 6.481641e-07 -1.1607701e-05 9.703069e-06 -1.5583108e-05 -3.5205687e-06 -9.040614e-06 -1.50063515e-05
-8.553561e-06 6.372927e-06 1.0629806e-07 1.610359e-05 3.8248665e-05 1.6786118e-05 9.2364235e-07 -1.0233131e-05
-8.503462e-06 -1.0872338e-06 -7.97964e-06 -1.5134125e-05 1.3328251e-05 -1.28696365e-05 1.7646256e-05 -1.2610939e-05
-1.2722718e-05 -1.8865869e-05 -2.6049638e-06 2.7161379e-05 -8.526911e-06 1.2953115e-05 -6.196631e-06 1.2249114e-06
-7.063911e-07 3.3837357e-06 1.2754031e-05 4.021417e-06 -5.6341523e-06 1.7264876e-05 1.7519347e-06 -1.0618542e-06
9.2460147e-07 -9.137064e-06 -8.169495e-06 -1.873058e-06 -1.9645206e-06 5.7129654e-07 -5.347855e-06 1.7326962e-05
-1.4090541e-05 -1.6738531e-06 1.4793033e-05 1.1235823e-05 -2.267421e-06 -8.083254e-06 5.535478e-06 -1.022655e-05
-3.1089246e-06 3.840758e-06 9.672324e-06 -5.424895e-06 4.720993e-06 7.213897e-06 -6.681456e-06 -1.5116572e-05
2.977737e-06 1.1094452e-06 1.2892708e-05 -2.6029688e-06 1.3872479e-05 3.381342e-05 1.4094311e-05 -1.3533536e-05
-1.0670724e-06 -9.3555445e-06 -2.7363276e-05 -1.0786319e-05 7.23044e-07 4.361568e-06 6.5789172e-06 1.4419362e-05
2.2241302e-05 -6.612503e-06 3.785978e-06 7.0247593e-06 -1.9618572e-05 -4.059322e-06 1.7833076e-05 1.201264e-06
-0.00020962315 3.1176543e-07 -2.0052914e-05 1.1361273e-05 9.294165e-06 1.9559591e-05 7.9433985e-06 -2.4933357e-05
8.1444267e-07 -1.5444446e-06 -5.9837457e-06 1.2826776e-05 2.8608013e-06 1.1022643e-05 -9.897244e-06 -9.527819e-06
1.0389736e-06 6.905381e-06 1.607472e-05 -2.3877557e-05 -2.4332816e-05 2.1766577e-06 -1.3160826e-05 -8.173783e-06
3.5386463e-06 -6.526489e-06 -5.918148e-06 -1.7437465e-05 -9.71697e-07 -9.650675e-06 7.736844e-06 -7.646296e-06
-4.2643333e-05 7.7511195e-06 1.3163618e-05 -1.36734925e-05 -1.5839907e-05 6.4585597e-06 6.6097095e-06 -7.462259e-06
00000000: 2d11 c536 758c dab5 bce0 ec36 cf33 27b6
00000010: 1d99 d334 ff27 e3b6 db61 c636 37f2 6035
00000020: f440 55b6 8a2b 2a37 9f08 beb7 4b89 0737
00000030: 7472 37b7 3acf 1b37 384a ceb9 443d 54b7
00000040: ee95 14b7 4b7a 8537 0e14 9435 4c68 3c37
00000050: e885 5f37 1eb8 46b7 7d56 8237 e473 10b7
00000060: a63b 32b7 d875 3437 d378 76b7 0a9f 71b7
00000070: 0a52 bb34 8b31 b837 8659 1337 0fb7 9336
00000080: ebe7 58b7 14db b734 57f5 e136 5f40 5db7
00000090: 042e db37 4129 beb7 5578 e937 7358 9235
000000a0: d897 a4b7 fe67 1137 c96c f637 ec79 08b8
000000b0: 6033 e936 0a4f a137 c182 d9b6 ea37 8636
000000c0: 8493 2b37 0f23 44b7 8220 4db7 7fe9 53b7
000000d0: 7e28 d6b6 b966 a036 5b40 6cb4 37e0 86b7
000000e0: d078 ad37 a4f5 8d37 d73d 95b7 2ccc 4737
000000f0: 1ee8 d135 047e e4b7 c158 15b7 f40d 96b6
00000100: d642 2137 6a9e 3bb7 5934 1836 c471 73b6
00000110: 5d49 3434 5c9e 0937 363b 28b8 ae7c 2037
00000120: d87d 5e34 61a1 d1b6 0004 08b7 856e 18b7
00000130: 1047 e535 d7bf d737 78c7 5c36 6ff6 24b7
00000140: 359c 7637 f8be 59b6 e854 4fb7 fd32 2437
00000150: 0180 29b7 7762 38b6 8525 e6b7 1f6c 86b7
00000160: f99a e5b5 dff1 9937 e6a0 4fb7 d6a7 2b37
00000170: f371 d1b6 8c32 3737 05c6 ecb7 2378 a2b7
00000180: dda6 1fb7 713d 3737 b144 3b36 73e3 a8b6
00000190: 75a0 61b6 47d3 a9b6 5e1f 2ab7 8143 ca36
000001a0: 8ca5 17b7 42d0 f636 b88c 91b7 8116 b9b6
000001b0: bea4 91b7 284a 1eb7 6799 d6b6 985a 0738
000001c0: b3e7 a836 e695 78b3 d2b0 79b7 38dc 0f36
000001d0: 31f7 0838 2b99 4035 575e 07b6 93f4 34b7
000001e0: c996 ccb6 ed81 52b7 16b5 00b6 7ecb f036
000001f0: 81f4 ebb7 98b7 7ab7 e0e7 5237 2dd0 9636
00000200: 746e 4737 7ffd 2d35 b2be 42b7 5dca 2237
00000210: 78b8 82b7 e942 6cb6 24ad 17b7 cac3 7bb7
00000220: 4481 0fb7 07d7 d536 fa45 e433 3216 8737
00000230: 316d 2038 eacf 8c37 38f0 7735 f7ae 2bb7
00000240: 17aa 0eb7 12ed 91b5 4be0 05b7 92e8 7db7
00000250: 679c 5f37 abea 57b7 0c07 9437 9293 53b7
00000260: a873 55b7 2542 9eb7 f0d0 2eb6 9ed8 e337
00000270: ce0e 0fb7 3551 5937 a8ec cfb6 a367 a435
00000280: d49e 3db5 2314 6336 25fa 5537 b6ef 8636
00000290: 000d bdb6 0ad4 9037 0524 eb35 0885 8eb5
000002a0: 2132 7835 644b 19b7 b70f 09b7 c865 fbb5
000002b0: 35d6 03b6 335b 1935 ba71 b3b6 5e59 9137
000002c0: 6a66 6cb7 28a9 e0b5 982f 7837 7e81 3c37
000002d0: ff29 18b6 509d 07b7 65bd b936 b392 2bb7
000002e0: eba2 50b6 dcdf 8036 5146 2237 7e07 b6b6
000002f0: 0569 9e36 e70e f236 4531 e0b6 2f9d 7db7
00000300: 22d5 4736 3fe8 9435 c24d 5837 aaae 2eb6
00000310: d8bd 6837 e2d2 0d38 9b76 6c37 180e 63b7
00000320: 5438 8fb5 c2f5 1cb7 308a e5b7 e3f6 34b7
00000330: 3517 4235 9559 9236 78c0 dc36 b0ea 7137
00000340: d592 ba37 f8e0 ddb6 9b12 7e36 39b6 eb36
00000350: 9092 a4b7 4f35 88b6 3d98 9537 1e3b a135
00000360: 49ce 5bb9 b760 a734 4e37 a8b7 4c9c 3e37
00000370: 22ee 1b37 e713 a437 a344 0537 fa27 d1b7
00000380: 13a0 5a35 b64a cfb5 fcc7 c8b6 9532 5737
00000390: 31fc 3f36 e4ed 3837 570c 26b7 acd9 1fb7
000003a0: dc72 8b35 c5b4 e736 33d8 8637 aa4c c8b7
000003b0: 531e ccb7 b212 1236 51cd 5cb7 2122 09b7
000003c0: 7b79 6d36 1dfe dab6 8194 c6b6 ac46 92b7
000003d0: 416b 82b5 55e9 21b7 7ecd 0137 9748 00b7
000003e0: eedb 32b8 ce0a 0237 4fd9 5c37 3467 65b7
000003f0: f1df 84b7 9bb6 d836 f9c8 dd36 5164 fab6

encoder.layers.0.conv.linear.bias f4 [16]
-0.0010153675 -0.00028839736 -0.059458777 -0.059008703 -1.2635158e-05 0.017099023 -0.03984326 -0.014086402
-0.0037545394 4.066972e-09 -0.006193033 0.032217577 -0.016198732 -6.534586e-06 0.043223504 -0.53239655
00000000: 1416 85ba 0a34 97b9 0c8b 73bd 1cb3 71bd
00000010: 97fb 53b7 4013 8c3c b032 23bd a7ca 66bc
00000020: b80e 76bb 77bd 8b31 edee cabb 94f6 033d
00000030: 34b3 84bc ab43 dbb6 210b 313d 244b 08bf

encoder.layers.0.conv_e.weight f4 [1000, 16]
8.238e-42 2.029688e-08 -2.1397167e-19 -0.0030832929 6.665582e-06 -3.670561e-08 -0.0017445354 4.4121e-41
-1.8406021e-07 -0.0063736234 2.0928649e-10 3.2541251e-07 0.000996847 -0.0026770488 -0.0015272965 0.0005127859
2.7778e-41 -1.2435648e-07 2.1240213e-19 0.0041532964 2.1493734e-06 -5.284135e-08 0.0062177395 5.6308e-41
-3.2183348e-08 0.004719592 1.6291374e-10 3.0152802e-07 0.0068138056 0.0062683504 0.006517231 0.008994955
1.2944e-41 4.6196416e-08 1.385058e-19 0.0007863869 3.841594e-06 -1.8720243e-08 0.001713132 -1.1646e-41
-1.161208e-07 -0.00048254587 1.1996419e-10 -5.295031e-08 0.0040357136 0.00049892487 0.0014819 0.0039031934
1.3528e-41 -3.6368952e-09 -9.33889e-20 0.0026136315 -2.6966522e-06 -9.68e-08 0.004355321 3.2953e-41
1.2054619e-07 0.0012496895 -5.97722e-11 5.9203273e-07 0.0087362025 0.004664328 0.0070377197 0.008183676
4.43e-43 4.9389584e-08 -4.5419e-19 -0.0012427965 1.343053e-05 -6.622869e-08 -0.00055226614 -3.4077e-41
-1.4759827e-07 -0.0035918872 -5.2703238e-11 2.4786505e-07 0.0017868939 -0.001122952 0.00020800588 -0.0013783397
-3.5709e-41 5.832239e-08 2.0935588e-19 -0.00015446247 -1.2908989e-05 -4.93392e-08 0.0003641471 5.1163e-41
9.2918604e-08 -0.003288579 4.174444e-10 -2.5593684e-07 0.0029830781 -0.0017701896 0.0007939663 0.0028570201
1.2079e-41 -7.1218814e-08 2.4181674e-19 -0.0024948749 -7.2308244e-06 1.3086024e-09 -0.0062206713 -1.2057e-41
-1.5892465e-07 -0.0055753216 2.700493e-10 2.2993304e-07 -0.0037082718 -0.004673028 -0.0052892747 -0.007430605
4.0647e-41 1.9930386e-08 -1.2447048e-19 -0.0067378357 9.029789e-06 4.944559e-08 -0.0066328524 -4.9495e-41
1.905719e-07 -0.007875579 2.3079488e-10 -6.934287e-07 -0.006795217 -0.0060838913 -0.005920821 -0.0050968523
1.736e-41 6.83661e-08 -3.7052545e-19 0.0022611285 -2.0610112e-06 -3.5366565e-08 0.005502459 3.6263e-41
5.3723504e-08 0.0035430244 -3.7941153e-10 5.604345e-07 0.008178595 0.0048057204 0.005896623 0.0063601984
3.3135e-41 8.024707e-09 3.58061e-20 -0.00048573597 1.2781689e-05 6.76613e-09 8.337985e-05 6.6138e-41
1.5335676e-08 -0.00079789443 -7.0032535e-11 1.5371562e-07 -0.0022707346 -0.00075966836 4.054706e-05 0.001565506
1.2013e-41 -7.686912e-09 -2.8752152e-19 -0.003890472 2.698513e-06 2.2694065e-08 -0.0027986648 -4.7032e-41
2.47949e-07 -0.004028702 7.909144e-11 4.6037835e-07 -0.0008604803 -0.0012899966 -0.0006450873 -0.00090397004
-3.9259e-41 -1.712532e-08 1.5859721e-19 -0.003509822 -6.602881e-06 -3.7132764e-08 -0.0041189846 4.5083e-41
-9.586281e-08 -0.005038823 2.077046e-10 -2.9789575e-07 0.0010665334 -0.0056502786 -0.0029957197 -0.0013720201
-2.0701e-41 -9.0116586e-08 2.9612947e-19 -0.00092456106 -3.6566348e-06 2.5824816e-08 -0.00028838994 -1.4925e-41
2.0079169e-07 -0.0017982806 -2.4560095e-11 -8.288707e-08 0.0019475007 0.00047247193 0.005077985 0.003584295
1.4442e-41 7.459003e-08 2.4588538e-19 -0.0021492091 2.969774e-06 -1.3258173e-08 -0.00044347698 4.3223e-41
-1.4552379e-07 -0.004237264 1.443139e-10 3.0278272e-07 0.0005673587 0.0012920261 -0.0005902308 -0.00017335288
6.163e-42 7.4001822e-09 1.8817879e-20 -0.0035123657 -3.6485775e-07 -1.8206794e-06 -0.002787583 -4.7249e-41
-1.5758284e-08 0.00044082612 -4.6152857e-10 -3.4367628e-07 -0.0015340452 -0.0011904924 -0.0030748115 -0.0035829777
6.6377e-41 -1.097692e-07 -6.952745e-21 -0.0033569385 1.4902297e-06 8.823411e-09 -0.006414534 -4.4784e-41
-3.9084194e-09 -0.0054661552 -9.999821e-11 8.237993e-08 -0.006946872 -0.005489815 -0.003937073 -0.0064445497
00000000: f716 0000 5059 ae32 f89c 7ca0 1211 4abb
00000010: eaa8 df36 3fa6 1db3 e5a8 e4ba fe7a 0000
00000020: 16a2 45b4 d4d9 d0bb e91c 662f 5bb4 ae34
00000030: a3a8 823a 6d71 2fbb 912f c8ba 7b6c 063a
00000040: 6f4d 0000 d986 05b4 9bc2 7a20 6018 883b
00000050: f43d 1036 aef3 62b3 2ebe cb3b f79c 0000
00000060: f739 0ab3 cfa6 9a3b 2420 332f b2e1 a134
00000070: 5846 df3b bc66 cd3b 7f8e d53b 935f 133c
00000080: 1524 0000 7f69 4633 cf84 2320 8825 4e3a
00000090: 0be7 8036 40ce a0b2 2c8b e03a 7720 0080
000000a0: 165e f9b3 36fe fcb9 ebe6 032f 7b6b 63b3
000000b0: 053e 843b 48ca 023a 503c c23a b8cc 7f3b
000000c0: b625 0000 f0ec 79b1 2082 dc9f 7649 2b3b
000000d0: 22f8 34b6 5de0 cfb3 15b7 8e3b dc5b 0000
000000e0: 7c6f 0134 9fcc a33a c270 83ae 2eec 1e35
000000f0: 4a22 0f3c 38d7 983b ac9c e63b d314 063c
00000100: 3c01 0000 6c20 5433 a00d 06a1 55e5 a2ba
00000110: b053 6137 9b39 8eb3 f4c5 10ba fe5e 0080
00000120: 817b 1eb4 de65 6bbb 92ca 67ae 5012 8534
00000130: 3636 ea3a 0430 93ba 271c 5a39 68a9 b4ba
00000140: 8b63 0080 257e 7a33 ef29 7720 34f7 21b9
00000150: b093 58b7 06e9 53b3 ffea be39 9f8e 0000
00000160: 8b8a c733 3385 57bb 147e e52f b167 89b4
00000170: bf7f 433b b505 e8ba 2d22 503a d83c 3b3b
00000180: ac21 0000 f5f0 98b3 50be 8e20 0e81 23bb
00000190: 4fa0 f2b6 5bda b330 c6d6 cbbb 9c21 0080
000001a0: e0a4 2ab4 30b1 b6bb 0f76 942f 83e3 7634
000001b0: 7a06 73bb 3320 99bb a751 adbb 6f7c f3bb
000001c0: 4f71 0000 6233 ab32 e5f2 12a0 10c9 dcbb
000001d0: a67e 1737 005e 5433 6658 d9bb f989 0080
000001e0: 01a0 4c34 9308 01bc fcc2 7d2f 0f24 3ab5
000001f0: 69aa debb 615b c7bb 7203 c2bb 7f03 a7bb
00000200: 6530 0000 a9d0 9233 39b8 daa0 712f 143b
00000210: e74f 0ab6 f3e5 17b3 f94d b43b 1665 0000
00000220: 9ebd 6633 1632 683b 6d95 d0af c470 1635
00000230: 84ff 053c 4e79 9d3b 7538 c13b 3669 d03b
00000240: 5e5c 0000 09dd 0932 eb16 291f 61aa feb9
00000250: f070 5637 827b e831 37dc ae38 5eb8 0000
00000260: 82bb 8332 ca29 51ba d000 9aae 070d 2534
00000270: 9bd0 14bb 7b24 47ba 1311 2a38 aa31 cd3a
00000280: 7d21 0000 660f 04b2 06b9 a9a0 4af7 7ebb
00000290: 1a18 3536 c7f0 c232 ce69 37bb 1b83 0080
000002a0: da1d 8534 3403 84bb 86ec ad2e eb29 f734
000002b0: db91 61ba 1a15 a9ba 131b 29ba 67f8 6cba
000002c0: 706d 0080 fa1a 93b2 113d 3b20 0b05 66bb
000002d0: 518e ddb6 e87b 1fb3 8cf8 86bb ac7d 0000
000002e0: 23dd cdb3 b61c a5bb a65f 642f 7bee 9fb4
000002f0: ecca 8b3a f925 b9bb d653 44bb 5bd5 b3ba
00000300: b539 0080 1e86 c1b3 d2cd ae20 3e5e 72ba
00000310: 8264 75b6 5fd5 dd32 0b33 97b9 9b29 0080
00000320: 3399 5734 49b4 ebba 6b08 d8ad a6ff b1b3
00000330: 4843 ff3a 1cb6 f739 3a65 a63b 7ee6 6a3b
00000340: 4228 0000 4d2e a033 2625 9120 bfd9 0cbb
00000350: 544c 4736 10c6 63b2 7982 e8b9 7d78 0000
00000360: 4641 1cb4 bfd8 8abb c0ac 1e2f 248e a234
00000370: ccba 143a 3459 a93a b8b9 1aba 0fc6 35b9
00000380: 2e11 0000 b144 fe31 d7ba b11e b82f 66bb
00000390: abe1 c3b4 115e f4b5 e2af 36bb b683 0080
000003a0: d55c 87b2 ae1e e739 5fba fdaf 8282 b8b4
000003b0: 0412 c9ba 4c0a 9cba c782 49bb 64d0 6abb
000003c0: 08b9 0000 42ba ebb3 6955 039e 1500 5cbb
000003d0: e703 c835 c695 1732 0331 d2bb d77c 0080
000003e0: d24a 86b1 6f1d b3bb fde5 dbae d8e8 b033
000003f0: 96a2 e3bb e8e3 b3bb 9002 81bb cd2c d3bb

encoder.layers.0.conv_e.bias f4 [16]
-1.2948634e-07 -3.5185788e-06 -0.0088620335 0.51039994 -0.0003106782 -2.6766418e-06 0.5435538 -1.0229968e-10
-2.7690727e-05 0.56736696 -1.1162072e-06 -4.734752e-06 0.45873976 0.5418987 0.52415234 0.5074554
00000000: ef08 0bb4 b920 6cb6 1032 11bc 92a9 023f
00000010: 86e2 a2b9 5ba0 33b6 5826 0b3f 9af5 e0ae
00000020: 6249 e8b7 f63e 113f 96d0 95b5 36df 9eb6
00000030: f0df ea3e e0b9 0a3f d92e 063f 99e8 013f

decoder.scale f4 [2]
2.0373313 3.6591446
00000000: a363 0240 6d2f 6a40

decoder.point f4 [2, 16]
0.003499531 0.01100696 -0.0369362 -0.18229704 0.0022850176 -0.05713455 -0.04043466 -0.03882951
0.041819733 0.21005487 -0.051469997 -0.12432052 -0.023833103 -0.0058118203 0.360383 -0.017331408
7.006065e-05 1.223703e-06 0.00560946 0.13299526 -6.431092e-07 -0.0027163224 6.1394225e-05 -4.0200288e-05
4.6873545e-08 0.034670036 0.014117423 0.029123923 -4.2605396e-07 -9.478533e-06 0.4184499 0.03324225
00000000: 6358 653b 8956 343c 6a4a 17bd 13ac 3abe
00000010: 3cc0 153b eb05 6abd d09e 25bd b10b 1fbd
00000020: 2b4b 2b3d a018 573e 34d2 52bd c29b febd
00000030: a43d c3bc 1571 bebb 1f84 b83e 99fa 8dbc
00000040: 86ed 9238 1d3e a435 90cf b73b e92f 083e
00000050: 21a2 2cb5 5404 32bb c6c0 8038 bb9c 28b8
00000060: 0252 4933 2b02 0e3d c44c 673c 4b95 ee3c
00000070: 69bc e4b4 fd05 1fb7 113f d63e 0729 083d

decoder.tangent f4 [2, 16]
0.0031526238 0.009597162 -0.035153545 -0.1639398 0.00210518 0.5746978 -0.043049272 -0.039118726
0.04091486 0.19509675 0.5640078 0.47797072 -0.030811157 -0.0053292587 -0.21588394 0.014151424
-4.2983524e-05 -6.9995923e-07 -0.0030309332 -0.079812706 1.677967e-07 -0.6286524 -2.869225e-05 1.73842e-05
-4.724627e-08 -0.018523416 -0.62205154 -0.72255075 1.238965e-07 2.787117e-06 -0.036829013 -0.040769402
00000000: 409c 4e3b 6a3d 1d3c 2afd 0fbd d6df 27be
00000010: 0ff7 093b 651f 133f 6f54 30bd f53a 20bd
00000020: 5796 273d 71c7 473e d162 103f 94b8 f43e
00000030: ae67 fcbc 10a1 aebb ae10 5dbe 60db 673c
00000040: 3549 34b8 d5e4 3bb5 9fa2 46bb d874 a3bd
00000050: 9b2b 3434 5def 20bf 23b0 f0b7 49d4 9137
00000060: d3eb 4ab3 6bbe 97bc c53e 1fbf 16f9 38bf
00000070: 6908 0534 4e0a 3b36 05da 16bd d1fd 26bd

decoder.cls.weight f4 [16, 2]
-5.748e-42 -3.666e-42 8.8016316e-07 -1.2635139e-06 1.1588016e-18 -2.017048e-18 -0.44237328 0.44220024
9.06744e-05 0.00018464247 3.4668375e-07 -4.2152524e-07 -0.45714143 0.45630214 -9.634e-42 -1.8367e-41
-1.2304477e-06 -1.196018e-06 -0.46647674 0.46725798 -7.2337927e-09 2.433695e-08 -2.4516964e-06 -6.8838303e-06
-0.38694543 0.3869468 -0.45334852 0.45228767 -0.4485423 0.4483808 -0.4358018 0.4358019
00000000: 0610 0080 380a 0080 5a44 6c35 0296 a9b5
00000010: 4902 ab21 f6d4 14a2 c07e e2be 1268 e23e
00000020: 7328 be38 969c 4139 da1f ba34 fd4d e2b4
00000030: 710e eabe 6fa0 e93e db1a 0080 3333 0080
00000040: dc25 a5b5 de86 a0b5 0ad6 eebe 703c ef3e
00000050: 1d8d f8b1 850d d132 d387 24b6 a7fb e6b6
00000060: b61d c6be e41d c63e 4c1d e8be 4092 e73e
00000070: 56a7 e5be 2b92 e53e 6a21 dfbe 6d21 df3e

decoder.cls.bias f4 [2]
-0.6701809 0.6701809
00000000: fa90 2bbf fa90 2b3f

decoder.w_e.weight f4 [1, 16]
-4.159e-42 7.657653e-07 -3.359621e-07 -0.034475587 -0.000416626 1.7363834e-06 0.0077990927 3.7999e-41
-4.0195055e-06 -0.04430547 -3.8281318e-08 -1.5545958e-05 -0.0035625778 0.016824983 0.0007908946 0.031222621
00000000: 980b 0080 fe8e 4d35 485e b4b4 4636 0dbd
00000010: 986e dab9 ae0d e935 888f ff3b ed69 0000
00000020: 4adf 86b6 a779 35bd c16a 24b3 b168 82b7
00000030: 237a 69bb 8cd4 893c 0a54 4f3a 95c6 ff3c

decoder.w_h.weight f4 [1, 16]
1.153e-42 -2.9963616e-09 0.00543698 -1.7788764e-08 -4.5262062e-26 1.4290869 8.890886e-05 -3.912315e-10
5.031085e-35 -1.6817146e-16 1.1410958 1.5711901 1.4646491e-09 -9.495225e-15 -0.1169551 0.08273903
00000000: 3703 0000 8de8 4db1 b228 b23b e8cd 98b2
00000010: 7b20 6095 52ec b63f 9574 ba38 f014 d7af
00000020: cabf 8506 74e3 41a5 6d0f 923f c21c c93f
00000030: c24c c930 ff0c 2ba8 2886 efbd 1573 a93d
