logs/nc/2020_1_19/0/model.pth (torch_old, 189929 bytes, 15 tensors)

encoder.layers.0.hy_linear.bias f4 [16]
000000 35 30 12 bf 3e 4c 9e 3e 24 f9 4c bf a0 eb ec 3d
       -0.5710481 0.30917543 -0.8006766 0.115683794
000010 cf 56 c2 be a9 f4 28 be 31 9e 48 3d d5 6b f6 bd
       -0.37956855 -0.1649958 0.048978988 -0.12032286
000020 c2 3c 26 3e 5d 3d d8 3d 5b 31 8c 3e c3 a6 69 3d
       0.16234115 0.10558579 0.27381405 0.057043802
000030 1e 83 2a 3c 3b 55 5e bf e6 6e 00 3f e3 55 d8 bd
       0.010407237 -0.868488 0.5016922 -0.105632566

encoder.layers.0.hy_linear.weight f4 [16, 1433]
000000 b6 5d 78 bc 31 a5 6a be c8 8c 72 bd a1 a8 b5 3d
       -0.015159061 -0.22914578 -0.05921629 0.08870054
000010 3e 22 1f be f7 d4 05 bd 0c 40 73 3e fb 59 00 3d
       -0.15540406 -0.032673802 0.237549 0.031335812
000020 da 48 8c bb 05 5e bd 3c 12 d4 63 bd 40 45 37 3d
       -0.0042811455 0.023116121 -0.055622168 0.044743776
000030 f5 ff b0 bd aa c4 6f 3d c5 61 53 3d 70 fe 0d be
       -0.0864257 0.058537163 0.051606912 -0.13866591
000040 c2 9c 1a 3e 32 52 9a bb f5 24 49 bd de 27 08 be
       0.15098861 -0.0047095055 -0.04910751 -0.13296458
000050 72 43 91 3c 6a a7 45 3e c6 b6 50 bc 52 dd 89 3d
       0.017732356 0.19302145 -0.012738889 0.067316666
000060 9b 35 07 3d af cf 85 bd 79 7b 65 be 88 8f 82 3d
       0.033010107 -0.06533753 -0.22410382 0.06375033
000070 fd bd 72 3c 1f ee e2 3c 9f fb 67 3d dd c8 c5 3d
       0.014815805 0.027701436 0.05663645 0.09657452
000080 39 f2 c0 bd 9e 51 81 3d 17 58 ff 3c 7f e5 e5 bd
       -0.094212 0.06314395 0.031169934 -0.112254135
000090 5c ae b2 3d eb a6 6b 3c a9 e0 92 3e 0b dd 8f 3d
       0.08724663 0.014383058 0.28687027 0.070245825
0000a0 4c b0 fa bd 9c 5a d6 3d 36 ed b0 3d c7 87 56 be
       -0.12240657 0.10466501 0.086389944 -0.20950232
0000b0 ff f5 3a 3d ea 0a b0 bd e1 74 c8 3c f3 9e 75 3e
       0.045644756 -0.08595832 0.024469795 0.23986416
0000c0 f0 c6 38 bd 0c dc 57 3c 52 bf a5 3d 5a eb 52 3e
       -0.045111597 0.013175022 0.08093132 0.20597592
0000d0 05 01 58 bd dc b3 a7 3d 43 3a 49 be 15 c6 57 3d
       -0.052735347 0.08188602 -0.19651131 0.05267914
0000e0 dd 64 cf 3d 74 c0 d4 3d 89 ec 1f bd b0 3e 3d be
       0.1012666 0.1038827 -0.039043937 -0.18480945
0000f0 bc 14 26 bd 67 6a a2 3d 01 f3 28 3e 10 11 cd 3d
       -0.040547118 0.07930451 0.16498949 0.1001302
000100 86 a7 17 be 7b cb 23 bd ca 4f 91 bd 12 d8 54 3c
       -0.14809999 -0.039988976 -0.07095297 0.012990968
000110 25 df 7c bd 24 c8 d5 ba 3e 52 41 be 78 d8 9c 3d
       -0.061736245 -0.0016310257 -0.18879029 0.07658476
000120 95 2a 53 bc 72 ba 41 bd 3d 20 1b 3e 2a f1 60 bd
       -0.01288857 -0.04729695 0.15149017 -0.054917492
000130 6f 6a d0 3d 6e 8a b5 bb 5f d7 00 be e5 bd d8 bb
       0.101765506 -0.0055401837 -0.12582158 -0.006614434
000140 cf 3c 24 3e fa 2c 57 bd 15 79 8e bd 68 ae a7 3d
       0.16038822 -0.052533127 -0.06956688 0.08187562
000150 41 5b 27 3d 03 3c 3d bd ab 25 24 be 8d cd 1d be
       0.04085851 -0.04619981 -0.16029994 -0.15410443
000160 83 18 e8 bd c8 fb 15 3e ff 90 46 bc 04 e8 3a be
       -0.113328 0.14646828 -0.012119531 -0.1825257
000170 75 21 b6 3c cf c2 07 be 0d c0 ad 3c 5a 79 bd 3a
       0.02223275 -0.13257907 0.021209741 0.0014455721
000180 35 ef d8 bc 5d a4 64 bc 08 53 e8 bc 15 a1 0b 3e
       -0.02648125 -0.013955203 -0.028359905 0.13635667
000190 3d ad 5a bc 00 ee 09 3c b4 99 b7 bc 42 a0 08 3d
       -0.013346967 0.00841856 -0.022412159 0.03335596
0001a0 36 23 0f 3d 36 d2 1a 3c 03 85 f4 3d 48 06 3f ba
       0.03494569 0.009449532 0.119394325 -0.0007287008
0001b0 5d c5 95 3d 2d 60 df bd 22 fd 29 bd c3 69 f1 3d
       0.07313035 -0.10907016 -0.041501172 0.117877506
0001c0 49 8e 46 3d bf 47 20 3e db c1 8f 3d 9c c1 99 3d
       0.048475537 0.15652369 0.07019397 0.07507631
0001d0 70 c0 0e bd ed 8e ad bc 2e f6 83 bb 6d d2 2e be
       -0.03485149 -0.021186316 -0.0040271496 -0.17072459
0001e0 80 7d 6a 3c 5e b7 21 3c a5 20 f1 bd fb a0 c2 bd
       0.014312148 0.009870378 -0.117738046 -0.09503361
0001f0 d2 06 f5 3c 30 cc 0e be c8 3e fe 3d c3 7b 33 be
       0.029910479 -0.13945079 0.12414318 -0.1752768
000200 34 74 c6 bc 50 f4 b3 3d f2 1d b1 bd 7b 6e 22 bd
       -0.024225332 0.08786833 -0.0864829 -0.039656144
000210 68 bc 97 bc a9 e9 5c be ed f6 13 be 2e 3e 82 bd
       -0.018522456 -0.2157351 -0.14449663 -0.06359516
000220 ff 44 b1 bd f9 c9 e4 bd 1b e6 eb 3d 4e ec 8c 3b
       -0.08655738 -0.11171336 0.115184985 0.0043006307
000230 78 5a 00 3f 1e 48 72 3d 53 d6 e9 3d 0c f2 b6 bd
       0.50138044 0.059150808 0.11417832 -0.089328855
000240 7b 84 8d 3d 85 c2 3c 3d b4 2e c3 bd e6 78 cb bd
       0.06910034 0.046083946 -0.09530392 -0.09935169
000250 e2 d0 e0 3b 4a 5f 56 bc 4e a2 fe bd 4d 97 4e bd
       0.0068608383 -0.013084242 -0.12433301 -0.05043726
000260 ba 5e 32 3b 57 1c 54 bd 4f 2d 43 3e 2f bd 96 3d
       0.0027217106 -0.05178484 0.19060253 0.07360303
000270 6e 33 13 bd 1d e1 c9 bd ac bb b5 bd 5c 69 be bd
       -0.03593772 -0.0985739 -0.08873686 -0.092974395
000280 67 4e 7a bd e7 13 ab 3d 2d f1 8f bd bc 5d d1 3c
       -0.061109927 0.083534054 -0.070284225 0.025557391
000290 e8 81 1a 3c 88 01 e9 3c ca d1 3a bd 06 4e 19 3e
       0.009430386 0.028443113 -0.045610227 0.1497117
0002a0 7d da 3e bd 65 cc 62 be a0 43 04 bd 5e fd d0 3c
       -0.046595085 -0.22148283 -0.032291055 0.02551144
0002b0 9c 5a c8 bd a8 1a 46 3e 45 0e 76 bd f4 29 a0 bd
       -0.09782907 0.19346106 -0.060072202 -0.07820502
0002c0 d6 06 ab bd cd b4 b0 bd dd 3e 85 3e 74 d9 24 bb
       -0.08350913 -0.08628235 0.26024523 -0.0025154026
0002d0 af 7d 70 3d 5f 36 b5 bc 3c e7 15 be fb ef 2c 3b
       0.05871361 -0.022120653 -0.1463899 0.0026388157
0002e0 1f 12 b0 3d 55 bd a5 bd 98 79 c4 3d 9b 96 08 3e
       0.08597206 -0.08092753 0.09593505 0.13338701
0002f0 52 67 e1 3d 0a ee 82 bd 15 57 14 3e f5 17 94 bd
       0.11006035 -0.063930586 0.14486344 -0.07231132
000300 ac 2f 88 bc fa b2 36 3d d3 ef da 3d 89 4d cf 3d
       -0.016624294 0.04460428 0.10690274 0.101222105
000310 94 95 b9 3d 85 56 b0 bd f8 fb 43 bd 42 cd ee bc
       0.09061733 -0.08610252 -0.047847718 -0.029150609
000320 ed c5 90 bc 8a 1c c8 bc c0 5c 5c 3d f6 99 c0 3c
       -0.017672503 -0.024427671 0.05379939 0.023510914
000330 91 ea dc bd 46 6d cf bd b5 79 0f 3e e1 d1 e8 bd
       -0.107869275 -0.10128264 0.14011271 -0.11368156
000340 23 e0 08 bb 29 8c bb 3c 84 08 fe b9 8e 71 3a 3e
       -0.002088555 0.022893982 -0.00048453 0.1820738
000350 90 9c 5b 3e 1d 9f 58 3e 6e 7a af 3d 16 98 2e be
       0.21446443 0.21154447 0.085682735 -0.17050204
000360 01 1a 15 3d 5f 8a 02 bd 03 22 f3 3c c9 5f 2d bd
       0.036401752 -0.031870242 0.029679304 -0.042327676
000370 0d 7c f2 3d 05 9a 1d 3e c8 bd 84 bd f0 86 95 bb
       0.11840067 0.15390785 -0.064815104 -0.004563205
000380 c5 16 b3 bd b6 7e eb bb 8d 82 b8 bd 20 1a ba 3d
       -0.08744577 -0.007186736 -0.090092756 0.09087014
000390 03 9a 6b bb ed ba 28 3e a5 f3 14 be ff 47 00 be
       -0.0035949952 0.16477557 -0.14546068 -0.12527464
0003a0 03 30 f7 bc 19 6c 28 be 8d bc 33 be e7 89 d8 3d
       -0.030174261 -0.16447486 -0.17552395 0.10573178
0003b0 90 d3 67 bd de ca 49 3e a1 04 f5 bd 13 a4 53 bd
       -0.056598246 0.19706294 -0.119637735 -0.051670145
0003c0 1d dd b4 bc 0d 61 80 3c bf 5e 6a 3c 15 63 93 bd
       -0.022078091 0.015671277 0.014304816 -0.07196633
0003d0 e2 56 94 bc cb a5 f9 3c 51 64 d8 3d ed 6c c2 3d
       -0.018107835 0.030474564 0.10566009 0.09493432
0003e0 60 d8 7d bd 8b 72 cf 3c 5f d0 d0 3d 0e a9 8f 3c
       -0.06197393 0.025323173 0.10195994 0.017536666
0003f0 ed e6 0f 3d 70 7a bf bd 69 86 1a 3d a1 8c f7 3d
       0.035132337 -0.09349525 0.03772584 0.1208737

encoder.layers.0.conv.att f4 [1, 1, 32]
000000 97 10 52 3e 69 d5 3b bd 15 47 8c be 74 78 91 3e
       0.20514141 -0.04585782 -0.2739798 0.2841221
000010 c3 71 8c 3e c0 e2 91 bc 01 07 8e 3e c0 65 42 3e
       0.27430543 -0.017808318 0.2773972 0.18984127
000020 ef a5 10 3e ba 43 43 be ba 44 c6 3e 52 fe 84 be
       0.14125799 -0.19068804 0.3872431 -0.2597528
000030 2a 07 4c be 01 7c ae 3e a0 31 0e be 76 44 8b 3e
       -0.19924608 0.34078982 -0.13886118 0.2720067
000040 c9 76 52 3e e3 3a e8 3d 73 25 9a be 86 05 90 3e
       0.20553125 0.11339357 -0.30106696 0.28129214
000050 63 a2 94 3e 2b db aa 3e 8c 5b 4e 3e c0 44 88 3d
       0.2903014 0.33370337 0.2015211 0.06653738
000060 41 58 2c 3e 7e ff 67 be b3 f0 38 3e b6 dc 9b be
       0.16830541 -0.22656056 0.1806057 -0.30441827
000070 27 0a 64 be ec 9e 8d 3e 5e af 32 be e8 a7 ac 3e
       -0.22269498 0.2766031 -0.1744971 0.33721852

encoder.layers.0.conv.bias f4 [16]
000000 23 51 78 3e 73 24 18 3f e9 0a 9e bd 04 cd 86 3e
       0.24249701 0.5943062 -0.07716925 0.2632829
000010 1f ea e3 3e 1c 9c b0 3e 20 a0 94 3e 27 69 8f 3e
       0.44514558 0.34494102 0.29028416 0.28009912
000020 87 97 56 3e 06 ed c5 bd ff 94 6c 3e 6c 19 b9 bc
       0.2095624 -0.09664349 0.23103712 -0.02259513
000030 30 35 3c bd e4 6b 13 3e ac a3 b2 bc 13 5e 1f 3e
       -0.04594916 0.14396626 -0.02180656 0.1556323

encoder.layers.0.conv.linear.weight f4 [16, 16]
000000 61 cf ae be d7 d3 d8 be c0 6b ad 3b 74 0e 1e bf
       -0.34142593 -0.4234912 0.005292386 -0.61740804
000010 4b 69 14 3d 2d fa d9 3e 36 f3 9c be d1 7f 30 be
       0.036233228 0.4257368 -0.30654305 -0.17236258
000020 23 19 8a 3f 2e 59 bd 3e e3 f1 8e be d8 4c 8e bf
       1.0788921 0.369821 -0.2791892 -1.1117201
000030 eb cd b8 bf 17 b0 42 bd 07 9c 0d bf dc 59 02 3e
       -1.4437841 -0.047531214 -0.55316204 0.12729591
000040 75 4d 01 3f 01 42 b7 bd 31 8e 26 bf 0b c2 bb bd
       0.50508815 -0.08948136 -0.65060717 -0.0916787
000050 4e 47 5a 3e 7c 6e 13 be 49 17 90 3f 5d 5d 69 3f
       0.21316263 -0.14397615 1.1257106 0.91158086
000060 93 65 09 3e 61 a6 ce 3e c5 b0 45 3e c0 e4 f9 be
       0.13417654 0.40361312 0.19305713 -0.48807335
000070 ff 4b 56 3f a3 fd e0 bc 4e 6e fa 3e 67 34 12 be
       0.8370971 -0.027464693 0.4891228 -0.14277802
000080 4d aa 33 3e 3e 18 bd bd 45 69 45 3e f3 94 0c 3e
       0.17545433 -0.092331395 0.19278438 0.13728695
000090 41 95 c9 3d e6 17 3c 3e 22 07 e0 3d 40 54 68 3e
       0.09842921 0.18368492 0.109388605 0.22688389
0000a0 79 64 a1 bd 6a dc 08 3e 3c a2 c2 be 2d fa 35 3d
       -0.07880492 0.13365331 -0.380144 0.04442804
0000b0 c5 b5 08 3e 4d 21 24 3e 08 69 a3 bc 72 c8 56 bd
       0.1335059 0.16028328 -0.019947544 -0.052437253
0000c0 a9 56 e4 bd 03 c4 27 3b 29 29 75 3e fd 16 e0 bb
       -0.111493416 0.002559901 0.23941483 -0.006838678
0000d0 a6 cf ff 3c 34 5b 39 bf 2d 11 43 bf 3e 39 0f bf
       0.031226944 -0.7240479 -0.76198083 -0.5594672
0000e0 c3 69 9a be d4 0e 1b bd 49 77 a5 3e c0 c0 6d 3f
       -0.30158815 -0.037855938 0.3231757 0.9287224
0000f0 db 2e 54 3e a1 fe 59 3d d1 83 60 3e 0a 30 c8 bd
       0.20720999 0.05322135 0.21925284 -0.09774788
000100 93 8f d3 bc 91 ec 3e 3e 24 54 79 3d da 94 a5 3e
       -0.025825297 0.1864493 0.06087126 0.32340127
000110 7c 6f 83 be ec 92 62 bc 3d 80 9b 3e 5b d8 38 bd
       -0.25670993 -0.013828974 0.30371276 -0.045128208
000120 4c 4e 10 bf 3c e1 91 bf 3c 99 60 3e 8b 17 34 3e
       -0.5636947 -1.1396861 0.21933454 0.17587106
000130 b1 be e1 3e 62 75 f1 bd 05 59 81 3d bb 28 f7 bd
       0.44090798 -0.11789967 0.06315807 -0.120683156
000140 b7 68 1e 3e 05 83 59 bf 17 9a b5 bd e4 66 91 bf
       0.15469633 -0.84965545 -0.08867281 -1.1359525
000150 5a 95 ef bd 79 46 51 bf 21 3b 66 bd c7 2a ef bd
       -0.116984084 -0.8174816 -0.056208733 -0.11678081
000160 46 17 0e 3f 61 11 4b 3f 99 d7 a6 3e 06 3a cb 3d
       0.5550426 0.79323393 0.32586363 0.099231765
000170 e6 e7 e5 3d 5e 9a c5 3e f1 3b 30 3f 19 99 76 bf
       0.11225872 0.38594335 0.68841463 -0.9632736
000180 14 6f 93 3d d9 2f 67 be 82 de 83 3e ba c0 07 be
       0.07198921 -0.22576846 0.25755697 -0.13257113
000190 6a 6d 71 bd 2d f6 9a 3e 99 b5 3f 3f d4 95 a0 be
       -0.058942236 0.30265942 0.7488647 -0.3136431
0001a0 01 3b bc 3e 8f 7e 8a bf bf 62 83 3e 01 b3 87 bf
       0.36763766 -1.0819873 0.25661275 -1.0601503
0001b0 3b fa 14 bf 5b a0 fc be 3c 12 8e 3d 02 b1 65 be
       -0.5819432 -0.49341092 0.06937072 -0.22430804
0001c0 2e dc 2e bf b6 b3 09 3f ca ef 4b bc 95 28 cc 3e
       -0.6830472 0.5378984 -0.012447307 0.39874712
0001d0 0d 89 1e bf de 0a ad 3e 2c 3c 8a bf 1e 80 0e be
       -0.6192787 0.33797354 -1.0799613 -0.1391606
0001e0 c9 21 19 bf 4a c4 12 bf 8e ab d2 be ce 1b 56 3f
       -0.5981718 -0.57330763 -0.4114651 0.83636177
0001f0 62 9c ff be 1b ec 9d 3e 69 1e 06 bf e2 e5 51 3f
       -0.49923998 0.30844197 -0.5239015 0.819914
000200 f6 c4 27 be 9e 3f 00 bf 74 86 0f 3f de 6d 11 bf
       -0.16383728 -0.5009707 0.56064534 -0.5680827
000210 de 87 18 3f 9d 75 28 bf a8 4e 42 3f b7 fe 25 bf
       0.59582317 -0.65804464 0.7590127 -0.6484179
000220 c0 7a ce 3e 2c 7c 9b 3e f6 8d 0f 3f 00 dd fd be
       0.40328026 0.30368173 0.5607599 -0.49582672
000230 12 f8 a1 bc df 2b 17 bf 74 e7 af 3e 27 29 1b bf
       -0.01977161 -0.59051317 0.34356272 -0.6060967
000240 73 16 05 3e a9 9b 33 bd df 76 88 3d 3e 0d e4 3d
       0.12996845 -0.04384962 0.06663298 0.11135338
000250 49 b6 18 3d 6c b6 06 3e 58 67 09 3d ae 65 3e 3e
       0.037283216 0.13155526 0.033545822 0.18593475
000260 e2 fd 87 bd d2 3d 38 3d ce e8 81 be 82 38 4d 3d
       -0.06640221 0.04498083 -0.25372928 0.05010272
000270 9a 64 b3 3d 2f c1 f7 3d ea f5 14 bd e7 98 52 3c
       0.087594226 0.12097394 -0.036367334 0.012853838
000280 28 57 32 bf d8 1f 40 3e 41 2e 45 3e 44 d4 d4 bd
       -0.6966424 0.18762147 0.19255926 -0.10392049
000290 db 4c 59 3f d2 c9 8c be 24 b7 a7 be 1e e0 25 bf
       0.848829 -0.27497727 -0.32756913 -0.647951
0002a0 b5 33 c2 3e e1 55 43 3f 8b 38 68 bc 64 1d 92 3e
       0.37930074 0.76302916 -0.014173637 0.28538048
0002b0 54 11 4d bf 99 64 3e bc c0 31 18 bf 0a 93 e2 3e
       -0.80104566 -0.011620664 -0.5945091 0.44252807
0002c0 e4 86 37 3e 87 73 a9 bd e6 f9 32 3e b7 26 0a 3e
       0.1792255 -0.08273988 0.17478141 0.13491331
0002d0 9c 36 ba 3d 6f 42 41 3e f4 99 de 3d 67 f5 6b 3e
       0.09092447 0.18872999 0.10869208 0.23042832
0002e0 fb b1 a5 bd 59 d3 15 3e b4 f6 cc be 07 1b 26 3d
       -0.08090588 0.14631404 -0.4003197 0.04055312
0002f0 6b e4 03 3e 15 2d 1d 3e 48 48 a9 bc ed 14 64 bd
       0.12880103 0.15349229 -0.02066435 -0.05568402
000300 8f f4 fb 3d b3 e7 19 bd 0e 52 e4 3d 7b 3d ec 3d
       0.12302505 -0.03757448 0.11148463 0.11535164
000310 07 d2 4b 3d 64 71 14 3e 12 d8 bd 3d fb 16 2d 3e
       0.049760845 0.1449638 0.09269728 0.16903298
000320 d5 e7 96 bd 8b c1 1a 3e 09 87 a2 be 7e d1 e3 3c
       -0.07368437 0.15112893 -0.3174365 0.027809855
000330 c5 e5 d3 3d 92 3f c6 3d 08 1b 1e 3c ec 14 66 bd
       0.103465594 0.09680094 0.009649999 -0.056172296
000340 64 be 89 bd 39 eb da 3d 72 8d dd 3d 17 b5 69 3e
       -0.06725767 0.106893964 0.10817994 0.22822987
000350 5d b9 4b be 0c 3c 7b be 97 cc 94 3c d8 6f ec be
       -0.19894929 -0.24534625 0.018163962 -0.4617908
000360 3b 4a e0 be 61 84 59 bf fc 78 97 3e 97 ea d2 3e
       -0.43806633 -0.8496762 0.2958449 0.41194603
000370 5d bb a0 3e d1 fd a3 bd db 23 08 3e 73 4e 58 be
       0.31392947 -0.08007396 0.13294928 -0.21123676
000380 f8 59 c5 3d 02 af c6 bc 2f c3 c4 3d ef 0c c8 3d
       0.09636301 -0.024253372 0.09607541 0.09768092
000390 84 28 1f 3d 60 90 f0 3d ab 54 99 3d 6e d5 fc 3d
       0.038856998 0.11746287 0.07486852 0.12345396
0003a0 06 39 69 bd ab 9a 04 3e 9f 20 82 be 2f f0 b0 3c
       -0.056939147 0.12949626 -0.25415513 0.021598903
0003b0 73 c0 9b 3d 15 d2 88 3d 6e e3 04 3c 43 fa 31 bd
       0.07605066 0.06680695 0.008110864 -0.04345156
0003c0 19 16 85 bd 89 6e 8d bd 29 b7 4b 3f 9c 00 00 bd
       -0.064983554 -0.069058485 0.79576355 -0.03125058
0003d0 32 30 01 3f f2 37 19 bf 61 55 5e be bd d2 5c bf
       0.50464165 -0.5985099 -0.21712257 -0.8625906
0003e0 fe 25 9e 3c 6e d3 3c 3e 70 6a 4a 3f 41 3b c9 3e
       0.019305225 0.18440029 0.7906866 0.3930302
0003f0 21 a9 96 3c 84 70 05 bf 4e c8 b6 3e 0c 9d 1e bd
       0.018391194 -0.5212481 0.35699695 -0.03872399

encoder.layers.0.conv.linear.bias f4 [16]
000000 98 91 a8 3e 74 47 75 3e 64 38 53 bd 08 51 b3 bd
       0.3292358 0.23953038 -0.05156745 -0.0875569
000010 e9 03 3f bd eb 69 bc 3d 01 bb 34 3c 2a c0 7c 3e
       -0.04663459 0.0919989 0.011030913 0.2468268
000020 0d 4a be 3d a2 10 b2 bd d3 2c 43 3e d9 bc 4a bd
       0.09291468 -0.08694579 0.19060068 -0.049496505
000030 b8 ec 16 bd 88 df 45 bd d5 be 01 bc d3 55 1c 3e
       -0.036846846 -0.04830888 -0.007919033 0.15267114

encoder.layers.0.conv_e.weight f4 [1433, 16]
000000 b6 9f 8d 31 2e ea 1a b2 89 88 92 ba ab 36 5d 3b
       4.121797e-09 -9.017226e-09 -0.0011179607 0.0033754508
000010 ce c1 22 3c 56 7a 4b b2 e8 90 1e bc 35 93 16 ba
       0.009933902 -1.1843971e-08 -0.009678103 -0.00057439815
000020 f3 08 2a bc 38 fc 62 3a c6 ce 25 3a 0f 17 c2 3b
       -0.01037811 0.00086587993 0.0006325062 0.005923159
000030 87 b1 0e bc bc 19 a3 3b 23 06 80 b2 20 93 a6 32
       -0.008709318 0.004977433 -1.4903952e-08 1.9391848e-08
000040 99 3e f8 31 85 02 f0 b1 b2 bb c4 3b 4f a9 8d 3b
       7.2248665e-09 -6.9852057e-09 0.0060038203 0.0043231617
000050 a2 b5 b4 bb 20 1e 0b b3 a4 15 bd bb eb 4f 6d 3c
       -0.0055148164 -3.2390858e-08 -0.005770402 0.014484386
000060 4f d4 0f 3c 7d 90 a1 bb a3 99 70 bc 5f b1 5e bc
       0.008778646 -0.0049305544 -0.014685067 -0.013592093
000070 45 19 18 3c 42 41 4a bc e7 ee 42 32 8a b9 ba b2
       0.0092833685 -0.01234466 1.1346606e-08 -2.1737623e-08
000080 a7 5f a4 32 e1 87 f2 32 ed 38 9a 3b c2 d7 52 bc
       1.913561e-08 2.8234298e-08 0.004706493 -0.0128688235
000090 46 67 97 bb 43 ab e6 b2 3c 2d 08 3b 22 41 e5 3b
       -0.0046204654 -2.6853405e-08 0.0020778915 0.00699629
0000a0 17 7b 62 3c 4d f5 91 bb 33 81 3a bc b8 85 f8 bb
       0.013823292 -0.004454291 -0.011383343 -0.0075843
0000b0 4c 69 1f 3c 49 ce df bb ab f2 73 b2 43 e7 b0 b2
       0.009729695 -0.006830011 -1.4199638e-08 -2.0594262e-08
0000c0 78 44 d6 b1 09 ae 4a 33 25 58 ba 3c 3d af 31 3b
       -6.2360037e-09 4.7190074e-08 0.022747109 0.0027112507
0000d0 24 39 0d bc cb ca b5 32 89 a5 d4 bc f9 29 8d ba
       -0.00861958 2.1163393e-08 -0.02595784 -0.0010769955
0000e0 25 17 2d bc 3f 23 1e ba 22 1c 91 3b 50 bb 46 bc
       -0.0105646 -0.0006032474 0.0044284025 -0.01212962
0000f0 88 4c 4a bc c7 92 ca 3a 12 4b 08 b2 59 76 09 b3
       -0.012347348 0.001545512 -7.933311e-09 -3.2005435e-08
000100 1f eb c3 31 df 3c a3 33 a8 69 2a bc 80 aa ee 3d
       5.701977e-09 7.6013514e-08 -0.010401167 0.11653614
000110 d4 7c 04 3e 04 33 99 30 a3 28 9e bd 97 83 9d bc
       0.12938243 1.1146715e-09 -0.077225946 -0.019227786
000120 a5 20 37 be c6 a7 35 bc e0 76 83 3c 8f 58 7d 3d
       -0.17883547 -0.011087364 0.016047895 0.061852034
000130 26 5d 89 39 fa 62 a6 3d 45 88 c4 32 ea a3 0f b3
       0.00026200077 0.08124347 2.2879371e-08 -3.344386e-08
000140 58 16 0b 32 6f 3d f9 b1 b0 98 88 3b ba f1 ce 3a
       8.095945e-09 -7.253838e-09 0.0041685924 0.0015788593
000150 0e 3b 8a bb 5b a4 8e 32 06 7a 3e 3b af 31 65 3b
       -0.0042184656 1.6605716e-08 0.002906443 0.003497224
000160 9d f0 07 bb 04 41 05 ba 0c 93 f4 39 39 21 92 3a
       -0.0020742782 -0.00050832354 0.00046648865 0.0011148817
000170 7a f1 9a 3b 60 9a 76 3a 11 e2 2a b2 59 c0 ad b2
       0.0047284933 0.0009407159 -9.946704e-09 -2.022732e-08
000180 2c 30 ac 32 48 27 35 b3 52 84 af 3b 6d a8 c2 bb
       2.0045341e-08 -4.2178073e-08 0.00535635 -0.005940488
000190 06 f0 91 3c 31 f6 44 b1 f9 2d dd bb ee 1b 57 bc
       0.017814647 -2.8661697e-09 -0.006749865 -0.013129218
0001a0 5e c5 69 3b df f1 02 3b 5f ee 0b 3c 8f a6 4e 3c
       0.0035670619 0.0019980592 0.008540719 0.012612953
0001b0 7a c0 02 bc 78 7d 23 3c 29 e4 f4 b2 74 f5 3e 32
       -0.00798046 0.009978645 -2.8509094e-08 1.1115265e-08
0001c0 11 ab 23 33 ce da 26 32 6d 8e 9e 3b 3b ec 49 bb
       3.810698e-08 9.712222e-09 0.004838756 -0.003081097
0001d0 74 53 96 bb d6 37 11 33 8b e3 cb bb 73 b6 7e 3b
       -0.004587585 3.3811226e-08 -0.0062221936 0.0038866072
0001e0 33 ce ea bb ac 50 c9 b8 cb c9 86 3a be d3 b7 ba
       -0.007165694 -9.599453e-05 0.0010283528 -0.0014024896
0001f0 2e ee 68 bb 5b 6a 1c 3a e1 e1 29 31 b5 aa 5e b2
       -0.0035542357 0.0005966776 2.4721134e-09 -1.2960915e-08
000200 0a ae 97 b2 48 9c 27 b1 f9 9b 64 3c a4 af c7 3c
       -1.7657857e-08 -2.4390534e-09 0.013953202 0.024375744
000210 46 db 17 bb 3d ce 52 b2 50 11 ae bc 1e 01 d0 3b
       -0.0023171469 -1.2270502e-08 -0.02124849 0.0063477894
000220 b4 e2 ad ba e8 8f db bb 9e 10 30 3c 3f 6c 2d bc
       -0.0013266415 -0.0067005046 0.010746149 -0.01058489
000230 71 19 02 bc ca 47 80 39 bf 84 ac 32 a9 d2 81 32
       -0.007940636 0.0002446755 2.0083801e-08 1.5113374e-08
000240 86 09 32 32 12 05 b2 31 86 f0 7a 3b 7e 8b 1a bb
       1.0363129e-08 5.1810582e-09 0.0038290336 -0.002358168
000250 a1 05 07 bb 9f 4c 05 b3 4e c4 5f bb 7a 75 27 3b
       -0.002060272 -3.1036162e-08 -0.0034144106 0.00255522
000260 a3 1c 77 bb c1 3c ff b9 5c 30 44 bb 42 86 a2 bb
       -0.0037706278 -0.00048682655 -0.002993605 -0.0049598524
000270 66 b5 86 3b e8 ef 45 bb 7b 62 55 b1 e0 12 f2 b1
       0.00411098 -0.003020281 -3.105156e-09 -7.045273e-09
000280 1b 22 1a b3 3d 54 b3 b2 24 1b 03 3c 5d 58 37 bb
       -3.5886938e-08 -2.087665e-08 0.008002076 -0.0027976253
000290 8b 12 ee bb 9b 9c 8a b2 a3 34 16 3b 75 73 53 3b
       -0.007265394 -1.613653e-08 0.0022919558 0.0032264863
0002a0 d1 23 76 3c 00 da 19 bb e2 2b 07 bc 45 d0 53 bc
       0.015023188 -0.0023475885 -0.008250209 -0.012928073
0002b0 f2 ca 44 3c 85 4e 62 bc 3e 65 b9 32 38 f8 46 b2
       0.012011277 -0.013812666 2.1582874e-08 -1.1581555e-08
0002c0 74 e8 fd b2 77 22 0d 31 6d aa 02 3b 25 4b 3b 3b
       -2.9558784e-08 2.0537791e-09 0.0019938007 0.0028578725
0002d0 07 74 93 3b 4a 0a 27 32 c2 16 21 bc 00 2c be 38
       0.0044999155 9.723019e-09 -0.009832086 9.068102e-05
0002e0 48 8b 0d bc a1 8e bc 39 64 e5 f5 b9 6b ea e1 38
       -0.008639164 0.0003596442 -0.0004690095 0.000107725
0002f0 9c 7b 50 bb 00 a9 8b 3b 0d 0a 84 b0 fb a7 fa 32
       -0.0031811958 0.0042620897 -9.607121e-10 2.918022e-08
000300 6a cf ad b2 5b 1c 1c 32 58 c8 ad bb 41 8a 36 3d
       -2.0234172e-08 9.086842e-09 -0.005303424 0.044565443
000310 1a 84 d3 3a 05 5d 02 b2 62 49 b8 bc 05 91 8c 3c
       0.0016137392 -7.588146e-09 -0.02249593 0.017158994
000320 e8 af 33 bd f5 c9 39 bb 24 d5 9f 3c be e1 36 3b
       -0.04386893 -0.0028349136 0.019510813 0.002790555
000330 1a 37 de bc 0f 94 d2 3c 5a 3c 84 b2 a1 f9 4f 32
       -0.027125884 0.025705365 -1.5394267e-08 1.2105745e-08
000340 24 a0 da b1 52 2b 8d 32 c9 40 eb 3c a5 6e 66 bc
       -6.362841e-09 1.643426e-08 0.028717415 -0.014064466
000350 6a f6 29 bd e8 65 b4 32 7b a3 0e 3c 86 70 c8 3c
       -0.041494764 2.10011e-08 0.008705969 0.024467718
000360 39 95 1f 3d 6b 38 c3 bb 98 87 d2 bc 0f cc 20 bd
       0.03896067 -0.0059576533 -0.025699422 -0.039257105
000370 37 48 cd 3c 88 af ff bc 65 5e b0 32 ff 3c 6c 32
       0.025058849 -0.03121163 2.0532022e-08 1.3750877e-08
000380 c2 34 93 32 db 78 f2 31 29 91 28 ba dd c1 05 bb
       1.7137044e-08 7.0568666e-09 -0.0006430322 -0.002040974
000390 a0 4e bd 3b b9 82 9e b2 3a 47 33 3b ce 93 76 bb
       0.005777195 -1.8453067e-08 0.0027355687 -0.003762472
0003a0 03 fd 05 bc be a1 ed 39 4c 18 e5 bb 8d 31 01 3c
       -0.0081779985 0.0004532467 -0.006991422 0.007885349
0003b0 f3 1d 34 bb d2 30 c1 bb ac a2 39 b2 9f 45 81 32
       -0.0027483671 -0.0058957124 -1.0805405e-08 1.5049237e-08
0003c0 2d a4 0b b2 98 1d 3a b3 b6 e9 ab 3b 99 50 b5 3a
       -8.128194e-09 -4.3333415e-08 0.0052463664 0.0013833224
0003d0 c9 0e 47 3b 81 47 93 30 3c 04 66 bb 32 de ef 3b
       0.0030373803 1.071598e-09 -0.0035097739 0.007320189
0003e0 11 50 3c 3c c2 77 05 bb aa f2 e7 3a 71 1a 87 3a
       0.011493699 -0.002036557 0.0017696221 0.0010307563
0003f0 7e 60 c4 3b 38 dd 5b 3b fb a0 31 b2 5d 9f 7e 32
       0.005992948 0.0033548605 -1.0339359e-08 1.4820981e-08

encoder.layers.0.conv_e.bias f4 [16]
000000 3b a3 02 bd 9d 95 17 bc 08 6b f0 3d e5 7e bb 3d
       -0.03189395 -0.009251979 0.117391646 0.091550626
000010 ab 05 1f 3e 6d b7 f6 bc c0 3b b6 3e 62 08 11 3e
       0.15529506 -0.030116761 0.3559246 0.14163354
000020 08 1f 18 3e 03 b7 6f 3e 36 c7 d1 3d b4 68 66 3e
       0.14855587 0.23409657 0.102430746 0.22500879
000030 fa 9d 4b 3e 26 f0 8a 3d 89 34 39 bb 54 d2 06 bd
       0.19884482 0.06784086 -0.0028260073 -0.03291543

decoder.scale f4 [7]
000000 63 0b 5e 3f 7a 09 67 3f 89 19 58 3f ac 27 30 3f
       0.86736125 0.90248835 0.84413964 0.68810534
000010 4d 66 5b 3f 45 9b 27 3f bf f2 62 3f
       0.85702974 0.654713 0.8865165

decoder.point f4 [7, 16]
000000 95 87 de 3d 5d 0f 02 3e 1f f2 2c ba 13 6b fa bc
       0.10865704 0.12701173 -0.0006597358 -0.030568635
000010 96 9a ba 3c 67 21 ce bd 18 d7 94 3d 13 e8 10 3e
       0.02277879 -0.10064965 0.072675884 0.1415103
000020 60 cc 99 3d 16 a1 1a 3c f1 ea c0 be d7 74 c8 3a
       0.075096846 0.00943782 -0.37679246 0.001529361
000030 2a 1a 6d 3a 67 03 31 3e 98 74 25 3e a7 f0 55 3d
       0.0009044731 0.17286454 0.16157758 0.052231457
000040 96 5f 6f bd 05 04 e9 3e 42 60 44 3c 40 28 d7 3c
       -0.058440767 0.4551088 0.01198584 0.02626431
000050 50 0f bd 3d 31 76 02 3e 51 1d e2 3d 3f e1 46 bc
       0.09231436 0.12740399 0.11040748 -0.012138664
000060 cf b7 2f 3e 41 62 11 bb 93 6a a3 bd 54 3a 7a ba
       0.17159961 -0.0022183808 -0.07979312 -0.0009545435
000070 49 a2 4c 3b 4a f8 9a bd f0 19 fe 3d 47 ed 12 3e
       0.003122466 -0.07566889 0.12407291 0.14348327
000080 6e 5a e4 3d b4 80 9c 3b bd 46 a8 bb cc 2f e5 ba
       0.111500606 0.004776085 -0.005135386 -0.0017485558
000090 30 bb c2 3d 83 e8 11 3e 3c b3 ba bb c5 36 b4 be
       0.095083594 0.14248852 -0.005697636 -0.35198036
0000a0 e0 65 88 3c 36 17 12 bd 4a 61 57 bd 2c f3 96 37
       0.01665014 -0.035666667 -0.052583016 1.799463e-05
0000b0 eb e6 9a 39 f8 d3 c8 bb fd b1 f3 3d 0f 7b 2c 3d
       0.00029545216 -0.0061287843 0.11899183 0.042109545
0000c0 b7 35 b9 3d a7 60 48 3e 87 00 47 bd 2a c4 a3 bc
       0.090434484 0.1956812 -0.048584487 -0.019991
0000d0 1e 74 10 3e 5a 9d 9f 3d 60 7e a9 3d 54 f6 04 3e
       0.14106795 0.07793684 0.08276057 0.12984592
0000e0 6e 25 5f 3e 97 e6 2b 3e ea f9 15 3e d2 49 1a 3d
       0.21791622 0.16787182 0.14646116 0.037668057
0000f0 a5 10 5b bd ec 32 6e 3d e0 7c 6e 3d 34 08 4a 3d
       -0.05348267 0.05815403 0.05822456 0.04932423
000100 6f f6 6a 3d 76 0c 7d 3e 00 d9 b9 b8 f3 bc 11 3e
       0.057363924 0.24711785 -8.861907e-05 0.14232235
000110 43 70 09 3e 86 83 bc 3d ae 90 02 3d 89 19 f1 3d
       0.1342173 0.092047736 0.03187626 0.117724486
000120 72 0b 22 be 5d 0c 9f 38 da 77 b3 3d 8e c6 39 3e
       -0.15824679 7.584014e-05 0.08763094 0.18142149
000130 14 6a f6 bd 4b e0 b9 3d f4 cc 38 bd 2d 10 1e 3d
       -0.120319515 0.090759836 -0.045117334 0.038589645
000140 2d 56 55 3e 53 a0 38 be ad 83 d6 bd 31 bd 3d bc
       0.20833655 -0.18029909 -0.10474334 -0.011580751
000150 cc 05 f9 3c 44 7e af bd 85 50 80 3d fa 72 46 3e
       0.030398272 -0.08569005 0.06265358 0.19379798
000160 99 db 20 be 84 24 38 b6 54 cb ac 3e 08 20 31 3e
       -0.1570877 -2.7439391e-06 0.33748877 0.17297375
000170 ef c4 bc bd 51 0d 26 3d d6 f8 1b 3d aa 49 f4 3c
       -0.092172496 0.040540043 0.038079105 0.029820282
000180 26 02 bf 3b 83 0c 48 3e a6 c4 eb b9 c0 a4 8c be
       0.0058291135 0.19536023 -0.00044969207 -0.27469444
000190 bf 15 20 3e 65 19 38 3d 9c 7f f0 3d 89 23 5f 3e
       0.15633295 0.044946093 0.117430896 0.217909
0001a0 10 ea 09 3e 21 4a 06 37 f9 2f 06 bc 67 91 48 be
       0.13468194 8.004282e-06 -0.0081901485 -0.19586717
0001b0 51 79 f5 bb ab 5d 82 bd 67 5a 94 37 8b ae d7 3c
       -0.0074912687 -0.06365522 1.7685072e-05 0.026328346

decoder.tangent f4 [7, 16]
000000 87 53 77 be 08 16 23 3e 1e a9 ee b9 5b 88 3e 3e
       -0.24152957 0.15926373 -0.000455209 0.18606703
000010 59 98 f2 3e 5a 61 50 bd 64 76 0c 3f cc 15 68 3d
       0.47381857 -0.05087409 0.5486815 0.056661412
000020 9b c8 ba 3e e8 54 9d 3c a0 34 de be a6 15 2b bc
       0.36481175 0.019205526 -0.43399525 -0.010442173
000030 f6 24 06 bb f2 6e b8 3e a1 5d b0 be 75 c2 da 3e
       -0.0020468808 0.36022145 -0.34446433 0.42726484
000040 4e 9b da 3d aa f5 86 3f 7f 1f a9 bc 69 30 af bc
       0.10674153 1.0543721 -0.020644901 -0.021385388
000050 81 e4 9d 3c cc f1 1c be 71 45 a0 bc d4 83 2d 3c
       0.019273998 -0.15326613 -0.019564362 0.010590512
000060 8c 9b 13 bd e8 6d c6 bb 7c a9 4d be 85 cc 4f ba
       -0.036037013 -0.0060555823 -0.20084184 -0.0007926899
000070 f1 f9 18 3c 36 10 71 3d f5 82 e2 3c 85 3a a8 3d
       0.009336934 0.05885335 0.027650336 0.08214287
000080 59 cf 53 3e a6 01 d8 3e 1d 65 f7 bb 24 47 89 3d
       0.20684566 0.42188758 -0.0075498954 0.06703022
000090 68 64 18 3d f5 ff 89 3f 9c 31 03 3e d7 66 87 be
       0.03720513 1.0781237 0.12811893 -0.26445648
0000a0 72 05 0b 3e f4 ee d3 bd 70 32 bb be 41 c5 8e 37
       0.13576296 -0.10348311 -0.36561918 1.7019573e-05
0000b0 f5 7b 15 39 2a 65 9a bc 12 88 0c 3e 1f 5a 9b be
       0.00014255925 -0.018847067 0.13723782 -0.30342194
0000c0 eb a9 46 be f9 cf bc 3b 4a 88 e1 bd 88 64 72 3e
       -0.19400756 0.005762097 -0.11012323 0.23671162
0000d0 8c 1a 02 3d ca e3 1b 3e 79 5d ed bd 33 df 19 be
       0.0317636 0.15223613 -0.11590094 -0.1502655
0000e0 5c ac de 3e 4f f6 d7 bd 56 39 2e 3f c4 49 80 3d
       0.43490875 -0.105450265 0.6805624 0.0626407
0000f0 14 71 88 bd 8c cc 3a 3d 6e b3 e0 3d 06 be ec 3e
       -0.06662193 0.045605227 0.109717235 0.46238726
000100 78 71 6d bf cb 58 f3 3d fe c0 f9 38 82 23 5e 3e
       -0.92751265 0.1188217 0.00011909193 0.21693233
000110 7f 95 3d 3e 06 bb 82 3d bf 8c da be d9 ff b6 3e
       0.1851406 0.06383328 -0.42685506 0.3574207
000120 28 5a c9 be d0 b4 82 38 3e 07 e7 bd 13 21 9b be
       -0.39326596 6.232562e-05 -0.11280678 -0.3029867
000130 20 92 87 be 80 2d 63 3e 83 8a 9e bd 13 80 16 bd
       -0.26478672 0.22185326 -0.07741263 -0.036743235
000140 a0 f8 a0 3e 55 00 2a 3d 5d 5b 3b be 16 9f a4 3d
       0.31439686 0.041504223 -0.18296571 0.08038156
000150 1c 9a bf 3d 63 d5 ff 3d 53 f7 8d 3e 79 fb 66 3f
       0.09355566 0.12491872 0.27727756 0.90227467
000160 46 8b bc bd 7c 1a 8d 36 92 84 46 3e 5e 9f 9b be
       -0.09206252 4.2052106e-06 0.19386509 -0.30395025
000170 c5 a9 21 3e ed 8b ea bc 8d 47 71 3c d0 2c c0 3d
       0.15787418 -0.028631175 0.014726532 0.09383547
000180 2d b2 d9 3e 41 45 b2 3e d0 d2 9b b9 ae fd b6 be
       0.4251875 0.34818462 -0.0002972097 -0.35740417
000190 a3 16 f5 3d 2a da 10 bf 8e 5c 02 3f e5 b6 cf bd
       0.11967208 -0.5658289 0.5092248 -0.10142306
0001a0 23 f2 4a be 80 16 58 37 f0 70 a3 3e 43 6a 24 be
       -0.1981893 1.2879842e-05 0.31922102 -0.1605616
0001b0 68 72 99 3c 86 4f 33 be 8c 5a 23 b8 52 0f 0c bf
       0.018731311 -0.17510805 -3.8946557e-05 -0.54710877

decoder.cls.weight f4 [16, 7]
000000 72 44 70 b4 ff 24 23 b5 0a ac e1 32 a1 f3 e9 b3
       -2.2376642e-07 -6.077607e-07 2.6271682e-08 -1.0894224e-07
000010 35 f1 c6 b1 84 02 be b3 56 e7 ef b4 d4 77 41 b2
       -5.7899805e-09 -8.848022e-08 -4.4685538e-07 -1.1261324e-08
000020 3f 2e 07 33 11 4a 8e b3 4f 39 26 34 02 22 45 b3
       3.1474197e-08 -6.625863e-08 1.5480803e-07 -4.5898567e-08
000030 1d e5 fe 34 58 61 ef b4 8b 70 cb be d2 45 c1 3e
       4.747789e-07 -4.4588046e-07 -0.397343 0.3774858
000040 1e be 31 3f 20 5d 9b 3e 10 0a af be d7 df f4 bd
       0.6943072 0.30344486 -0.34187365 -0.119567566
000050 7c 87 13 bf bb e3 2f 3e 83 fa 39 bb 18 b8 32 3f
       -0.5762861 0.17176716 -0.0028378076 0.69812155
000060 54 e2 16 bf 8a c5 8a bf 6f 81 46 3f 7b 35 26 3f
       -0.589391 -1.0841534 0.7754125 0.64925355
000070 f8 f5 76 be 22 63 3b bd 50 10 46 3f 8d 0b 41 bf
       -0.24117267 -0.045748837 0.7736864 -0.7540825
000080 01 5e 8c 3e 21 76 f5 3e c2 0e 90 bd 06 51 26 b3
       0.2741547 0.47941688 -0.07034065 -3.8723577e-08
000090 e9 06 a9 34 84 66 af 33 b9 90 8a b4 0e 69 19 33
       3.148373e-07 8.16772e-08 -2.5809803e-07 3.5718635e-08
0000a0 ff cf 21 34 78 b1 29 b4 da b9 17 3d 37 0e c0 be
       1.5069962e-07 -1.5803914e-07 0.037042476 -0.37510845
0000b0 93 72 10 bf fe 9d 1f 3f 5d 22 58 3f c3 f0 86 be
       -0.56424826 0.6235045 0.84427434 -0.26355562
0000c0 21 9a 2f be 89 a1 93 3e d9 3f 42 3e 1e 64 db be
       -0.1714864 0.2883418 0.18969668 -0.4284982
0000d0 71 e6 f5 3e 60 59 36 bf fd ab 88 3e 97 fe 21 3f
       0.48027375 -0.71230125 0.26693717 0.632791
0000e0 ec 72 24 bf bd 18 e1 be 57 e7 22 bf 08 f6 8f 3f
       -0.64237857 -0.43964186 -0.63634247 1.1246958
0000f0 59 13 86 3f 23 f2 6d bf 55 a7 cc be 1c e3 5f 3d
       1.0474654 -0.92947596 -0.39971414 0.054659948
000100 e4 9a 68 bc 04 fe 2a 3c 60 af 09 bd c5 b4 81 3d
       -0.014197085 0.010436539 -0.033614516 0.06333307
000110 31 d9 9d bd 74 6b a4 3c 3a c0 f3 3e 0c 84 37 bc
       -0.077074416 0.020070769 0.47607595 -0.011200916
000120 89 cf 04 3f 1a 18 66 bf b8 20 56 bf e7 c6 a7 3c
       0.51879174 -0.89880526 -0.83643675 0.020480586
000130 e3 ce 03 3f 6b ec 1c bd 72 96 5b bd dc 52 f9 3e
       0.5148756 -0.038311403 -0.053610273 0.4869603
000140 e8 fc 41 bf 09 02 05 3f c1 d8 34 3e e6 a1 87 3e
       -0.7577653 0.5195623 0.1766081 0.26490706
000150 de dc a0 be d9 34 9d be e6 e8 33 bf f4 5d 7d 3f
       -0.31418508 -0.30704382 -0.7027725 0.98971486
000160 b9 2f 88 3f 2b 7b a2 3d a6 bb 61 bf 77 a5 ed 3e
       1.0639564 0.07933649 -0.88176954 0.46415302
000170 17 7d 8a 3d 57 0f 69 3e ed 7a 4b bf ee 79 05 bf
       0.0676214 0.22759758 -0.79484445 -0.52139175
000180 dc 86 ad 3e 99 bb ab 3e 31 6c 20 b4 b5 45 69 b4
       0.33891952 0.33541563 -1.4940521e-07 -2.1725175e-07
000190 ee 81 cf 31 0d 29 0a 33 ee 0b 3d 34 a9 c3 1a 34
       6.039264e-09 3.2167964e-08 1.7606337e-07 1.4413548e-07
0001a0 b8 84 12 34 09 9e e6 b2 d4 0c e7 34 8a 44 94 b2
       1.3645592e-07 -2.684739e-08 4.3036437e-07 -1.7260636e-08
0001b0 f8 74 bf 33 4b 1d 74 b4 1d e5 27 b4 05 58 6f 33
       8.915407e-08 -2.2734928e-07 -1.5636438e-07 5.5726577e-08

decoder.cls.bias f4 [7]
000000 95 1f 10 be 97 03 9c bd a8 e2 0b be 8f 82 4c 3d
       -0.14074548 -0.07617872 -0.13660681 0.049929198
000010 7e 81 7b 3e 4c cc 88 3e 28 04 93 3c
       0.24561116 0.26718366 0.017946318

decoder.w_e.weight f4 [1, 16]
000000 3e 0e 82 33 bd f9 d3 33 e5 fa 92 3e c5 4f e7 3e
       6.0561874e-08 9.87088e-08 0.28707042 0.45178047
000010 03 73 dc 3e c4 5c 82 b3 06 93 51 3f 7c a5 e9 3e
       0.43056497 -6.070471e-08 0.81864965 0.45634067
000020 66 62 17 3f 6e fc b1 3e f0 0a 92 3e e9 55 16 3f
       0.5913452 0.347629 0.2852397 0.5872484
000030 c7 82 30 3f 81 1f a3 3d 20 b0 12 b2 45 42 59 b4
       0.6894955 0.07964993 -8.538365e-09 -2.0233809e-07

decoder.w_h.weight f4 [1, 16]
000000 8d 91 92 3e 21 6c 4e 3f c2 1f db b4 d1 ff a8 3e
       0.2862667 0.8063374 -4.0815036e-07 0.33007672
000010 bf 57 2b 3f a3 a0 47 3f 4e f3 ac 3e ec b6 bf 3e
       0.66930765 0.7797949 0.33779377 0.37444246
000020 22 d5 3d 3f d7 b0 d8 b7 25 36 c3 3e 52 c4 d0 b2
       0.7415334 -2.5831554e-05 0.38127246 -2.4303663e-08
000030 b3 e4 05 b5 12 66 91 3e 62 d0 28 33 24 4a 35 3f
       -4.987916e-07 0.28398186 3.930507e-08 0.70816255
