logs/nc/2020_1_18/1/model.pth (torch_old, 478871 bytes, 13 tensors)

encoder.layers.0.conv.att f4 [1, 1, 32]
000000 76 c7 97 3e 35 b2 1a 3c e5 b6 ef bd 72 2b 0b 3c
       0.29644364 0.009441902 -0.11704806 0.008494245
000010 29 b9 a9 3c ec df 94 3c 42 6d 83 3d 07 1b 5f bc
       0.020718174 0.01817318 0.06417324 -0.013617284
000020 88 d3 a1 3d 56 08 33 3e 51 4f 56 3d 34 ac 5a 3e
       0.079016745 0.17483649 0.052321736 0.21354753
000030 2a f8 c3 3c c2 7f ad 3c 82 d1 5f 3d c2 12 d0 3d
       0.023922045 0.021179084 0.05464316 0.10159828
000040 51 ad 9e 3e 5a 56 e5 3a 5f 1c 12 be f2 dd 0c 3c
       0.30991605 0.0017497048 -0.14268635 0.008597838
000050 e0 72 2e 3c be 68 8c 3c 3a 92 a2 3d 9b 4e f7 bc
       0.0106475055 0.017139789 0.07938047 -0.03018885
000060 2a 19 34 3e f8 e8 6d 3e 6b b5 1a 3e 08 73 74 3e
       0.17587724 0.23233402 0.15108268 0.23872006
000070 c5 b4 90 3c 21 5b 35 3c 20 82 77 bc 09 96 d7 3d
       0.017664323 0.01106909 -0.015106708 0.10526664

encoder.layers.0.conv.bias f4 [16]
000000 dd 53 1e 3f 9c 7f c5 bd 4b 9e b1 bd 6c 6f d3 bc
       0.61846715 -0.0964348 -0.0867277 -0.025809966
000010 0f 49 19 bb 1a 7d 59 3e 9a f8 d3 3e 7d 7d 39 ba
       -0.0023389494 0.21239129 0.41400605 -0.0007075889
000020 7d 57 82 3e 8c 97 cf 3e fa 0a 32 3e 9c 8a ec 3e
       0.25457373 0.4054531 0.17387 0.461995
000030 c1 9c c8 bb 87 0b 91 bb cf d1 f8 3e 7c 2a b9 3e
       -0.006122202 -0.004426423 0.4859757 0.36165226

encoder.layers.0.conv.linear.weight f4 [16, 3703]
000000 28 4b 5d bc 35 b3 41 bc 5a 85 04 bb 22 18 13 3c
       -0.013506688 -0.011822511 -0.0020221085 0.008977922
000010 88 3b 6f 3c 8f 17 34 3d 34 d5 25 3d e8 89 54 3c
       0.014601596 0.04396778 0.04048653 0.012972333
000020 c7 56 53 3c 38 1b 5b 3c c8 ae ab bc d6 5d d2 bd
       0.012899107 0.013373189 -0.020957366 -0.10271804
000030 be b6 0b 3b 0e a5 9e 3d 2e b2 15 3d fa 42 8a 3b
       0.002131864 0.077463254 0.03654688 0.00421941
000040 78 61 d1 bd e2 10 8f 3b bc 13 68 bd dd 10 d3 bd
       -0.10223669 0.0043660263 -0.056659445 -0.10305951
000050 e2 ab 08 3c 62 19 34 bd a1 c6 d7 be 9f c2 11 3b
       0.008341761 -0.04396952 -0.4214373 0.0022241247
000060 a8 a0 08 3d f4 60 90 bd 22 bb 65 bc 1b 88 aa b9
       0.03335634 -0.07049742 -0.014021667 -0.00032526333
000070 d8 05 26 bd cf cc 8e 3d ee 8b 24 3b 74 47 e6 bc
       -0.040532917 0.06972658 0.0025107819 -0.028110243
000080 b8 00 e4 be 31 58 22 bd 24 b8 b1 bc 58 4b 13 3e
       -0.44531798 -0.039634887 -0.02169425 0.1438421
000090 21 5a 97 3d 31 4e ec 3d fb 74 de 3c 69 02 97 3c
       0.073902376 0.11538351 0.02715539 0.018433766
0000a0 be af 22 bd 74 e9 a2 bd 31 fe 7a bb bc 2a 43 3c
       -0.039718382 -0.07954684 -0.0038298483 0.011912044
0000b0 76 c0 2d be 7b e3 57 3d 0c b6 6c 3c 7e 77 43 bd
       -0.1696795 0.052707177 0.0144477 -0.04772138
0000c0 e7 e6 06 3d 0c ca 43 bc 82 e4 1b bb ed 93 f9 3c
       0.03293505 -0.011950027 -0.0023787324 0.030466044
0000d0 cb cd 03 3c 24 8c e5 bd 72 b3 fd bd 8d 57 31 3a
       0.00804467 -0.1120837 -0.12387742 0.000676506
0000e0 6c 6a 26 3c 02 1b e8 bc 02 5c c9 3c 04 41 e2 3b
       0.010157209 -0.02833319 0.024580006 0.006904723
0000f0 1c b3 b2 3c af 87 1e 3d 73 53 d2 3a fe 25 65 3c
       0.021813922 0.038703617 0.0016046598 0.013986109
000100 ee 0e 03 3d 35 fe b5 3e 65 cc 0f 3d 45 62 76 3b
       0.03199666 0.35545507 0.035107035 0.0037595194
000110 3c 08 12 3d 65 69 87 3c 7a 14 f3 3b ef e9 25 3c
       0.035652384 0.016529748 0.0074182125 0.010126575
000120 3d 45 8a bd ec 14 2f 3d a7 80 02 3c 90 7b 02 3d
       -0.067514874 0.042744562 0.007965243 0.03185612
000130 f9 d6 90 3c fb b0 82 3c d7 ff 0a be 07 2f 60 bd
       0.017680632 0.015953531 -0.13574158 -0.05473235
000140 1b 48 95 bd ff 14 88 39 d8 80 f3 bd 9b 7d c1 bb
       -0.07289144 0.00025955585 -0.11889809 -0.005904866
000150 de 76 4a 3d b9 bc bb b9 0b 36 aa 3c 70 e9 6b bd
       0.049429767 -0.0003580803 0.020777723 -0.05759567
000160 c8 a2 10 3c f6 00 8b 3c fd 87 9f bc ab da 4d 3a
       0.008827873 0.016968232 -0.019474024 0.00078527135
000170 53 cb 4a 3b 9b af fb 3c 10 ad f4 3c 56 af df 3d
       0.0030943945 0.030723384 0.029867679 0.109221146
000180 05 11 9f bc c7 15 e4 bc d4 ba 84 3c e0 f1 03 b8
       -0.019417295 -0.027842415 0.016202368 -3.1458098e-05
000190 93 75 a5 3c 13 12 99 3c 9e 54 82 3e 0c e3 35 3b
       0.020197665 0.018685376 0.25455183 0.0027753739
0001a0 b1 54 4a ba d6 9e 95 bc e8 0a 13 3d a0 b1 0a 3c
       -0.00077183085 -0.018264215 0.035899073 0.008465201
0001b0 d8 2d b7 3c 1e 33 1b 3d 76 46 85 bd 59 94 f8 bc
       0.022360727 0.037890546 -0.0650758 -0.030344175
0001c0 d5 90 2a 3c 54 b4 28 3c 1e f9 cb 3d 76 f5 8c 3c
       0.010410507 0.0102969 0.09959625 0.017206889
0001d0 8a de 35 3c 96 4f 04 bd f6 61 15 3d 50 81 d5 bb
       0.011100421 -0.03230246 0.036470376 -0.0065156594
0001e0 4c 06 1a ba f1 3f 96 3b 02 c9 d0 3c 9a 36 da 3c
       -0.0005875572 0.004585259 0.025486473 0.026637364
0001f0 80 a6 0b bd 96 7a 62 be 1b 73 d2 3a 35 66 d8 3c
       -0.034094334 -0.22117075 0.0016056033 0.026415924
000200 d3 f1 bb bd f6 3c d4 bc 71 4d 06 3d e9 92 de 3d
       -0.09176984 -0.025907975 0.032788698 0.10867865
000210 1d 3a 95 3c e3 bf 8b be 08 e0 62 3d 7e 56 e6 bb
       0.018216187 -0.27294835 0.055389434 -0.0070293536
000220 49 1e 80 3b 8a 30 01 3d 39 93 06 be 4f e1 9f bb
       0.0039098603 0.03154043 -0.13142098 -0.004879154
000230 30 93 ce bc 8c a0 38 3b ba c3 14 3e 8e cf 99 bc
       -0.025216669 0.0028171865 0.14527789 -0.018775728
000240 0b fe 82 bd 49 d3 ae 3a 7d 4c 1b be 7f 4d 16 be
       -0.06396111 0.0013338114 -0.15165897 -0.14678
000250 62 be 90 bb 5f 8b 1f be 06 c5 d6 3c 2b 32 bb bb
       -0.0044172266 -0.1558051 0.026216995 -0.0057127676
000260 91 a8 13 3c b6 53 40 3b a4 fc 3f 3d 55 58 5f bc
       0.009012357 0.002934677 0.046871796 -0.0136319
000270 ad fe 17 3c ba 92 24 3c 25 b0 15 3d b0 52 9c 3c
       0.009277028 0.010044748 0.036544938 0.019082397
000280 5e 68 7e 3c 1f 19 a9 3b e4 c9 b2 bb 7b de 7b 3c
       0.015527813 0.0051604654 -0.005456196 0.015372868
000290 d5 ea 47 3b 6a 24 15 bd 24 45 87 3d a5 27 ae 3c
       0.003050496 -0.03641168 0.066049844 0.021259138
0002a0 c8 1f 3e be d3 5f bd 3d 60 5d f4 3c 82 a8 0c 3d
       -0.18566811 0.09246793 0.02982968 0.03434039
0002b0 fb 64 29 3c cd 37 12 3e 4b 98 3b 3d 00 12 41 3c
       0.010339017 0.14279099 0.045799535 0.011784077
0002c0 9a 8c c2 bc 4e 41 be bd 04 18 f4 bd 8a 21 60 bc
       -0.023748685 -0.092898 -0.11918643 -0.013679871
0002d0 2e 79 56 3b 5f e8 ae 3b 17 ce 93 37 09 3c 45 3c
       0.0032726037 0.0053377594 1.7619734e-05 0.012038239
0002e0 6d 6e 8c bb 3e 18 ef bb 1c d8 9c bd 7c e9 3d 3c
       -0.0042856247 -0.007296591 -0.07658407 0.011591312
0002f0 ef c9 5b 3c 8a be f0 39 ce e2 1c bb 45 b4 f9 bc
       0.013414844 0.0004591833 -0.0023938897 -0.030481467
000300 89 ea 15 ba 29 ff d1 bd a1 6a d2 3a 29 17 08 3c
       -0.00057188474 -0.10253746 0.0016053506 0.008306303
000310 d0 18 a2 3c d2 80 db be 0d 08 9a 3c 44 95 b5 3c
       0.019787222 -0.4287172 0.018802667 0.022165902
000320 8d ab 3d 3e 26 d2 28 3c 7a a9 29 3c 00 7e f5 3a
       0.18522473 0.01030401 0.010355348 0.0018729568
000330 8a 6b b3 3c 4f 7d c2 bb b0 cd e0 3c 9a 6b 2b bb
       0.021901865 -0.005935348 0.02744183 -0.0026156665
000340 96 32 00 be 3e b8 44 bd 5c 34 98 bd fc 82 f7 bd
       -0.12519297 -0.04802727 -0.07431862 -0.1208553
000350 f7 d5 33 bd 40 71 c4 bb ba 63 d7 3c fd 7b 6f 3d
       -0.043905225 -0.0059949458 0.02629267 0.058467854
000360 3f e0 1f bb 49 f6 23 bc e2 5a 48 3d 34 2d a3 3c
       -0.0024395136 -0.010007449 0.048914798 0.019919015
000370 22 48 80 3c f5 d8 8a 3b 59 ee 19 be d8 05 65 3c
       0.015659396 0.004237289 -0.15032329 0.013978444
000380 25 0e 10 bd 35 d3 8d bd ae 3b 09 3e 7d cd 05 bb
       -0.03516974 -0.0692505 0.13401672 -0.002041667
000390 7c c7 af 3a 1f f9 3f 3d 3c ff 24 3e 63 c1 91 3c
       0.0013410891 0.04686844 0.16112989 0.01779241
0003a0 35 85 7d 3d 66 4b b9 bc 19 4a fd bd 33 90 15 3c
       0.061894614 -0.02261896 -0.12367649 0.009128618
0003b0 a9 77 32 3d 15 2c 03 be 78 c2 22 bc f0 46 32 be
       0.043571148 -0.12809785 -0.00993406 -0.17409873
0003c0 8d 78 e5 3c d1 a0 6e 3c e1 40 03 bd 4c 48 01 3d
       0.028011585 0.014564709 -0.032044295 0.03156309
0003d0 05 c5 c9 3d d9 4c 3c be 7c 61 8c 3c 18 d6 0e 3e
       0.098520316 -0.1838869 0.017136328 0.13948858
0003e0 08 c8 d8 3c c0 be 32 be bb 4d 09 3d e4 fe be 3b
       0.02646257 -0.17455578 0.033521395 0.005828725
0003f0 4b 71 1f bd e8 8a 70 3c 9e 05 2a 3d 14 ad d1 3b
       -0.038926404 0.014681555 0.041509263 0.0063988063

encoder.layers.0.conv.linear.bias f4 [16]
000000 c7 30 f2 3e 17 1d b2 bd 94 fb 54 be af 37 de bc
       0.4730284 -0.08696955 -0.20799094 -0.027126161
000010 98 81 55 bb 89 5c f7 bb a4 ee 6b 3e 7e db 68 bd
       -0.0032578465 -0.007548873 0.23040253 -0.05684995
000020 64 3a 3f 3e 80 c7 a5 3e 01 9a 9f 3d f4 b7 a8 3e
       0.18674618 0.3237877 0.07793046 0.32952845
000030 0c 36 84 bb 07 ba e7 bb 71 7a 8d 3e 67 62 65 3e
       -0.004034763 -0.0070717367 0.27632478 0.22400819

encoder.layers.0.conv_e.weight f4 [3703, 16]
000000 79 f4 cb 2f 10 e6 92 ba cb 57 a3 3b c0 ce 5a 3c
       3.7099193e-10 -0.001120748 0.004984831 0.013354957
000010 78 36 ca 3a 78 87 1d 3c 54 a2 da 3a f6 ad 04 3c
       0.001542761 0.009614818 0.0016680458 0.008098116
000020 7f 15 a5 b8 7e 70 26 bb 7f 94 9e bb 7a 4d 9b ba
       -7.871817e-05 -0.002539664 -0.0048394795 -0.0011848651
000030 96 26 7a 39 f6 6b dd 2b 5b 24 82 ba 6a 26 8c ad
       0.00023856232 1.573296e-12 -0.0009929048 -1.5933217e-11
000040 30 6c 39 31 79 45 56 bb b2 28 ac bc 6e 0e aa bc
       2.698254e-09 -0.0032695218 -0.021015499 -0.020758834
000050 09 13 ca 3c 68 26 da 3c fe 85 2e bb e4 9a fb 3c
       0.02466728 0.026629642 -0.0026630159 0.030713506
000060 ea 52 cf 3a 8a f9 83 bc 5f e4 d2 b9 1a ee 05 b7
       0.0015817557 -0.0161102 -0.0004022447 -7.982855e-06
000070 6b 66 aa bb c0 35 d2 2c 00 d9 4c bb 0f b9 2d ad
       -0.0052001975 5.9745264e-12 -0.0031257272 -9.875003e-12
000080 16 dc bd ae 5a 42 fa b9 af 1e 08 3c 09 e6 37 3b
       -8.63382e-11 -0.00047733152 0.008308097 0.0028060696
000090 bb e9 ec b9 72 4c d0 3b f7 13 d3 b8 7d 22 c9 3b
       -0.0004518757 0.0063567692 -0.00010064983 0.0061381445
0000a0 63 b0 ed 39 a3 be 12 3c 12 d4 38 bb 79 ca 1f ba
       0.0004533558 0.008956584 -0.0028202576 -0.00060955394
0000b0 f1 be a0 39 b7 34 28 ad e6 65 0f 3a d7 f0 b0 ac
       0.0003065984 -9.561399e-12 0.0005470201 -5.0289595e-12
0000c0 48 eb b2 b0 95 68 af 3a 4b 73 d5 3b d3 93 da 3b
       -1.3018076e-09 0.0013382608 0.006513988 0.006670454
0000d0 9c 09 51 bb 61 8d 99 3b cb 66 36 ba 57 d6 af 3b
       -0.0031896597 0.004686043 -0.00069580664 0.0053661275
0000e0 17 d0 53 3a a8 6a fc 3b 4a 03 40 bb cb 94 99 b8
       0.0008080019 0.007703144 -0.0029298835 -7.3233234e-05
0000f0 6f 7b 03 3b 11 c0 43 ac a0 34 b8 3a 7a 75 90 ac
       0.0020062586 -2.7817785e-12 0.0014053769 -4.1057687e-12
000100 0a 46 84 30 d7 eb 30 39 9f e2 66 bb 5e 7b 14 ba
       9.62417e-10 0.00016872525 -0.0035230292 -0.0005664135
000110 3e 81 7c 39 37 b1 4a 3b a4 87 d8 b9 c8 2a 9e 3b
       0.00024080739 0.0030928382 -0.0004129979 0.0048268773
000120 dd 40 12 3a 3b e8 da ba b7 cf ce ba 1e f7 ea 35
       0.00055791234 -0.001670129 -0.0015778457 1.7506279e-06
000130 e1 ec b7 b9 53 ad 22 ab 36 8e 3a 39 64 02 aa 2c
       -0.00035080969 -5.7794497e-13 0.0001779132 4.831956e-12
000140 c2 f0 37 30 eb 88 a4 39 24 1c 93 bb 24 35 4b ba
       6.691715e-10 0.0003138253 -0.0044894386 -0.0007751754
000150 9a ae bb ba 4f 41 ef 3b 08 0e 68 ba 44 4f d3 3b
       -0.0014319003 0.0073014866 -0.00088521885 0.006448658
000160 72 04 8b 3a 57 73 62 3a 63 f8 1c 3a 26 7a 29 3a
       0.0010606183 0.0008638403 0.000598794 0.000646504
000170 3b 43 6a b9 f3 fa 27 2d 28 cf 1b 3a 02 b8 e2 2c
       -0.00022341024 9.548573e-12 0.00059436494 6.4437353e-12
000180 97 61 79 30 22 0d 88 38 f8 cc 32 bb 06 83 2b bb
       9.0724356e-10 6.4874315e-05 -0.0027282815 -0.0026170625
000190 0c 42 2c ba c3 bd cd 3b 52 56 cb b9 10 7d 16 3c
       -0.0006571121 0.006278725 -0.0003878349 0.009185091
0001a0 73 0d 38 3a fc 18 ad 3a ac c4 93 ba 95 13 a5 b6
       0.0007021047 0.0013206298 -0.0011273823 -4.919663e-06
0001b0 5c 9e b1 b9 25 4b 7e ad 31 36 3e 39 2e e7 97 2a
       -0.00033878058 -1.4454914e-11 0.0001814 2.6983401e-13
0001c0 f7 4b e9 31 4f d5 04 3a 29 c1 e2 3a 09 40 9d ba
       6.7898287e-09 0.0005067186 0.0017299998 -0.0011997233
0001d0 18 2e b1 3a e4 0c ec 3b ca 23 74 3a e2 20 b0 3b
       0.0013517765 0.007203685 0.00093131943 0.0053750137
0001e0 33 5e eb b8 ff a6 8d 3b 40 7e 0f 3b 6e 63 a8 39
       -0.00011223219 0.004322886 0.002189532 0.00032117538
0001f0 86 06 00 39 81 65 50 ac b3 63 89 b8 70 ec 98 ac
       0.00012209461 -2.9614924e-12 -6.5512395e-05 -4.3463497e-12
000200 3a 7d 3a ad 92 7d a6 b9 b4 7f 26 3c af 74 28 3c
       -1.0600682e-11 -0.00031755544 0.010162283 0.010281726
000210 89 1d bf 39 85 bc 0e 3c 1a 0b e3 38 f3 5a 62 3b
       0.00036452364 0.008711939 0.00010826271 0.0034539073
000220 26 bb 90 ba d6 51 6a 3c 95 d8 e2 bb d6 0f f0 3a
       -0.0011042103 0.014301738 -0.0069227912 0.0018315266
000230 7f 1e 34 ba 00 47 41 ac d3 9a d9 39 c4 bf 11 2b
       -0.00068709994 -2.7466363e-12 0.00041504818 5.1780477e-13
000240 a7 08 e2 ae 53 83 17 3a 0c a3 41 3c 5d d9 d7 3b
       -1.0278827e-10 0.00057797617 0.011818659 0.006587191
000250 71 eb c4 b9 7f 95 16 3c 57 bf a9 3a e5 1a dc 3b
       -0.0003755945 0.009190916 0.00129507 0.0067170733
000260 f5 e5 9c b8 9b 43 49 3c dd 3c 93 bb a9 68 2e 3a
       -7.4814925e-05 0.012284185 -0.0044933395 0.0006653169
000270 0f 03 a0 b7 16 12 80 ac f7 46 b8 38 ac 35 45 ac
       -1.907491e-05 -3.6399867e-12 8.787022e-05 -2.8025178e-12
000280 95 4a 2d 2e 24 4c cd 39 4a 04 18 3b 41 14 73 3a
       3.9401888e-11 0.00039157376 0.0023195916 0.00092727324
000290 fc e9 01 b8 06 eb 26 3b 0e 01 bb 38 c5 fd f1 ba
       -3.097391e-05 0.0025469675 8.917051e-05 -0.001846247
0002a0 7f 53 43 3a 7d 6f 1b 3b 6f f0 4e bb dc ca 3b b8
       0.00074511016 0.0023717575 -0.0031576415 -4.47732e-05
0002b0 f9 0c 15 ba 8f 6c 09 ad 6a 91 bc 3a ec 77 0b ad
       -0.0005685832 -7.811653e-12 0.0014386598 -7.927863e-12
0002c0 ad 6e b2 31 1b ba 05 3b ff c4 7f bb e2 1c 75 bb
       5.193064e-09 0.0020405117 -0.003902733 -0.0037401249
0002d0 d1 c1 81 bb 4a 1c 6e 3c d7 52 40 3b f0 46 2c 3c
       -0.0039598723 0.014533112 0.0029346251 0.01051496
0002e0 74 e3 e7 3a 1d 51 4c bb 60 b7 e7 bb 34 8a f1 ba
       0.0017691688 -0.0031176277 -0.0070714206 -0.0018428029
0002f0 b1 d9 66 3b 5e 2e 4f ad a1 fb 4f 3b 5b b9 cf 2c
       0.003522497 -1.1776883e-11 0.0031735676 5.9038724e-12
000300 2f 1b 15 2d b4 03 82 39 30 3c 04 3c 69 f6 ab 3b
       8.475705e-12 0.0002479829 0.00807099 0.0052478802
000310 e5 41 58 39 7f 94 0e 3c 25 2f 0f b7 b8 35 bf 3a
       0.00020623913 0.008702396 -8.534441e-06 0.0014588153
000320 d8 fd fc 39 65 e1 b5 3b 65 84 73 bb 1a e0 48 39
       0.00048254314 0.0055505508 -0.003715777 0.0001915697
000330 65 f9 da 38 39 36 8f 2d 70 10 86 39 46 a4 9a 2d
       0.000104415034 1.6281297e-11 0.0002557072 1.7580725e-11
000340 db 18 89 b1 c2 38 49 3b 79 13 a4 bc 90 7a 81 bc
       -3.9900505e-09 0.0030703996 -0.020028817 -0.015805513
000350 c1 43 54 3c 8b c8 30 3c 2d 43 3a 3a 79 03 96 3c
       0.012955607 0.010790001 0.0007105347 0.018312203
000360 e4 c9 9d 3b 33 19 63 bc 76 81 b6 3a bd 93 c3 ba
       0.004815327 -0.013860988 0.001392408 -0.0014921349
000370 18 56 6c 3b c3 76 75 ab 2b 58 b6 3a ee 2f 42 ac
       0.0036062058 -8.72063e-13 0.0013911774 -2.7595664e-12
000380 80 90 25 2f c6 79 99 b9 8a be 78 bb dd 5b e1 ba
       1.5057999e-10 -0.00029273162 -0.0037955367 -0.0017193515
000390 94 74 b0 b9 e1 ef b8 3a f4 9f f4 b9 d5 88 ea 3b
       -0.00033656193 0.0014109575 -0.0004665848 0.007157425
0003a0 ed 6e 62 b9 ad a5 46 ba ed ab ad 3b 77 1a 5c 39
       -0.00021594363 -0.0007577788 0.005300036 0.00020990694
0003b0 bf 94 5b b9 4e 19 29 ad 42 92 8f b9 bd 01 df 2c
       -0.0002094088 -9.6121566e-12 -0.00027384056 6.338234e-12
0003c0 1e a6 9f 2d 50 3c c2 39 e0 ef f9 3a da 34 d5 3a
       1.8149978e-11 0.000370475 0.0019068681 0.0016266361
0003d0 16 a0 3c b9 ae 30 57 3b 2c 84 b3 39 d5 50 c8 3a
       -0.00017988714 0.0032835412 0.00034240016 0.0015282879
0003e0 76 34 f5 b9 23 9b 13 ba 25 b6 d8 ba 00 c4 32 3a
       -0.00046769128 -0.0005630722 -0.0016533775 0.00068193674
0003f0 51 40 21 3a c5 1b d3 ab 05 4a 2a 39 4f 65 a3 ad
       0.00061512465 -1.5000159e-12 0.00016240038 -1.8575945e-11

encoder.layers.0.conv_e.bias f4 [16]
000000 dd cd b9 32 0d 59 19 bd 7c 3f 67 3c ba 1a d9 3b
       2.163045e-08 -0.03743844 0.014114257 0.0066255005
000010 57 4e dd bb c3 85 9c 3f ca d3 41 be 84 b3 50 3e
       -0.0067537236 1.2228321 -0.18928447 0.2038098
000020 21 4a b1 bd 59 7d 1f 3c dd 1e 67 3d b9 bb fb bc
       -0.08656717 0.009734475 0.056425918 -0.030729162
000030 76 11 8c bd 34 ca b8 bb 0e 05 1b bd 81 c3 9c b9
       -0.06839268 -0.005639339 -0.037846617 -0.000299003

decoder.scale f4 [6]
000000 00 2f 89 bf 18 51 92 3f c7 34 e1 3f 12 49 ef 3f
       -1.0717468 1.1430998 1.7594231 1.8694174
000010 85 67 01 40 b9 87 04 40
       2.0219433 2.0707839

decoder.point f4 [6, 16]
000000 5c e3 d8 3e 65 50 3e bf d5 7a 1a be 79 66 2a 3e
       0.4236096 -0.7434142 -0.15085919 0.16640653
000010 1a 05 2d bf e5 f4 01 3f 76 26 a0 3d d5 3c 52 bf
       -0.6758591 0.50764304 0.07819836 -0.8212407
000020 34 51 72 3f a5 07 11 3f 88 69 ce 3e 88 81 8f 3e
       0.94655156 0.5665229 0.4031489 0.28028512
000030 bb 29 4b be fe b0 5b bf 16 cc 55 3f aa 0e da 3e
       -0.19840138 -0.85816944 0.83514535 0.42589313
000040 e1 3f c6 3d 7e 81 14 be 36 2f 73 3d 66 16 07 be
       0.09680153 -0.14502522 0.059371196 -0.13192138
000050 b5 0d 0b 3e 3b 66 1d 3d 67 b6 13 3e d3 3d 0c 3e
       0.13579448 0.038427573 0.1442505 0.13695459
000060 1a 92 3b 3e 54 e2 5a bd 80 be 3d be 35 da 5f 3e
       0.18317452 -0.0534385 -0.18529701 0.21860583
000070 b8 b8 67 bb 70 a0 12 3c 2d 52 75 3d f8 75 3a 3d
       -0.0035357904 0.008949384 0.059892822 0.04552266
000080 ac 85 16 3e 61 8a 53 bd 27 3f 1f 3e bd 17 57 bd
       0.1469943 -0.05164564 0.15551434 -0.052512873
000090 9a 11 b8 3c 9a ab 13 3d 1a cb 79 bd 6d 04 77 3d
       0.02246933 0.036052324 -0.06098471 0.060306955
0000a0 58 bc 93 bd 0b 60 34 3e 8e 0b e6 3d 41 30 7c 3e
       -0.07213658 0.17614762 0.11232673 0.24627782
0000b0 dc 25 ed 3d 16 ca dd 3c 18 9a 3a 3e 01 4d 31 3e
       0.11579487 0.027073901 0.18222845 0.17314531
0000c0 fa fe c6 3d bc 8f 9f bc 73 9e 87 bc 2e 8a 1f be
       0.09716602 -0.019477718 -0.016555047 -0.15580055
0000d0 65 8d 8d 3a 77 93 44 3e 5d 76 8c 3e 3b 3c 45 b9
       0.0010799585 0.19196878 0.27434054 -0.00018809822
0000e0 6d df c8 3c f5 0b aa 3c df 87 9b be 76 be 92 3e
       0.0245206 0.020757655 -0.303771 0.28660935
0000f0 e6 fd 96 39 d5 30 a8 3a b4 64 26 3e 41 f6 ff 3d
       0.000287994 0.0012831936 0.16249353 0.12498141
000100 ad e2 f7 3d ca a4 18 be 18 91 35 3e 5c bb 86 3b
       0.12103782 -0.14906612 0.1773113 0.0041116904
000110 9e a1 0e bd ea a4 dc bd fa 9e aa 3e 4b cb 41 be
       -0.0348221 -0.10773642 0.33324414 -0.18925206
000120 50 db 80 bc a4 ce d4 3c be a7 b4 bd 85 6a 19 3e
       -0.015729576 0.02597744 -0.08821057 0.1498204
000130 51 29 07 be 7f 7c a4 b8 19 dd 17 3e f4 8f 71 bd
       -0.13199355 -7.8433186e-05 0.14830436 -0.058975175
000140 0e 86 e9 3d d8 c0 be bd b9 f0 ff bd 5c 8a dc bc
       0.11402522 -0.09314126 -0.12497086 -0.026921444
000150 ad 7a 07 bd ab 02 0f 3d 9c f9 8c bc 7f b4 26 bc
       -0.033075977 0.034914654 -0.017208867 -0.01017487
000160 73 23 e0 bd 10 09 92 3e dc 74 56 3d 5b f6 03 3e
       -0.109442614 0.2852254 0.05235754 0.12886946
000170 d7 96 25 3d 94 65 87 3d b0 f6 7f 3d 99 1d 4e bc
       0.040427055 0.06611171 0.06249112 -0.012580299

decoder.tangent f4 [6, 16]
000000 6a 66 1e 3f 7f 4c 1c 3f ec fc f6 bd 9e 67 0c 3e
       0.6187502 0.61054224 -0.1205996 0.13711402
000010 0b 24 9b be 6c 5f d8 3e 67 a7 04 3d be 01 97 be
       -0.30300936 0.422603 0.03238621 -0.29493517
000020 6d dc 9c 3e 81 66 b2 3e 50 c4 08 3e 2c c9 b9 3e
       0.30636922 0.3484383 0.13356137 0.36286294
000030 c6 9a 9c bd 6e 14 b7 bd 32 b5 c6 3e 47 1e 82 3e
       -0.07646708 -0.089394435 0.38810116 0.25413725
000040 8d 59 1c 3f c1 98 2b 3e ab f4 8e bd af ec 38 3e
       0.61074144 0.1675749 -0.069802605 0.18059038
000050 21 2e 25 be 60 39 a2 3d a6 05 4e bd 00 2e 55 be
       -0.16130878 0.079211 -0.050298356 -0.20818329
000060 5a d9 8a 3e a7 a9 40 3e 73 8c 8b 3e da f9 69 3c
       0.2711895 0.18814717 0.27255592 0.014280761
000070 c9 85 ed ba 41 50 0e 3c a1 15 ee be ad 60 e4 bc
       -0.0018121536 0.008686126 -0.46500877 -0.02787813
000080 28 4b 13 bf 0c eb ec bd dc 72 1d be 40 44 f3 3d
       -0.57536554 -0.11568269 -0.15375847 0.11878252
000090 7c f3 3d 3d cd 60 93 bc a2 ae 05 3f 7f 1b 94 3d
       0.046374783 -0.017990494 0.52219594 0.07231807
0000a0 bb f7 86 3e 9b dc 1b bd 9b 6f 7b bd df ae f0 3e
       0.26360878 -0.038052183 -0.061385732 0.47008416
0000b0 03 dd 07 3e 6a 91 bd 3d 56 a3 ee be f4 90 bf bb
       0.13267903 0.09256251 -0.4660899 -0.005846137
0000c0 c4 6f 7a be f4 cd cf bb f9 6b 86 bd 9b f8 47 be
       -0.24456698 -0.00634169 -0.06563563 -0.19528429
0000d0 b1 8a 9c 3a a3 41 0b 3e c1 2c f3 be 35 3d 52 b9
       0.0011943189 0.13599257 -0.47495082 -0.00020049962
0000e0 dd fe dd 3e 1e 57 fb be 97 a1 94 3e a3 dd 27 3e
       0.43358508 -0.49089903 0.29029533 0.16393141
0000f0 80 25 8a 3c ce af 8e 3a 0e 04 f3 3d 8d ff 06 3f
       0.016863585 0.0010886134 0.11866008 0.5273369
000100 2e 24 44 3e 89 87 8a 3e 37 11 1f 3e 3c 79 17 ba
       0.19154426 0.2705653 0.1553391 -0.0005778258
000110 17 6f 2f be fc 6d 0f be 30 53 d0 3d 47 76 3c be
       -0.17132221 -0.140068 0.10172117 -0.18404494
000120 16 b4 a8 be 44 43 de 3e be 73 22 3f 76 0b 47 bd
       -0.32949895 0.43410695 0.6345786 -0.048594914
000130 ef cc c6 bd c3 27 c7 b8 5f 8f 2c 3f cd 68 be be
       -0.09707057 -9.496466e-05 0.67406267 -0.37189332
000140 63 cd 19 be f9 59 a7 3d d3 a3 08 be 82 58 62 3d
       -0.15019755 0.08171458 -0.13343744 0.05526019
000150 91 96 69 3c fe 48 26 3c 4e d0 34 3e 3e 7c 74 3c
       0.014257089 0.010149239 0.17657587 0.0149222
000160 7d 49 af be d7 a5 b8 be 09 a5 9f bf a4 b3 81 be
       -0.34235755 -0.36064026 -1.247224 -0.25332367
000170 1d a5 1d 3d 5c f9 7e bd ee 29 25 3f 70 6e 89 3d
       0.038487542 -0.062249526 0.64517105 0.067105174

decoder.cls.weight f4 [16, 6]
000000 5a 1b d4 34 f4 a9 11 b5 f2 aa 5c b6 0f cb 0a b5
       3.9507978e-07 -5.4264024e-07 -3.2882058e-06 -5.1704495e-07
000010 71 25 76 35 b0 91 cc 35 04 00 5e be 70 ae 8b bc
       9.1696626e-07 1.5241585e-06 -0.21679693 -0.017050952
000020 32 33 4a be ed e0 00 3f 6b 59 ca 3e b7 6c 1c be
       -0.19746092 0.5034321 0.39521345 -0.15275846
000030 46 73 1a be 57 8e a4 bd a4 9d 6a 3e ac 9a 1c 3f
       -0.15083036 -0.08034962 0.22911698 0.6117351
000040 68 52 b2 be a4 df 85 bd 22 ae a8 bd 2c ef ff 3c
       -0.34828496 -0.06536797 -0.08236338 0.031241976
000050 7c 08 70 3e 43 d2 e1 3e b4 8e 9f be 9c a9 96 bc
       0.23440737 0.4410573 -0.3116356 -0.018391423
000060 22 36 f8 bd 5c 36 99 3e 84 cb 71 bd 22 98 59 3e
       -0.121197 0.29924285 -0.05903198 0.2124944
000070 34 39 4c be c3 2f a1 3e 9b 80 d1 3f 4e aa 42 bf
       -0.19943696 0.31481752 1.6367372 -0.76041114
000080 2b 50 31 bf ad 9a 7a 3e ee a5 f4 3e 16 d0 82 3f
       -0.6926295 0.24473067 0.47782844 1.0219753
000090 55 c5 14 be 53 40 1b 3f de 1a 1a 3e 42 c6 4b 3e
       -0.14528401 0.60645026 0.15049312 0.19899848
0000a0 80 74 b2 bd 3f f8 55 3e da 59 af 3e bd d0 c0 be
       -0.08713627 0.2089548 0.3424824 -0.37659255
0000b0 be 28 5c be a0 30 16 be 01 23 a9 3e 91 6d 56 3e
       -0.21499917 -0.14666986 0.33034518 0.20940234
0000c0 d2 4b 20 be e1 04 56 3d 98 1f 27 be 18 87 fd 3e
       -0.15653923 0.052250747 -0.16320646 0.4951713
0000d0 e6 fd fe bd e7 8e 04 3e 14 68 2d be b2 e9 06 3e
       -0.12450771 0.12945138 -0.16934234 0.13175085
0000e0 4a 51 7f 3e c7 be 33 3f fd ce a0 be 7e bd 0f be
       0.24933353 0.7021298 -0.3140792 -0.1403713
0000f0 3f ec 15 be d2 0c f4 3c bc 31 1e be 16 90 4f be
       -0.14640902 0.02979127 -0.1544866 -0.20269808
000100 b0 95 89 3d 81 59 ee 3e 68 0c 8a bd e9 ac 34 3e
       0.06718004 0.4655266 -0.067406476 0.17644085
000110 3b 0a 1e 3e 27 f9 80 be 6f 43 5b 3e 42 b6 ac bd
       0.1543359 -0.25190088 0.21412443 -0.084332004
000120 e3 28 57 be 6f 84 52 bd 77 7e a9 be 2a c0 c8 3e
       -0.21011691 -0.05139583 -0.33104298 0.3920911
000130 5a 8f 9f 3e 79 19 34 3e bc 76 29 30 ef 00 7c ac
       0.31164056 0.17587842 6.1650574e-10 -3.5811872e-12
000140 f0 5a 09 2f dd 4c 9d ad da 75 5b af 53 b1 70 af
       1.2492385e-10 -1.7882968e-11 -1.9959803e-10 -2.1890871e-10
000150 00 92 4a be bf e8 bf bc c0 6c bb be b3 49 d0 3b
       -0.19782257 -0.023426412 -0.36606407 0.006356442
000160 43 e2 ff 3e 16 d3 86 3e 67 3b 1c ae 04 33 74 af
       0.49977311 0.2633292 -3.5523053e-11 -2.2209795e-10
000170 b1 e2 92 ae e0 e6 e2 af 6d 67 3a 2f 9d 83 86 2e
       -6.67958e-11 -4.1273207e-10 1.6953346e-10 6.116994e-11

decoder.cls.bias f4 [6]
000000 28 30 4f be 8d 48 d4 3d d8 e6 5d bd c1 ce ff 3d
       -0.20233214 0.103654005 -0.054175228 0.12490607
000010 3f c5 77 3e 7a 01 43 3e
       0.24196337 0.19043532

decoder.w_e.weight f4 [1, 16]
000000 53 11 a2 36 09 c0 ba bd 55 8a 6d bd ef c3 b6 bd
       4.829993e-06 -0.09118659 -0.05799325 -0.0892409
000010 c9 79 31 be 0e 8d 7a be 80 30 62 be 07 96 82 3e
       -0.17331614 -0.2446787 -0.22088814 0.25505087
000020 29 49 a8 bd d4 a4 00 be c8 ad 56 bd 9d 5a 41 bd
       -0.08217079 -0.12562877 -0.052411824 -0.047205556
000030 e1 07 a9 bd 4d 9e 5f ae 2c b8 e8 bd 9a 47 dd ac
       -0.08253456 -5.084493e-11 -0.11363253 -6.289147e-12

decoder.w_h.weight f4 [1, 16]
000000 b6 a3 b7 be 4d 8b c3 b5 cd bc 82 3b 92 18 8c 31
       -0.3586709 -1.4569174e-06 0.003989792 4.0773296e-09
000010 ed 1e 28 2f 3b 31 56 bf 06 01 0c bf 69 fe 32 b1
       1.5290498e-10 -0.8366887 -0.5468906 -2.6047025e-09
000020 2a 31 0f bf c0 e1 07 bf 4f 06 2f bf 0a 14 a4 be
       -0.55934393 -0.5307884 -0.68369 -0.3204654
000030 5b 94 9c 2f a0 d8 5b ad c8 f9 85 be f2 eb 13 bf
       2.8481648e-10 -1.2496809e-11 -0.2616713 -0.577819
