logs/nc/2020_1_18/9/model.pth (torch_old, 133505 bytes, 15 tensors)

encoder.layers.0.hy_linear.bias f4 [16]
00000000: 77be 3ebf 29d5 c5bc 0f84 b1bf 6232 21bf
00000010: 6417 d43d 0ab5 25bd 32d5 11be b79d 213d
00000020: 1fe4 13be 80aa b1bd 5be7 e7bc b55d 0f40
00000030: 150a f53e fb99 9bbf 6fe5 fbba 0d1b d3bc
-0.74509376 -0.024149494 -1.3868426 -0.62967503 0.10356024 -0.040455855 -0.14241484 0.03945705
-0.1444249 -0.086750984 -0.028308561 2.2400944 0.47859254 -1.2156366 -0.0019218157 -0.025769735

encoder.layers.0.hy_linear.weight f4 [16, 1000]
00000000: 3210 02bc 515b 9039 9ee9 193c 2299 a33b
00000010: a55f 84b9 fbd5 ca3b ebc1 99bb 599e 073b
00000020: e22b 953c c510 94bb 2c21 ffbb 11dd adbb
00000030: 9c92 1f3c faf7 b2ba cc9d a7bb 1f8d b03b
00000040: f2ca feb9 da4e d93c e4f6 063b 9986 bb37
00000050: d61d 2dbb 309c a03c 91e1 86bb 5b9e e03b
00000060: 118b 123c 3867 4b3c 1b78 16bb 40b8 293c
00000070: 1f33 5f3c f9b0 06ba 3deb 7c3c 792b 31bb
00000080: 0c39 ebb8 f6c6 933c 175c ef3b 2713 c83b
00000090: a2e5 57bc 83e5 483b ec11 b8bb e3d3 0bba
000000a0: 6196 923b 7a88 683c 0d08 95bb 6f8c 2a3c
000000b0: 292f 3a3c 04d3 703c ab09 8eba ff81 d83b
000000c0: d6bb 183c 2b60 b33c 11ed 18bc 77c1 d73c
000000d0: 6e28 893b 6328 233d 2cbf 09bc 5044 023a
000000e0: 2988 4a3b 829b 6e3c 203b 973a d364 f83c
000000f0: 35dd 0cbc f1ff 9239 765e d23b d382 3e3c
00000100: 013b 933c 1777 923c 0482 e53b 6cff 453c
00000110: 1826 853a 47d8 b6bb 5b5e 133b afbe 393c
00000120: 9d88 4d3b 5636 403c cd0d 933c 4f07 0dbb
00000130: 0b49 003c 1db7 00bc af43 923b 0459 6a3b
00000140: e968 11bc d9af 0b3d 0539 193c 8e22 173c
00000150: e47c 863b a10a ae3c d4ed 853c b2ac e0bb
00000160: a3d2 b13c 67ae 0fbb c7d4 db3c 589c c4bb
00000170: 41c5 203c d7b6 bc3a 4857 833c a363 cf3b
00000180: 2ff3 003c 0494 283c a045 9a3b 6b8f 953c
00000190: f789 303a b2d5 563c 341d bc3c 1562 d63b
000001a0: 528b 9d3b 46a4 a33a 51fe 53ba 04c9 ac3c
000001b0: e1b6 a33b 497f 8aba 6f10 ee3a 0ab6 063c
000001c0: f2d8 65bb a421 043c 372a 343c bff0 323c
000001d0: ad75 cabb 7caa dc3b 5cbb 9d3a a6aa 4e3c
000001e0: 726d 7b3c f395 a6bb 855d 2bbc ac58 013c
000001f0: ed50 0b3c e81b 05bb 8f3b 113b 356b d73b
00000200: e115 10bc 3c01 8cba 68fa be3a 6ee1 363b
00000210: 6169 813b 1b19 833c 8195 893c d4bf f63a
00000220: d258 233a 8ecc 0bbc 8673 ed3b ff57 6abc
00000230: aece 1bba 83c9 4a3b ac89 723c 9955 233b
00000240: bf03 f13b f6cd 4c3b 002b f23c 664d 313c
00000250: 4325 6b3c d241 523b 2ac8 cf38 a851 69bb
00000260: 237e a83c b51f e73b 3462 453c 64c9 9e3b
00000270: 66c9 663c 51ae 133c de6f bfbb 5162 b33c
00000280: c17c 4b3c 18fb c2bb 7a40 85bc d0a2 733c
00000290: 9a2a 353c 1fc9 223c 38ee c63c 27a6 663c
000002a0: 1fe6 253b ba19 913b 5382 3fbc 11f1 8ebb
000002b0: c974 603c 72c7 f93b 0101 ff3b e92c 2d3a
000002c0: 9f6b 743b 50cc 1f3b 2f37 b33c 9c3c ac3b
000002d0: a9db 02bc 6596 4ebc 0484 8c3b 21af 063c
000002e0: e783 493c 3f51 7b3c 629a 783c 88fa a03b
000002f0: de9f 823c f21b 583c ae4d d7bb f84b d03b
00000300: b573 0abc ef8e d73b 356c 5bbb d565 823c
00000310: 2c1b a03c bc7a a0bb 880a 1e3c 98c9 0cbc
00000320: 07cf f23a 3d08 813b a6a1 17bb 8f75 cbba
00000330: 1fed 523c c0b6 943b 4438 2aba 930c 883c
00000340: 5795 59bb e81a ab3b f2b1 063b c3b1 b739
00000350: 4dc4 82bb d2d1 b53b d3d6 7b3b c91b f4bb
00000360: c191 3339 56e8 153c 777a aa3c 1538 ba3b
00000370: b265 233c 1181 333c 6036 e63c b741 d23b
00000380: 3edf af3b c44c f3bb 3f03 883b df4d 213d
00000390: 280c c93c 6c6d ac3b e043 643b 98e3 1539
000003a0: ab95 70bc a681 f8b9 e152 e53b 42c9 56bc
000003b0: 5fdc 753c 0bcf d2bb a909 1b3c 785a c9ba
000003c0: 4afb 1dba 88df b53b 5762 0c3c 5a7f 963c
000003d0: 4158 183c 4e33 b23c 136b 8abb dc2d be3b
000003e0: a7ad 6f3c 636e 1a3c e985 98bb da37 20bb
000003f0: 4787 9d3b 74c8 c03b 3977 e03b 3910 863b
-0.007938432 0.00027533856 0.009394078 0.00499262 -0.00025248263 0.0061900592 -0.0046923063 0.0020693748
0.018209402 -0.0045186006 -0.007785937 -0.005305894 0.009739544 -0.0013654225 -0.0051152464 0.0053879167
-0.0004859786 0.026526857 0.0020593936 2.2354814e-05 -0.0026415489 0.019605726 -0.004116245 0.006854815
0.008944289 0.012414746 -0.0022959772 0.01035887 0.013623028 -0.00051380653 0.015436945 -0.0027033968
-0.00011216299 0.018039208 0.007304679 0.0061057988 -0.013177307 0.0030654378 -0.005617371 -0.0005334003
0.004473493 0.014192695 -0.004548079 0.010409459 0.011363783 0.014698748 -0.0010836622 0.0066072936
0.009322127 0.021896442 -0.009333865 0.026337368 0.004185728 0.039833438 -0.008407395 0.0004969286
0.0030903912 0.014563443 0.0011538006 0.030321514 -0.008597662 0.0002803798 0.006419952 0.011627871
0.017972471 0.017879052 0.0070040245 0.012084823 0.0010158448 -0.0055799815 0.002248666 0.011336966
0.0031361945 0.011731705 0.017950917 -0.002151925 0.007829915 -0.007856158 0.004463635 0.0035758624
-0.00887511 0.03410325 0.009351973 0.009224547 0.0041042436 0.021245303 0.016348757 -0.0068565244
0.021706885 -0.002192402 0.026834859 -0.006000083 0.009812654 0.0014397752 0.01603283 0.0063290163
0.0078704795 0.010289196 0.004708007 0.018256864 0.00067344256 0.013112472 0.022963144 0.006542454
0.004807868 0.001248487 -0.00080869073 0.021091945 0.004996166 -0.0010566498 0.0018162857 0.008222112
-0.0035071936 0.008064661 0.010996393 0.010921656 -0.006178579 0.0067341905 0.0012033987 0.012613928
0.015345918 -0.0050837933 -0.0104593085 0.007894676 0.008503181 -0.0020310823 0.0022160744 0.0065740594
-0.008794279 -0.001068152 0.0014570476 0.0027905363 0.0039493297 0.016003182 0.016794922 0.001882548
0.0006231192 -0.008532656 0.0072464375 -0.0143032065 -0.00059435784 0.0030942864 0.014803331 0.0024922846
0.007355183 0.0031250692 0.02956152 0.010821676 0.014352146 0.003208269 9.907813e-05 -0.003560165
0.02056796 0.0070533403 0.012047339 0.004845785 0.014086103 0.009013728 -0.005842193 0.021897467
0.01241988 -0.005950343 -0.016266096 0.0148703605 0.01105752 0.009935646 0.024283513 0.0140777
0.0025314165 0.0044281157 -0.011688787 -0.0043622334 0.013699719 0.0076226527 0.007782102 0.00066061184
0.0037295592 0.0024383254 0.0218769 0.0052562486 -0.007986941 -0.012609099 0.0042881984 0.008220465
0.012299514 0.015339195 0.0151735265 0.004912678 0.015945371 0.013190256 -0.0065705394 0.0063567124
-0.008450438 0.0065783183 -0.0033481244 0.015917698 0.019544207 -0.0048974436 0.0096460655 -0.008592986
0.0018524834 0.0039377497 -0.0023137121 -0.0015522706 0.012873917 0.004538387 -0.00064933696 0.016607558
-0.0033200586 0.0052217133 0.002055284 0.00035036923 -0.003990686 0.005548694 0.0038427606 -0.0074496013
0.00017125068 0.0091496315 0.020810349 0.005682955 0.0099729765 0.010956065 0.0281021 0.006416525
0.0053671887 -0.0074249227 0.0041507776 0.039380904 0.02454193 0.0052620675 0.0034830496 0.00014294533
-0.014684121 -0.00047398842 0.0069984053 -0.013109507 0.015006154 -0.006433373 0.009462752 -0.0015362045
-0.00060265197 0.0055503286 0.008568368 0.018371273 0.009298385 0.02175298 -0.00422419 0.0058038067
0.014628804 0.009425732 -0.004654635 -0.0024447353 0.004807386 0.005883271 0.00685015 0.0040912894

encoder.layers.0.conv.att f4 [1, 1, 32]
00000000: 7a8d 0cbe 1903 3abc e0a0 84bd 5e9c d13e
00000010: aecc e2bd 79cf 62be 3f70 533e d43e 40bd
00000020: e8cd 1dbf 363d 5c3a f92c ddbe b6d6 f8bd
00000030: a143 e1bd 3900 143f 3b25 3abd 61b9 8d3e
00000040: 1178 15be f54e 7bbc 038f 88bd 6060 9e3f
00000050: cd37 f2bd e3e8 93be 58a1 613f e017 e53e
00000060: 5cb6 bebf 7793 833a 7ffb 13bf e473 0abe
00000070: d30d f9bd 4b8a d33f e448 2d3f 0c14 6b3f
-0.13725844 -0.011353278 -0.06475997 0.4093961 -0.11074196 -0.22149457 0.20648287 -0.046934918
-0.61642313 0.0008401455 -0.43198374 -0.12150328 -0.10999227 0.5781284 -0.045445662 0.27680495
-0.14596583 -0.015338649 -0.06667902 1.2373161 -0.118270494 -0.28888616 0.88136816 0.44744778
-1.4899402 0.0010038455 -0.5780563 -0.13520771 -0.1216084 1.6526579 0.6768935 0.91827464

encoder.layers.0.conv.bias f4 [16]
00000000: c800 2a3e 4ffd 0cbc 66d7 c33d 6d4e 333d
00000010: 66a3 1f3e 3781 2f3f 97a1 2a3e 32d1 283f
00000020: 1c91 4f3e 3308 a6bb 9040 523e f8d9 db3d
00000030: de78 283e 7895 af3d 4d71 693f 22f7 5d3d
0.1660186 -0.008605315 0.09562568 0.043775965 0.15589675 0.6855654 0.16663204 0.65944207
0.20270199 -0.0050668954 0.20532441 0.107349336 0.16452357 0.08573431 0.9118851 0.054190762

encoder.layers.0.conv.linear.weight f4 [16, 16]
00000000: 4094 693d 0dc4 9e3d 6050 ba3d 8727 4e3d
00000010: 7598 cdbc c731 823d 8ee7 063d 2f96 cabc
00000020: 9033 b33c d929 543d 5006 453d d090 febd
00000030: ec48 25bd 891c a63d 2da0 d43a 3bbe 1f3d
00000040: 27e7 a6b8 428f 353c e7dc 703a bed8 a8b9
00000050: 15ec 92ba 53f8 263c 602c f43a 3418 bfbb
00000060: 0dc7 8c3a a21d bb3b ddc5 c03b f14b 5ebb
00000070: 1919 233a 4001 ed36 a796 a7ba cf5f b23b
00000080: 33e7 363d b9fb f23c 79a8 963d 2596 263d
00000090: 14ad 90bc c4bc b63c 1d02 a83c 2986 ecba
000000a0: cbe6 3c3c 76d0 ad3c 3668 bd3c f422 e2bd
000000b0: 1609 0dbd af87 833d 3783 e73b f7ef 883c
000000c0: 1014 26bd 5b71 23bf 3086 67bd b3bf 72bb
000000d0: bdc2 49be f983 4bbf 97a7 f13a 812f 383f
000000e0: 6508 9dbe edc4 55bf 35ed ccbc 0de3 6e3d
000000f0: 4122 24bd 2ef3 5ebd 9ba9 473f c4c9 9f3c
00000100: 9bac 793d b360 623d 91e3 c83d 4a2b 5f3d
00000110: 1c9e bbbc 1f26 2d3d 9723 e03c a28a 84bc
00000120: 492a 873c 2d3e 0f3d 6562 143d fdef 0cbe
00000130: 4c6f 37bd 8eaf b03d 8e0a a93b ae21 e73c
00000140: d7ad 383d cc38 b23e f4dc a53c a362 723d
00000150: 7b17 12be 91e6 b23e 7688 1b3e da82 c2bd
00000160: ef42 0d3d 3c94 d4bb 3783 aa3e a0c3 89bb
00000170: 2c13 9abd ee4c cd3c ee2e 693d 8104 713e
00000180: 1f5b 4cbc b357 bdbe 0445 40bd 0229 703d
00000190: 109c 38be 5483 f0be de94 e33c 93d5 e63e
000001a0: 79d8 87be 7875 11bf 6f8d babb d092 083d
000001b0: a53f d7bd 593b 7abc e982 053f c575 0e3d
000001c0: 03c4 813d df89 61be 19d4 2f3d c49f c83d
000001d0: 1215 9bbe 7924 b2be 8a93 0e3e f21c d23e
000001e0: 4a45 60be 6752 17bf f0c8 223e e8c4 44bd
000001f0: 56f7 19be 44f2 4e3d 9b52 253f b8ea 103e
00000200: 79ac 423d 1422 993f 4bb7 e43b ffc6 5f3d
00000210: ed23 2ebc 3ec5 a73f 911a 3d3e b61b 79bf
00000220: 171b 8e3e a1df 713f 44c0 a13e e28f 503d
00000230: a318 74bd 5b21 503c 0846 2fbf 750c 883e
00000240: cc84 e1b9 651e 3fba 76de ebb9 108d ceb9
00000250: 060d 8639 4145 5aba 473f bcb9 6755 cb39
00000260: cf75 85b9 9f9b 31ba d5f2 c6b9 5c94 36ba
00000270: bb22 ba39 3883 03ba c1fe 2039 3565 b0b9
00000280: f1b9 dd3d f14a 993e 52cb 103e 7f7d d23d
00000290: cf47 80bd bb10 8d3e 449f ef3d 6e4d 32be
000002a0: 764c a53d df12 fd3d a506 323e b54e 37be
000002b0: 9ea9 bdbd c2ea 033e b156 68bd 9e4c 093e
000002c0: a2a8 3c3d 87d7 a03d d12f a93d a845 233d
000002d0: 14f2 9fbc 48b6 813d 493a c93c df5d 0bbd
000002e0: ba77 593c cbe5 233d 0f29 433d eb61 03be
000002f0: ac77 f8bc a326 913d 5e76 853a 2ad0 0f3d
00000300: 3fe6 5d3d 46f6 7e3d 1a7d a33d 0874 453d
00000310: d250 90bc ceb0 4f3d 593c c33c 118c acbc
00000320: 4dbc 543c c767 253d ccdd 1c3d 206a d1bd
00000330: 2e75 1ebd a1d3 953d 21bb e83a 53b8 f33c
00000340: 75ba 543b f703 6fbf 9ca9 ecbc b685 013d
00000350: 43b1 87be 5d34 94bf 9d9c 023d 429d 823f
00000360: 8c66 dbbe e565 97bf e3c0 80bd ec4c 9f3d
00000370: bcea dabd 8a33 31bd 177a 8b3f 031a c33c
00000380: 39b9 b93d e7ef a6be 47ec 813d 8bd4 073e
00000390: 8928 e4be cc22 0fbf 5e48 4c3e bd81 2a3f
000003a0: 8a34 a0be 6939 72bf fd04 833e 5ce7 59bd
000003b0: 86d0 49be 0064 8b3d c60d 863f 33bd 603e
000003c0: 32ba 04bc d35c e0be e368 a8bc 0ffa 5c3c
000003d0: 56b4 14be 9aca 09bf 1aa6 4a3c 261f f43e
000003e0: b530 6dbe f2d0 10bf bebe 13bd 8e55 363d
000003f0: 4de7 2abd bf45 d4bc f6ea 013f 3e53 a43b
0.057026148 0.077522375 0.090973616 0.050330665 -0.025097111 0.063571505 0.03293567 -0.024729816
0.021875173 0.05179772 0.048101723 -0.124299645 -0.040352747 0.081109114 0.0016222053 0.038999777
-7.958552e-05 0.011081519 0.00091881905 -0.00032204943 -0.0011209274 0.010191041 0.0018628947 -0.0058317427
0.0010740474 0.0057103196 0.005882962 -0.0033919776 0.00062216964 7.063296e-06 -0.0012785987 0.00544355
0.044654083 0.029661046 0.07356352 0.040670533 -0.017660655 0.022306807 0.02050882 -0.0018045354
0.011529635 0.021217566 0.02312098 -0.11041823 -0.034432493 0.06422364 0.0070652026 0.016715987
-0.040546477 -0.6384484 -0.056524456 -0.0037040531 -0.19703193 -0.7949825 0.0018436786 0.71947485
-0.30670467 -0.8350361 -0.025015453 0.058322 -0.04007173 -0.054431133 0.7799317 0.019505389
0.060955625 0.055268 0.0980903 0.054484643 -0.02290254 0.042272683 0.02736072 -0.016179387
0.016499655 0.034971405 0.03622665 -0.13763423 -0.044783875 0.086272344 0.005158729 0.028214302
0.04508766 0.34808958 0.02024696 0.0591761 -0.1426677 0.34941533 0.15188774 -0.09497614
0.03448766 -0.0064873975 0.33303234 -0.0042042285 -0.07523188 0.025061097 0.05692952 0.23536874
-0.012472897 -0.36980972 -0.04694082 0.058632858 -0.18028283 -0.46975195 0.027780946 0.4508482
-0.26532343 -0.5681987 -0.0056931297 0.033343136 -0.10510186 -0.015272939 0.5215288 0.034780283
0.063362144 -0.2202525 0.04292688 0.09796098 -0.30289513 -0.3479345 0.13923469 0.4103771
-0.21901432 -0.5911011 0.15896964 -0.048039347 -0.15035757 0.05052401 0.6457917 0.14152038
0.047527764 1.1963525 0.006979858 0.054633137 -0.010628683 1.3107069 0.18467166 -0.9730791
0.27755043 0.94481856 0.31592 0.050918467 -0.059593808 0.012703265 -0.68466234 0.26572004
-0.00043014286 -0.0007290601 -0.0004498844 -0.00039396482 0.00025568175 -0.00083263597 -0.000359053 0.00038782807
-0.0002545551 -0.00067752035 -0.00037946427 -0.00069648563 0.0003550256 -0.00050168065 0.00015353692 -0.0003364474
0.10826481 0.29939988 0.1414006 0.10277843 -0.062636964 0.27551827 0.117002994 -0.1741235
0.080712244 0.12357115 0.17385347 -0.17901118 -0.092608675 0.12882522 -0.0567233 0.13408133
0.04605926 0.078536086 0.082610734 0.03986135 -0.019524612 0.063335955 0.024563925 -0.03402507
0.013273174 0.04001407 0.04764658 -0.12830321 -0.030330501 0.070874475 0.0010182371 0.03511063
0.054174658 0.062246583 0.079828456 0.04820636 -0.017616663 0.050705723 0.023832487 -0.021062883
0.0129843475 0.040382173 0.03829746 -0.1022532 -0.03868597 0.07315756 0.0017755964 0.029750979
0.003245977 -0.93365425 -0.02888947 0.031621657 -0.26502427 -1.157848 0.03188764 1.0204241
-0.42851675 -1.1827971 -0.0628679 0.077783436 -0.10689303 -0.043262042 1.0896634 0.023816114
0.090685315 -0.32604906 0.063438945 0.13264672 -0.44562176 -0.5591247 0.19949481 0.66604215
-0.31290084 -0.9461885 0.25589743 -0.053199157 -0.19708452 0.06806183 1.0472953 0.21947174
-0.008101033 -0.4382082 -0.020557826 0.013487353 -0.14521918 -0.5382477 0.012368703 0.47680014
-0.23163112 -0.56568825 -0.036070578 0.044515185 -0.041724492 -0.025912164 0.50749147 0.005014806

encoder.layers.0.conv.linear.bias f4 [16]
00000000: 1020 91bd f5bb e23a 550b 4dbd 4288 ac3d
00000010: 78e8 55bd 10a4 37bc af8f 1c3e 54b7 3cbe
00000020: 86db ce3d f9cb 803b e768 bbbd f1de 65bd
00000030: 5257 81bd 5c6b 673e c83e 5fbe 1ec2 ba3d
-0.070861936 0.0017298447 -0.050059635 0.084244266 -0.052223653 -0.011208549 0.15289186 -0.18429309
0.101004645 0.0039305654 -0.09150868 -0.056120817 -0.06315483 0.22599548 -0.21801293 0.09119056

encoder.layers.0.conv_e.weight f4 [1000, 16]
00000000: 7c4f c6ba 6c2f 952b caf4 292d b06d d8ba
00000010: ce05 21bb 2a6e c932 6976 4532 ff65 cb81
00000020: 9236 9b31 baf8 b1ba 011e a432 90e7 fbba
00000030: d909 1fbb f7f4 4832 b1dc 22bb 98fc 22bb
00000040: 21c5 bf3a e924 1bac e2a9 36ad 1fac 18b9
00000050: 2dfd 1d3a 7b65 a433 1927 55b3 7e2e 9b81
00000060: 0bd1 c9b0 2914 943a e901 7630 840b 3cbb
00000070: 3d6c 9d3a 954e b6b2 f43e 8b39 c82d 313b
00000080: 26b0 daba 9001 e7aa 2f37 7cac bea7 1339
00000090: a8db efba 170e 0133 fd99 03b4 f86d 1d81
000000a0: 5d85 5431 e423 e0ba 60aa a9b2 1603 0abb
000000b0: 1d02 23bb 2f7b 80b2 9010 bdba 639b 60ba
000000c0: 684f 22ba 5301 8b2c 04cd 11ab f088 ebb9
000000d0: 628a 01bb 2050 bc34 955e ba33 73e7 8101
000000e0: 6485 57b1 a958 acba 948e 1d33 0b50 f6ba
000000f0: 9834 03bb 6a4a 36b2 8d08 d3ba 5763 c8ba
00000100: 91ff 44bb 91c3 08ad c9dc 2c2d afc6 40bb
00000110: f75b 88bb b727 1f34 e9da 01b3 3b43 5481
00000120: 3805 8731 27d3 81bb a954 a031 b668 2dbb
00000130: b883 8fbb dc8f 0733 b94a 69bb 12ee 89bb
00000140: 5445 15bb 41d2 892b bf71 e32b 23e5 21bb
00000150: 602a 45bb 7a75 32b3 582e 95b2 9093 9680
00000160: 04f9 79b1 18e1 1ebb 96ab 8bb2 401a 13bb
00000170: bd58 ccba f497 e631 ea30 86bb 5353 e4ba
00000180: 5294 35bb cf76 90ac e180 d6ab 955b ddba
00000190: a9d1 47bb bc4e 95b3 4f06 3633 ae42 8700
000001a0: 502c 0f31 f67a 39bb b2d4 32b2 2127 b639
000001b0: 62b8 3fbb 634a 8731 c0e9 d6ba 9abc 19bb
000001c0: 40ff 02ba 2e51 722c 6322 ba2c a34b cbba
000001d0: 4d4b d8b9 a43f feb3 d2fc 24b3 6bae 3a81
000001e0: 383c 74b0 0b88 9db9 d78c 0933 37d4 91ba
000001f0: 4389 aeba 92b0 75b1 9215 93ba bc33 6dba
00000200: ad82 5dba bc74 5dab a806 092d 85e1 1438
00000210: b4e0 dbba df12 fa33 1d6c ccb3 30d7 e000
00000220: 0e67 1230 0364 49b9 c763 54b2 f214 49bb
00000230: 6bab bdba 0854 d732 f059 e3ba 39fa a4ba
00000240: 9264 5fba 3541 8c2c a97e b82b 5351 9cba
00000250: 6006 4cba 9fbe 8f32 b215 8939 43a7 c201
00000260: 9b9c 88af 3406 013b c9f6 9a32 10ed 4cba
00000270: 1f78 353a 9fb6 0631 cce5 ecba 3885 08bb
00000280: 25ac 45bb 10a7 00ab 9bd1 dc2c 2eaa 2bbb
00000290: 30f4 45bb f4c0 2fb3 df29 0e33 1e48 3301
000002a0: f3b6 acb0 f49f 48bb 8993 a131 a1eb c4ba
000002b0: b5c3 6ebb fc91 8232 c237 5ebb 58e0 52bb
000002c0: e8cd 05bb 8bb0 002c e3b9 32ad 35c1 66ba
000002d0: 4365 5739 a7e9 9f32 1cb9 48b3 b75d cd00
000002e0: 9f17 a9af 7f76 873a 525d 2531 8520 35bb
000002f0: 0d15 7aba a5cb 9bb0 a79b 86b9 aa3f 93ba
00000300: 5f86 c739 1410 132c 0950 802c e026 9d3a
00000310: 7b9f 08ba 701b e9b2 e05c a4b1 bb9c fb00
00000320: 73a6 c1af 9032 383a 9397 5f32 cf46 34ba
00000330: 60dc c238 11d0 98b2 70f4 5c39 54a6 6439
00000340: bc92 a939 63e5 8daa f812 202c 5fb5 04ba
00000350: 511c 0e3a 4efa 2933 e948 8239 497e 3281
00000360: d302 da31 6d28 9bb8 e047 bd32 0300 1cbb
00000370: 03e0 93ba 6607 9fb1 76fd e1b9 58da 9cba
00000380: 06ee d43a 9589 88ac 5c94 30ad aa76 9cb9
00000390: d81e c03a 5497 feb2 588b 90b3 4000 a880
000003a0: a765 c4b0 1819 023b 608a 4931 abbe 65ba
000003b0: 7ab4 8d3a 3838 5132 05f7 5b3b 6b62 853b
000003c0: 8142 83bb 76b8 51ac 006c ce2d 28cc 78bb
000003d0: 1bfa 88bb 4c8b 9f33 b8bd 90b2 8fe1 7400
000003e0: f1a1 be2f 7919 83bb 6f70 6e32 fa1f 6a3a
000003f0: c882 8cbb 2aac 6cb2 8d93 91bb 510d e0bb
-0.0015129889 1.0600249e-12 9.660892e-12 -0.0016512182 -0.002457011 2.3449577e-08 1.14938326e-08 -7.471678e-38
4.5172976e-09 -0.0013578155 1.9105757e-08 -0.0019218791 -0.0024267344 1.1697231e-08 -0.002485078 -0.0024869796
0.0014630893 -2.2047314e-12 -1.0383224e-11 -0.0001455997 0.0006026801 7.655304e-08 -4.9628486e-08 -5.700472e-38
-1.4684088e-09 0.0011297512 8.9496993e-10 -0.0028693387 0.0012010407 -2.1223324e-08 0.0002655905 0.0027035344
-0.0016684576 -4.1034927e-13 -3.5841987e-12 0.00014081501 -0.0018299716 3.0047968e-08 -1.2256346e-07 -2.8915245e-38
3.0925869e-09 -0.001710054 -1.9751667e-08 -0.0021058968 -0.0024873086 -1.4957179e-08 -0.0014424492 -0.00085680763
-0.0006191642 3.9507646e-12 -5.1798865e-13 -0.0004492472 -0.001976632 3.5076027e-07 8.678504e-08 4.771923e-38
-3.1362442e-09 -0.0013148981 3.6684085e-08 -0.0018792165 -0.0020020362 -1.0610714e-08 -0.0016100571 -0.0015288395
-0.0030059556 -7.774129e-12 9.826092e-12 -0.00294153 -0.0041613537 1.4822477e-07 -3.023425e-08 -3.8986486e-38
3.9296104e-09 -0.003961939 4.6662376e-09 -0.0026460118 -0.004379716 3.1562976e-08 -0.0035597517 -0.0042092884
-0.0022776918 9.792793e-13 1.6160891e-12 -0.0024703227 -0.0030085072 -4.15507e-08 -1.7366958e-08 -1.382826e-38
-3.6375818e-09 -0.0024243053 -1.6259758e-08 -0.0022446066 -0.0015590411 6.711156e-09 -0.0040951865 -0.0017419852
-0.0027706814 -4.1059166e-12 -1.5241386e-12 -0.0016888255 -0.0030489957 -6.952675e-08 4.2380915e-08 1.2421712e-38
2.0834428e-09 -0.002830205 -1.0409325e-08 0.00034742898 -0.0029254188 3.937474e-09 -0.0016396567 -0.0023458363
-0.00049971417 3.4435332e-12 5.2902556e-12 -0.0015510212 -0.00041254834 -1.1839373e-07 -3.8414164e-08 -3.4287943e-38
-8.885226e-10 -0.00030046733 3.202589e-08 -0.0011125867 -0.0013316054 -3.575256e-09 -0.0011221638 -0.00090485415
-0.0008449953 -7.8676974e-13 7.789026e-12 3.549598e-05 -0.0016775341 1.1644965e-07 -9.519156e-08 2.0648346e-38
5.326094e-10 -0.00019206111 -1.2362711e-08 -0.003068265 -0.0014470642 2.5067507e-08 -0.0017345529 -0.0012586779
-0.0008521761 3.9862788e-12 1.3109142e-12 -0.0011926092 -0.00077829324 1.6734075e-08 0.0002614684 7.1504354e-38
-2.484953e-10 0.0019687535 1.8040184e-08 -0.00078173075 0.00069225015 1.9603374e-09 -0.0018073856 -0.0020831358
-0.003016242 -4.570658e-13 6.276047e-12 -0.0026193964 -0.0030205362 -4.0920852e-08 3.3100033e-08 3.292885e-38
-1.2566644e-09 -0.0030612918 4.7024895e-09 -0.0015023836 -0.0036432568 1.5200378e-08 -0.0033907746 -0.0032177176
-0.002041692 1.8287895e-12 -1.0159404e-11 -0.0008802594 0.00020541721 1.8616289e-08 -4.6734485e-08 1.8859895e-38
-3.0757705e-10 0.0010334997 2.4063707e-09 -0.0027637791 -0.000953988 -1.1335614e-09 -0.00025674442 -0.0011234183
0.00038056352 2.0898882e-12 3.6468645e-12 0.0011989735 -0.0005211753 -2.7137247e-08 -4.783587e-09 2.3106934e-38
-3.5224765e-10 0.00070265774 1.3014772e-08 -0.00068770064 9.291689e-05 -1.7789747e-08 0.00021071895 0.00021805736
0.00032343518 -2.52058e-13 2.2747897e-12 -0.0005062427 0.00054210896 3.957603e-08 0.00024849855 -3.2784042e-38
6.344956e-09 -7.398506e-05 2.203518e-08 -0.0023803718 -0.0011281971 -4.62835e-09 -0.00043104187 -0.0011966927
0.0016245253 -3.880627e-12 -1.0037384e-11 -0.0002984305 0.001465763 -2.9638308e-08 -6.730869e-08 -1.5428453e-38
-1.4289768e-09 0.0019851383 2.9328007e-09 -0.00087640685 0.0010811232 1.2178184e-08 0.0033563983 0.00407057
-0.0040057306 -2.9803083e-12 2.346745e-11 -0.0037963483 -0.0041802055 7.4293524e-08 -1.685008e-08 1.0733833e-38
3.4675865e-10 -0.0040008393 1.3878988e-08 0.00089311565 -0.0042880513 -1.37761536e-08 -0.0044426383 -0.006837525

encoder.layers.0.conv_e.bias f4 [16]
00000000: 68a9 b83e 91a9 85b4 cd4e 69b4 90c6 ea3e
00000010: a1d4 f23e d063 6bb6 cb4f f6b5 30e1 0fb6
00000020: c6d2 2fb5 d7d8 053f a180 07b6 bb56 873b
00000030: 7c18 fe3e 49ac 13b6 e84d d13e e9a8 033f
0.36066747 -2.4896556e-07 -2.1728484e-07 0.45854616 0.47427848 -3.5075827e-06 -1.8351651e-06 -2.1439737e-06
-6.5499296e-07 0.52283996 -2.019144e-06 0.004130212 0.49628055 -2.200499e-06 0.4087975 0.5142961

decoder.scale f4 [2]
00000000: 8f30 5d3f 890b 903f
0.8640222 1.125352

decoder.point f4 [2, 16]
00000000: 13f1 a73b f1fb 11bd 5717 a93b 17d8 013e
00000010: f590 ae3b 19ea 133e aa0e f13d ae01 b1bc
00000020: c8f8 193e bfd7 04b8 448a 3f3a 11b4 863b
00000030: b1b7 b33b eab4 943d e829 81bc ca38 ef3d
00000040: 3c10 e63b 9aa7 3538 5ab8 993b f68d 443e
00000050: ddd5 c53b e042 113e 0519 3b3e 0ca4 2b3d
00000060: 00ef e83d 3467 7937 aea7 193c b41a c93b
00000070: 07cd 5b3b dcc9 073e 1da4 1a3d 2f56 da3d
0.005125174 -0.03564066 0.005160253 0.12680088 0.005327339 0.1444477 0.11770375 -0.021607246
0.15036309 -3.167218e-05 0.0007306675 0.004110821 0.005484544 0.07261069 -0.015767053 0.116807535
0.0070209783 4.3309854e-05 0.004691166 0.19194779 0.0060374574 0.14185667 0.18271263 0.041904494
0.11373711 1.4865585e-05 0.009378357 0.0061372165 0.0033538954 0.13260597 0.037754167 0.106609695

decoder.tangent f4 [2, 16]
00000000: 4dcf a0bc b347 1a3c f3ac bebc 9a84 2f3e
00000010: c363 adbc df20 65bd 1c63 713d 3168 833e
00000020: ee0f c0be 6d1e 2039 0b00 a9bd 6257 25bc
00000030: 1896 cabc 0120 8c3e b976 d43e 8114 8b3d
00000040: cc3f 3b3d c85e a237 cbed 6c3c 4429 2fbe
00000050: 6409 503d 9866 033d 4469 50bd 981f 9abe
00000060: 933e 9c3e cdf8 e8b8 22ab d63d edc9 e43c
00000070: eb10 e63c e2e6 bdbe 7e1b 0dbf eb6b b6bd
-0.019630099 0.0094165085 -0.023275828 0.17140427 -0.021165734 -0.05593955 0.05893241 0.2566543
-0.37512153 0.00015270124 -0.08251961 -0.0100916345 -0.024729773 0.27368167 0.41496828 0.0679102
0.04571514 1.935604e-05 0.014460991 -0.17105585 0.050790206 0.032080263 -0.05088164 -0.3010223
0.3051649 -0.00011108965 0.1048186 0.027928317 0.028084239 -0.37090212 -0.55120075 -0.089073025

decoder.cls.weight f4 [16, 2]
00000000: eddb 88be dabe 883e acc8 002d df3b c32f
00000010: e4cd 42af 5715 4e2d f4a9 aabe 3b98 aa3e
00000020: 21d2 a9be 0298 a83e 3be2 bfb6 ce14 70b5
00000030: 0c41 80b5 86d5 8ab5 19ff d681 1ca8 e403
00000040: 7061 f6b3 8018 8b33 ff86 bebe 6278 be3e
00000050: 4911 3cb3 042e 0eb5 a5d7 4b3d bb4c 22bc
00000060: 4063 b9be 984b b83e 9243 0135 c289 18b4
00000070: 797f 9bbe 2f07 9c3e ae10 bfbe c599 be3e
-0.2673029 0.26708108 7.320516e-12 3.5512834e-10 -1.7717344e-10 1.1714483e-11 -0.3333279 0.33319268
-0.33168128 0.32928473 -5.7185803e-06 -8.943724e-07 -9.555674e-07 -1.0343945e-06 -7.897723e-38 1.3439232e-36
-1.14729914e-07 6.4771484e-08 -0.3721237 0.3720122 -4.378788e-08 -5.2966084e-07 0.0497662 -0.009905989
-0.36208534 0.35995173 4.815457e-07 -1.4206219e-07 -0.3037069 0.3047423 -0.37317413 0.37226692

decoder.cls.bias f4 [2]
00000000: c7c0 c7bd c7c0 c73d
-0.09753566 0.09753566

decoder.w_e.weight f4 [1, 16]
00000000: 2775 e13c e03c feaf c14d 1c30 4b5d 01bc
00000010: 8a6c b5bc 3276 afb5 b0a0 ef35 4624 8f02
00000020: c88c f933 eacd 1bbd ead6 deb5 697d 48bd
00000030: d99b 57bc 0c66 15b5 9991 b7bc c781 47bd
0.027521683 -4.6245585e-10 5.6862964e-10 -0.007895778 -0.022146482 -1.3072915e-06 1.7853654e-06 2.1032781e-37
1.1620574e-07 -0.03803817 -1.6602837e-06 -0.048947725 -0.013159716 -5.5655323e-07 -0.022408294 -0.04870775

decoder.w_h.weight f4 [1, 16]
00000000: 50fd f2be 180a eaba 045a b7be 88ed cd3e
00000010: 3394 f4be 1294 b33d 830d 933e 6f5f d03c
00000020: 4082 bd3e cb47 543a 8b2d 0cbf 1130 d4be
00000030: b123 d9be e250 9d3e 6273 22bd b082 8b3e
-0.47458887 -0.0017855791 -0.35810864 0.40220284 -0.47769317 0.087684765 0.28721246 0.025436131
0.37013435 0.0008097856 -0.54756993 -0.41442922 -0.42410043 0.3072577 -0.03966082 0.27248144
