logs/lp/2019_11_26/3/model.pth (torch_old, 34376 bytes, 4 tensors)

encoder.layers.0.linear.bias f4 [16]
0	0x3d1e6d76	0.03867861
1	0x3cb68a2b	0.02228268
2	0x3d1ffc6b	0.039059084
3	0x3cdd1d99	0.026991652
4	0x3d070f3f	0.032973524
5	0x3c9a9f25	0.018874714
6	0x3d023130	0.03178519
7	0x3cfcb4ce	0.030847933
8	0x3d3a6b2a	0.045512356
9	0x3d3d86df	0.0462712
10	0x3d64ce6d	0.055860925
11	0x3ca3bbfb	0.019987097
12	0x3d0c60ec	0.03427212
13	0x3d15a718	0.036536306
14	0x3cf48450	0.029848248
15	0x3d3d7eb4	0.04626341

encoder.layers.0.linear.weight f4 [16, 500]
0	0xbd2f68d3	-0.042824578
1	0xbe58f3aa	-0.211867
2	0x3d00032f	0.031253036
3	0xbe4c9f47	-0.19982634
4	0xbe340962	-0.17581704
5	0xbe8349db	-0.25642285
6	0xbd987716	-0.07444589
7	0x3cc90c70	0.024542063
8	0x3ddd3062	0.10800244
9	0xbd4ea23e	-0.050447695
10	0x3e4c6fa6	0.19964465
11	0xbd8d0826	-0.0688632
12	0xbd28cfdc	-0.041213855
13	0x3c4026cb	0.011727999
14	0x3d74784d	0.05968504
15	0xbd862461	-0.065499075
16	0x3dbabdca	0.09118231
17	0x3dba332d	0.09091792
18	0xbd653ef6	-0.055968247
19	0xbd38c5d8	-0.045110554
20	0x3c200e93	0.0097691
21	0x3cb1a53e	0.021685239
22	0xbe204d22	-0.15654424
23	0x3d52f027	0.05149856
24	0x3c78872f	0.015168949
25	0x3d54a65e	0.051916473
26	0xbdd110b3	-0.10208263
27	0x3d98a2ba	0.07452913
28	0x3b2d5539	0.0026448502
29	0xbdc8d1bf	-0.09805631
30	0x3e16b1f3	0.1471632
31	0xbdbd9f93	-0.09258952
32	0x3e13b5c8	0.14424813
33	0xbdd63f9f	-0.104613535
34	0xbbd7b784	-0.006583156
35	0x3c9ed141	0.01938689
36	0x3cfff7fa	0.031246174
37	0xbd16f924	-0.036858693
38	0x3dc44b35	0.09584657
39	0xbf0c8b21	-0.54899794
40	0xbe5d02c8	-0.21583092
41	0xbdd8eb04	-0.10591701
42	0x3d81981e	0.06327842
43	0x3d98b21d	0.074558474
44	0x3d3e13b2	0.0464055
45	0xbcf45166	-0.02982397
46	0xbd5ca989	-0.05387262
47	0xbd58fa99	-0.052973364
48	0x3de74d32	0.11294021
49	0xbce2f97c	-0.027706854
50	0x3de6de89	0.11272914
51	0x3d990469	0.07471544
52	0xbd1253ef	-0.035724577
53	0xbc82ac40	-0.015951276
54	0x3e3989cd	0.18118973
55	0xbde02973	-0.10945406
56	0x3ca77b73	0.020444607
57	0x3d4dce57	0.05024561
58	0xbd1a6806	-0.03769686
59	0x3e06a5b1	0.13149144
60	0xbd3b9b42	-0.045802362
61	0x3e2569da	0.1615366
62	0xbd1adf55	-0.037810642
63	0xbb926c16	-0.0044684513
64	0xbaf4b6c2	-0.0018670189
65	0x3c32dd29	0.0109169865
66	0xbd003dcd	-0.031308938
67	0xbd19f746	-0.037589334
68	0xbdcccfb3	-0.10000553
69	0x3e26a75c	0.1627478
70	0x3d90b249	0.07065255
71	0x3cbd89a9	0.02313693
72	0xbd5f2fd6	-0.05448898
73	0x3c6a68cf	0.014307215
74	0xbd629faa	-0.05532805
75	0xbd1e83d6	-0.038699947
76	0xbddc03aa	-0.10742886
77	0x3e05a90b	0.13052766
78	0x3df2216b	0.1182278
79	0xbd922fef	-0.07138049
80	0xbe86d3d4	-0.26333487
81	0x3cc02558	0.023455307
82	0x3dbf5a66	0.09343414
83	0x3cf91323	0.030404633
84	0xbe5e03e3	-0.2168117
85	0x3e922da5	0.2855045
86	0xbd6751f2	-0.056474634
87	0xbe56aa6b	-0.20963447
88	0xbdd88ce5	-0.105737485
89	0x3e8c2ee6	0.2737953
90	0x3d6d9ac5	0.058008928
91	0xbe75e8dd	-0.24014612
92	0xbdc96138	-0.09832996
93	0x3dabe7be	0.08393811
94	0xbd1ea400	-0.03873062
95	0x3df4bd96	0.11950223
96	0x3d62ab55	0.055339176
97	0x3decb08a	0.1155711
98	0x3cd1f2ae	0.025628414
99	0x3d0d9da8	0.03457418
100	0x3cf82b71	0.030294152
101	0x3e325a48	0.17417252
102	0xbdb8a19d	-0.090152
103	0xbd396505	-0.045262355
104	0x3dd1f294	0.10251346
105	0x3e54ce6b	0.20781867
106	0x3d50c2d5	0.050967056
107	0xbd311ff2	-0.043243356
108	0xbe377c0a	-0.17918411
109	0x3d3df1c1	0.046373133
110	0x3df4de1a	0.11956425
111	0xbe653a6e	-0.2238557
112	0x3a752902	0.0009352119
113	0xbda8731c	-0.0822508
114	0x3da5c539	0.08094258
115	0xbc93a96f	-0.018025128
116	0x3e0283fe	0.12745664
117	0x3e05643f	0.13026522
118	0xbc30c183	-0.010788324
119	0x3dbb2f1a	0.09139843
120	0x3d9014cd	0.070352174
121	0x3e70c090	0.23510957
122	0x3e255cf0	0.16148734
123	0xbe42c53b	-0.1902055
124	0xbbe2bc81	-0.006919444
125	0x3e078524	0.13234383
126	0x3da4c65e	0.08045648
127	0xbd78ffe4	-0.06079091
128	0x3dbba478	0.09162229
129	0x3d305dfe	0.043058388
130	0xbd1a564d	-0.03767996
131	0xbd07542a	-0.03303925
132	0x3d827325	0.06369618
133	0xbd870072	-0.06591882
134	0xbda67f81	-0.08129788
135	0x3e221644	0.15828806
136	0xbd714c59	-0.0589107
137	0xbe9acd93	-0.30234966
138	0x3d2b07b9	0.04175541
139	0x3e775199	0.24152221
140	0xbda17601	-0.078838356
141	0x3dda9060	0.106720686
142	0x3d75250d	0.059849788
143	0xbe34e82a	-0.17666689
144	0x3d374cfa	0.044751145
145	0xbdb9d0f4	-0.09073058
146	0x3d734369	0.05939046
147	0x3e6b57a0	0.22982645
148	0xbc2f3a82	-0.010695102
149	0x3e256009	0.16149916
150	0xbd0140c1	-0.031555895
151	0x3db61dd8	0.08892411
152	0xbdf420c5	-0.11920313
153	0xbd1c851b	-0.038212877
154	0x3d7fd574	0.062459424
155	0xbd247d93	-0.04015882
156	0x3cd0b82e	0.025478449
157	0x3d976022	0.07391383
158	0xbe032078	-0.12805355
159	0x3e473963	0.19455485
160	0x3dbec79d	0.09315417
161	0x3dfe1094	0.12405506
162	0x3d926320	0.07147813
163	0xbcf0c63e	-0.029391404
164	0x3e006df6	0.12541947
165	0xbdaf115c	-0.08548233
166	0xbe887377	-0.26650593
167	0xbc172ddb	-0.009227241
168	0x3d07c434	0.0331461
169	0x3e0aa043	0.13537697
170	0x3db7f5cf	0.08982431
171	0x3e01ef68	0.12688982
172	0x3d87cc39	0.06630749
173	0xbd61785f	-0.055046435
174	0xbd25e07d	-0.04049729
175	0x3e6aa992	0.22916248
176	0xbe35f0f7	-0.17767702
177	0xbd04cc60	-0.03242147
178	0xbd56a424	-0.05240263
179	0x3d448d1f	0.047986146
180	0xbe40052b	-0.18751971
181	0x3e9dc6ae	0.30815643
182	0xbe4d7c2c	-0.20066899
183	0x3dc99b67	0.09844094
184	0x3b8b1cc2	0.0042453716
185	0xbc970496	-0.018434804
186	0xbd22c0d7	-0.039734688
187	0xbbd1f1b3	-0.0064069866
188	0x3bdf45df	0.006813749
189	0xbd5b810d	-0.05358987
190	0x3e43243a	0.19056788
191	0x3df42e05	0.1192284
192	0x3de7d9ad	0.11320815
193	0x3c6e296e	0.014536245
194	0xbdc9e80c	-0.098587126
195	0xbd4825b1	-0.04886407
196	0x3b8ea02b	0.0043525896
197	0xbd94f8f9	-0.0727405
198	0xbdcb7d1d	-0.09935973
199	0xbda51457	-0.0806052
200	0x3d6d3e84	0.057920948
201	0xbda52ee5	-0.08065585
202	0x3bd4aebc	0.0064905565
203	0x3d2c1519	0.042012308
204	0x3dd703be	0.10498761
205	0x3d1410cc	0.03614883
206	0x3d0799a2	0.0331055
207	0xbdf87b6d	-0.121329166
208	0xbd40ebe9	-0.04709998
209	0xbdbc034c	-0.09180316
210	0x3afafa58	0.0019148095
211	0x3e0368ac	0.12832898
212	0x3c894597	0.016756816
213	0x3e41e966	0.1893669
214	0xbe20dd2e	-0.15709373
215	0xbe126836	-0.14297566
216	0xbca968fc	-0.020679943
217	0x3e2f26c2	0.17104629
218	0xbe7d669f	-0.24746178
219	0x3d48d536	0.04903146
220	0xbd39f6ea	-0.04540149
221	0xbe537a57	-0.20652138
222	0x3dcd95a1	0.10038305
223	0x3cfa741c	0.030572943
224	0xbdfac2f9	-0.12244219
225	0xbde8b061	-0.113617666
226	0x3e1ed4da	0.15510884
227	0x3e092328	0.13392317
228	0xbce77ed0	-0.028258711
229	0xbdb880d6	-0.090089485
230	0xbd69d641	-0.057089094
231	0xbd2279bd	-0.03966688
232	0xbe285ea7	-0.16442357
233	0xbd611e07	-0.054960277
234	0xbd17f381	-0.037097458
235	0x3c398d5f	0.011325209
236	0x3d9de787	0.07710176
237	0x3d9e4dbc	0.077296704
238	0x3c8b0f25	0.016974995
239	0xbe4e527f	-0.20148657
240	0xbe071372	-0.13191012
241	0x3c8c2813	0.017108953
242	0xbdbbcfd4	-0.091704994
243	0xbd966606	-0.07343678
244	0x3cbaa8bc	0.022785537
245	0xbcc331ab	-0.023827394
246	0xbe082b82	-0.13297847
247	0xbe8711ff	-0.26380917
248	0x3e21f3cb	0.15815656
249	0x3ccbb787	0.024867786
250	0x3c593077	0.013256184
251	0xbcffa905	-0.031208524
252	0x3e35d341	0.17756368
253	0x3e97d602	0.29655463
254	0x3d6f2e60	0.058393836
255	0x3e00657d	0.12538715

encoder.layers.1.linear.bias f4 [16]
0	0x3e806a0f	0.25080916
1	0x3e837feb	0.2568353
2	0x3e51c76f	0.20486234
3	0x3e61b791	0.22042681
4	0x3e82502b	0.25451788
5	0x3e69ad06	0.2281991
6	0x3e9b5ac8	0.30342698
7	0x3e9e2860	0.3089018
8	0x3e767459	0.2406782
9	0x3e3cfdd0	0.18456197
10	0x3e804700	0.2505417
11	0x3e94900a	0.29016143
12	0x3e48b11c	0.19598812
13	0x3ead3aca	0.33833915
14	0x3e9188c7	0.28424665
15	0x3e6b8ba2	0.23002484

encoder.layers.1.linear.weight f4 [16, 16]
0	0x3f064f4c	0.5246475
1	0xbed2cd61	-0.41172317
2	0xbe9d4ee9	-0.30724266
3	0xbed9deed	-0.4255289
4	0x3f158ac9	0.58414894
5	0xbe0f5fa2	-0.14001325
6	0xbe3cce42	-0.18438056
7	0xbeb4252e	-0.35184616
8	0x3de757fe	0.1129608
9	0x3f0b30dd	0.54371434
10	0x3ec30eaa	0.38097125
11	0x3c9abd75	0.018889168
12	0xbe2ef1b2	-0.17084387
13	0x3ee44704	0.4458543
14	0x3f00db02	0.5033418
15	0x3ddc21ee	0.10748659
16	0x3dc68f1a	0.09695263
17	0x3f1bf993	0.60927695
18	0x3e6acd38	0.22929847
19	0xbf198225	-0.5996421
20	0x3f008b2f	0.5021238
21	0xbe1538c0	-0.1457243
22	0x3d5498d7	0.051903572
23	0xbf27f786	-0.65612066
24	0x3de435b3	0.11143055
25	0x3f0490b8	0.51783323
26	0x3e748d3c	0.23882002
27	0xbee7b4e3	-0.45255193
28	0x3d05b969	0.032647524
29	0x3ecde0bb	0.40210518
30	0x3db4cf8c	0.08828649
31	0x3dc57226	0.09640913
32	0x3f0c8674	0.5489266
33	0x3ebfe41b	0.37478718
34	0x3ee81ad3	0.45332965
35	0x3f0daf0b	0.5534522
36	0xbeb9e892	-0.3631025
37	0x3bd87ae4	0.0066064466
38	0xbf1489fd	-0.58023053
39	0xbee20e10	-0.44151354
40	0x3ea43b36	0.32076424
41	0x3c3df096	0.011593005
42	0x3efd57f4	0.49481165
43	0x3e930044	0.2871114
44	0x3ea7e905	0.32794967
45	0x3dea33da	0.11435671
46	0xbeabb6df	-0.33537957
47	0x3ec9d9c8	0.39423966
48	0xbe7ae13a	-0.2449998
49	0x3efb15eb	0.4904016
50	0xbec833d7	-0.3910205
51	0x3e6692dd	0.22516961
52	0x3f0b9e00	0.54537964
53	0xbdab989a	-0.08378716
54	0x3d5c948f	0.053852614
55	0x3dfd62dc	0.123723716
56	0x3e901302	0.28139502
57	0xbf0a6fdd	-0.5407694
58	0x3ea42f2a	0.32067233
59	0x3f06fc5f	0.5272884
60	0xbe90f750	-0.28313684
61	0x3e5a57b4	0.21322519
62	0x3f027371	0.509574
63	0xbe10b262	-0.14130548
64	0x3dc3ba1c	0.09556982
65	0xbd53bee9	-0.051695738
66	0x3f01a3e3	0.50640696
67	0xbe13b37e	-0.1442394
68	0x3dc9b40b	0.098487936
69	0xbea460da	-0.32105142
70	0x3ea7ae82	0.32750326
71	0x3e589231	0.21149518
72	0x3ee23272	0.44179112
73	0x3e522fb8	0.20526016
74	0x3ed95530	0.42447805
75	0xbe7e3770	-0.24825835
76	0x3f0bdc97	0.5463347
77	0xbefb28e0	-0.49054623
78	0x3e01c57d	0.12672992
79	0xbef625b4	-0.4807564
80	0xbe8bb48e	-0.2728619
81	0x3d94a5a8	0.07258159
82	0x3f0c88ee	0.5489644
83	0x3f06f11e	0.52711666
84	0x3f0afe1b	0.54293984
85	0xbeaf1288	-0.34193826
86	0xbde62b42	-0.112387195
87	0xbdadc51f	-0.084848635
88	0xbe13af20	-0.14422274
89	0x3e98af16	0.2982108
90	0xbddd900e	-0.10818492
91	0x3dc73f24	0.0972884
92	0x3efaab35	0.48958746
93	0x3eb61773	0.35564765
94	0xbf0dd760	-0.5540676
95	0x3f160233	0.58597106
96	0xbdeda0b2	-0.11602916
97	0xbe2700b8	-0.16308868
98	0x3e484498	0.19557416
99	0x3ed737e3	0.42034826
100	0xbe6469d7	-0.22306
101	0xbed82a8c	-0.4221996
102	0xbef72086	-0.48267
103	0x3e52c14e	0.20581552
104	0x3f3e7e3e	0.7441138
105	0x3f10f08b	0.5661704
106	0xbe49ed26	-0.19719371
107	0x3e801899	0.25018767
108	0xbedc83b4	-0.43069232
109	0x3d17dff3	0.03707881
110	0x3ea48138	0.32129836
111	0xbdf2be11	-0.118526585
112	0x3ecebbdb	0.40377697
113	0x3f0f0b4d	0.5587662
114	0x3f0ab9ed	0.5418995
115	0x3e91d4b0	0.2848258
116	0xbeb257b1	-0.34832528
117	0x3e9d4846	0.30719203
118	0xbe960ddc	-0.2930745
119	0x3dc5bd64	0.09655264
120	0xbe816811	-0.2527471
121	0x3eb3c1f5	0.35108915
122	0xbe3cd8f6	-0.18442139
123	0x3e7b99d2	0.24570397
124	0xbef1dc2a	-0.47238284
125	0xbe07e5bc	-0.1327123
126	0x3ea7bb33	0.3276001
127	0xbdcf885b	-0.101334296
128	0x3d8e6df2	0.06954564
129	0xbe39e74b	-0.18154638
130	0xbea9f978	-0.33198142
131	0xbeb6bf0a	-0.35692626
132	0xbe86ccb0	-0.2632804
133	0x3eb306aa	0.34966022
134	0xbe548400	-0.20753479
135	0x3f53b8af	0.8270368
136	0xbed3955e	-0.41324896
137	0xbd7526d8	-0.059851497
138	0x3e0da2fc	0.13831705
139	0x3ecd1a20	0.40058994
140	0xbe2b6f8e	-0.16741773
141	0x3e06744e	0.13130304
142	0x3e33c7bf	0.17556666
143	0x3e8e5d76	0.2780568
144	0x3e92bc13	0.28659114
145	0x3e6b0937	0.22952734
146	0x3c95a41e	0.018266734
147	0x3ed762de	0.42067617
148	0x3f1010b5	0.5627549
149	0x3f10ed78	0.5661235
150	0x3e339a44	0.17539316
151	0xbea4dd26	-0.32199973
152	0xbe59690d	-0.2123148
153	0xbef9e475	-0.4880711
154	0x3e73d5b3	0.23811989
155	0x3ef16ed4	0.47154868
156	0x3cc6a02d	0.0242463
157	0x3ebb0d68	0.36533666
158	0x3de9cd62	0.11416127
159	0xbe90a597	-0.28251335
160	0x3eb92023	0.3615733
161	0x3edc8e2b	0.43077216
162	0x3ec124ca	0.3772338
163	0x3e3117a4	0.17294174
164	0x3d4a439f	0.049380895
165	0x3f0038d9	0.5008674
166	0x3eaf2b1b	0.34212574
167	0x3e00b221	0.12567951
168	0x3f0a1f5d	0.53954107
169	0xbeebd33c	-0.46059597
170	0x3e86be33	0.26316985
171	0xbed1c692	-0.4097181
172	0xbe63d4e8	-0.22249186
173	0xbec871ab	-0.39149222
174	0x3ec8bc31	0.3920608
175	0xbe879617	-0.26481697
176	0x3e51123c	0.20417112
177	0xbf008737	-0.5020632
178	0x3e0c6af7	0.13712679
179	0x3ca4459a	0.02005272
180	0xbe0d26e8	-0.13784373
181	0x3eb98aad	0.36238614
182	0x3eddbe47	0.43309233
183	0xbec6d715	-0.3883597
184	0xbd8c64d5	-0.0685517
185	0x3f048881	0.5177079
186	0x3eca0c11	0.3946233
187	0x3d930914	0.07179466
188	0x3ebf188e	0.3732342
189	0xbec0715d	-0.3758649
190	0xbea0fd86	-0.31443423
191	0x3d28deab	0.041227978
192	0x3efb035b	0.49025998
193	0x3eaf19d7	0.34199402
194	0x3e888b4b	0.26668772
195	0x3d0d3585	0.03447487
196	0x3e4fa845	0.20279033
197	0xbf46d11e	-0.7766284
198	0x3ca32887	0.019916786
199	0x3e803424	0.2503978
200	0x3ec0791a	0.37592393
201	0x3e0fdb68	0.1404854
202	0x3c8f06c2	0.017459277
203	0xbeda4043	-0.42627153
204	0x3e8123de	0.25222677
205	0x3eed4b04	0.46346295
206	0x3f10b757	0.56529754
207	0xbea6d8f3	-0.32587394
208	0x3e9a100f	0.30090377
209	0x3e85f1ec	0.26161134
210	0xbeb02be7	-0.34408495
211	0xbe334abc	-0.17508978
212	0x3e2ae4ac	0.16688794
213	0xbeb76e93	-0.3582655
214	0x3ec06b3d	0.37581816
215	0x3d570404	0.052494064
216	0x3f04dad1	0.5189639
217	0xbe88ab57	-0.26693222
218	0x3e858c75	0.26083723
219	0xbf0d15d6	-0.55111444
220	0xbec87c07	-0.39157125
221	0x3dbda1b0	0.09259355
222	0xbd868f67	-0.065703206
223	0x3f140009	0.57812554
224	0x3e45e44f	0.19325374
225	0x3e6520b7	0.22375761
226	0x3e2d72f1	0.16938378
227	0x3e932318	0.28737712
228	0x3ebcc638	0.3686998
229	0x3ec96d32	0.39341122
230	0xbb40f868	-0.0029444937
231	0x3f017485	0.5056842
232	0xbeac930d	-0.3370594
233	0x3f05de93	0.52292746
234	0xbefdf3c0	-0.4960003
235	0xbf07c9c7	-0.5304226
236	0xbecc6ecb	-0.39928278
237	0x3e64530b	0.22297303
238	0x3eff3791	0.4984708
239	0xbe38ad68	-0.18034899
240	0xbeea1b0f	-0.4572377
241	0x3d4a3fc3	0.049377214
242	0xbe166bf7	-0.14689623
243	0x3f0de5e0	0.55428886
244	0x3ece161d	0.40251246
245	0xbe78d625	-0.2430044
246	0x3ef73e5f	0.48289773
247	0xbdf6bad2	-0.12047352
248	0x3e8d099d	0.27546397
249	0x3e548d10	0.20756936
250	0xbea82f37	-0.32848522
251	0x3eb57e74	0.3544804
252	0x3ead8a26	0.3389446
253	0x3ea50548	0.32230592
254	0x3d1662d0	0.03671533
255	0xbf03a082	-0.5141679
