logs/nc/2020_1_18/8/model.pth (torch_old, 133505 bytes, 15 tensors)

encoder.layers.0.hy_linear.bias f4 [16]
-0.7994534 0.18293503 -1.4447293 -0.9027905 0.21662374 -0.031642318 -0.27896497 0.09510662
-0.25284088 -0.15926535 -0.117180414 0.92446566 0.48663095 -1.0490655 0.038662154 -1.0398854
00000000: faa8 4cbf 5253 3b3e e4ec b8bf 471d 67bf
00000010: 9dd2 5d3e 609b 01bd 7fd4 8ebe 42c7 c23d
00000020: 5c74 81be 7516 23be 49fc efbd c8a9 6c3f
00000030: b127 f93e c747 86bf 355c 1e3d f71a 85bf

encoder.layers.0.hy_linear.weight f4 [16, 1000]
-0.00023401872 -0.012868508 0.016576547 0.010365833 0.033715114 0.018904684 -0.0003362751 0.018830245
0.01014298 -0.002675997 0.03424073 -0.0011649968 0.014182706 0.0108648455 -0.0048374105 0.025201991
0.0001316365 -0.008552806 -0.0006591688 0.027802952 -0.01754414 -0.018448135 0.013418924 -0.00023957652
0.010830458 -0.0011269894 0.015235905 0.0034403868 0.017037854 0.0027832652 0.012043606 0.0074372087
0.018175242 -0.00260455 -0.00468063 0.009882036 0.0059051076 -0.009678572 0.01769466 0.0537513
0.041142233 0.011857524 -0.016143117 0.03995041 0.025468975 0.021635024 0.029027523 -0.0029199657
-0.0068714027 0.021792728 -0.0030375982 -0.020696824 0.008257023 0.0333917 -0.002064026 0.026583074
0.027447743 0.0031757797 -0.0140631115 -0.024409762 -0.007851596 0.016643481 0.014417695 0.018300774
0.025585486 0.014762348 0.013349404 0.023803798 0.008921228 0.01807659 0.0058025024 0.032394696
0.017570067 0.030476881 0.023971003 0.008301026 -0.0027440009 0.0032960782 0.004801258 0.021570137
0.011620717 0.012794984 0.0050968314 0.0031756435 0.024351267 -0.014239702 0.00735363 -0.008550783
-0.016623007 -0.0013090009 0.03280593 0.0051545333 0.020527678 0.006097723 0.012517732 0.04570465
0.036516547 -0.019311212 -0.01489835 -0.0011078846 -0.023263823 0.008318376 0.0028321538 -0.002672811
-0.05261622 -0.030350901 0.0023859232 -0.020293362 0.015487586 -0.0013802021 0.0063412166 0.00022553118
-0.013918658 0.01318159 0.031868767 0.008999839 0.014245391 -0.0027753909 -0.016647093 0.025199426
-0.0004956865 0.02178737 -0.0060831476 0.021339102 0.029941896 0.004590703 0.009194042 0.014091263
-0.013960094 0.013942121 -0.0058915196 0.018610064 -0.001291032 0.0009866083 0.03144138 0.014718316
0.05837457 0.0058254185 0.0049719205 -0.009971325 -0.0046141194 0.015669996 0.0071686218 0.015339656
0.0059064846 -0.0236441 0.018516036 0.009927566 0.012496086 0.0049015475 0.0014778711 -0.019452168
0.019021748 -0.01638165 0.013646708 -0.017943561 0.03550158 -0.0056332005 0.010587588 0.022628298
0.014883815 -0.00091853767 0.007728132 0.0046014055 0.057794906 -0.023518387 0.008250477 0.036494453
-0.0053883614 0.007401938 -0.020474846 -0.015147357 0.0127118 0.014629706 -0.014749806 0.009110677
-0.023553262 0.010703736 0.0028829114 -0.007159567 0.022428963 0.030700335 0.02709559 0.02364779
0.020671515 0.01980542 0.013573676 0.008939542 0.010338475 0.026087044 0.012431736 0.0015055418
-0.011489686 0.018904123 -0.010271012 -0.012568965 0.04203368 0.0017839234 -0.00090677233 -0.0019660795
0.010218728 -0.0014882811 -0.005390137 0.014035773 0.030746747 -0.001501599 -0.01977686 -0.014182393
-0.028792208 0.016863648 0.011168215 -0.004918959 -0.004347566 0.020689419 0.037335113 0.0033725335
-0.0011311303 0.011409643 -0.010976843 -0.0069122883 -0.01835965 0.01910919 0.012858776 0.026075738
0.0044316044 -0.012103 0.018326376 -0.00019243298 -0.011950584 0.0050506652 0.021665493 0.018225608
0.007563116 0.003323842 -0.0056730923 0.0010526612 0.0073920065 -0.031536873 0.008025269 -0.004532034
0.012387488 0.002046533 0.01099551 -0.007838983 -0.007902612 0.0029713344 -0.019812753 0.0036709157
0.0046898397 0.018714726 0.0035667524 0.0068787197 0.011470592 0.01002818 0.030237872 0.018684238
00000000: ec62 75b9 6fd6 52bc 8acb 873c 74d5 293c
00000010: dc18 0a3d ffdd 9a3c 144e b0b9 e341 9a3c
00000020: be2e 263c c85f 2fbb 0240 0c3d ceb2 98ba
00000030: 955e 683c 7702 323c 2483 9ebb 6874 ce3c
00000040: e707 0a39 1221 0cbc 12cc 2cba 04c3 e33c
00000050: bab8 8fbc 8b20 97bc 0cdb 5b3c d536 7bb9
00000060: 3c72 313c 7db7 93ba 04a0 793c 1d78 613b
00000070: f892 8b3c 7167 363b 8b52 453c d4b3 f33b
00000080: 3fe4 943c 19b1 2abb f85f 99bb 43e8 213c
00000090: a27f c13b e092 1ebc 64f4 903c 532a 5c3d
000000a0: c284 283d 0f46 423c 923e 84bc 0ba3 233d
000000b0: 50a4 d03c ef3b b13c 21cb ed3c e55c 3fbb
000000c0: 8129 e1bb aa86 b23c 7112 47bb 638c a9bc
000000d0: 7748 073c bcc5 083d 9c44 07bb bfc4 d93c
000000e0: 17da e03c be20 503b f768 66bc fbf6 c7bc
000000f0: fba3 00bc e957 883c 3238 6c3c 81eb 953c
00000100: a798 d13c c6dd 713c 75b7 5a3c 2f00 c33c
00000110: 582a 123c 5b15 943c eb22 be3b 4db0 043d
00000120: 1aef 8f3c a7aa f93c d65e c43c 0701 083c
00000130: b2d4 33bb 0403 583b df53 9d3b dbb3 b03c
00000140: d264 3e3c 0da2 513c 5203 a73b 751e 503b
00000150: 4f7c c73c a44d 69bc b8f6 f03b 9518 0cbc
00000160: f92c 88bc c892 abba 835f 063d 5ce7 a83b
00000170: a929 a83c 68cf c73b 2c17 4d3c cd34 3b3d
00000180: 6092 153d 8c32 9ebc 3618 74bc 7036 91ba
00000190: c693 bebc cc49 083c a89b 393b 542a 2fbb
000001a0: 1b84 57bd 74a2 f8bc 265d 1c3b 443e a6bc
000001b0: a5bf 7d3c e6e7 b4ba fbc9 cf3b 917c 6c39
000001c0: 150b 64bc 98f7 573c d388 023d 1074 133c
000001d0: 8065 693c 55e3 35bb 7c5f 88bc 076f ce3c
000001e0: f5f0 01ba 6d7b b23c 2455 c7bb 57cf ae3c
000001f0: b548 f53c 9c6d 963b 9ba2 163c 0adf 663c
00000200: e1b8 64bc 7e6d 643c a60d c1bb 2274 983c
00000210: d837 a9ba 1551 813a adc8 003d 1725 713c
00000220: 2c1a 6f3d 27e3 be3b 7eeb a23b c55e 23bc
00000230: 0a32 97bb 5d5e 803c c2e6 ea3b 2e53 7b3c
00000240: 2f8b c13b 46b1 c1bc f1ae 973c 3ba7 223c
00000250: 62bc 4c3c 299d a03b 20b5 c13a 275a 9fbc
00000260: 7fd3 9b3c cf32 86bc 7196 5f3c 60fe 92bc
00000270: 1b6a 113d b696 b8bb 9077 2d3c fb5e b93c
00000280: 3fdb 733c 05ca 70ba 453c fd3b 63c7 963b
00000290: 5aba 6c3d a2a9 c0bc 022d 073c 357b 153d
000002a0: da90 b0bb f58b f23b ddba a7bc 9f2c 78bc
000002b0: 2745 503c 6fb1 6f3c 2ca9 71bc f344 153c
000002c0: c5f2 c0bc b95e 2f3c 3aef 3c3b cd9a eabb
000002d0: f2bc b73c 457f fb3c 92f7 dd3c 03b9 c13c
000002e0: 4f57 a93c fa3e a23c 2064 5e3c 2877 123c
000002f0: b562 293c 7fb4 d53c 7bae 4b3c 9a55 c53a
00000300: 3c3f 3cbc d2dc 9a3c bf47 28bc 0fee 4dbc
00000310: 822b 2c3d 89d2 e93a 76b4 6dba 57d9 00bb
00000320: 746c 273c 6d12 c3ba bf9f b0bb 4df6 653c
00000330: 9ae0 fb3c 4dd1 c4ba 1503 a2bc 455d 68bc
00000340: a3dd ebbc a225 8a3c e4fa 363c 382f a1bb
00000350: 0776 8ebb db7c a93c b4ec 183d b905 5d3b
00000360: 6f42 94ba 83ef 3a3c 37d8 33bc 7a80 e2bb
00000370: fa66 96bc e08a 9c3c 9ead 523c c99c d53c
00000380: fe36 913b a94b 46bc 3221 963c d6c7 49b9
00000390: 62cc 43bc 0d80 a53b d57b b13c df4d 953c
000003a0: 04d4 f73b d1d4 593b 59e5 b9bb 73f9 893a
000003b0: a538 f23b cf2c 01bd 6b7c 033c 7581 94bb
000003c0: e4f4 4a3c 201f 063b 8326 343c 146f 00bc
000003d0: f579 01bc b8ba 423b 5b4e a2bc bf93 703b
000003e0: 3aad 993b a04f 993c 2dc0 693b e266 e13b
000003f0: 26ef 3b3c 3c4d 243c 6ab5 f73c b00f 993c

encoder.layers.0.conv.att f4 [1, 1, 32]
-0.15344098 -0.055235855 0.14457588 0.60886735 -0.11716914 -0.008205405 0.6200049 -0.3163587
-0.19418654 -0.22879778 -0.055658586 -0.24571258 -0.049105767 0.88368446 0.35424238 0.5726992
-0.15274239 -0.052760195 0.0584618 1.0098498 -0.120257944 -0.02590844 1.0942849 -0.2315971
-0.2079038 -0.22728893 -0.046217117 -0.25896767 -0.037880477 1.3276165 1.0579787 0.92828965
00000000: a21f 1dbe fe3e 62bd b30b 143e bbde 1b3f
00000010: 60f6 efbd f76f 06bc a4b8 1e3f c4f9 a1be
00000020: d6d8 46be f749 6abe 42fa 63bd 149c 7bbe
00000030: 2123 49bd 2539 623f 425f b53e 6a9c 123f
00000040: 8068 1cbe 131b 58bd a475 6f3d c242 813f
00000050: cc49 f6bd f03d d4bc 8711 8c3f ca27 6dbe
00000060: bce4 54be 6ebe 68be 294e 3dbd 6997 84be
00000070: 8f28 1bbd 56ef a93f d96b 873f 64a4 6d3f

encoder.layers.0.conv.bias f4 [16]
-0.10322211 -0.08935915 -0.13102347 0.18726093 -0.12573306 -0.107341066 0.26502007 0.72722363
-0.055982463 -0.092365645 -0.10638283 -0.056593798 -0.057279587 0.30744445 0.9414703 0.19372608
00000000: 1d66 d3bd ee01 b7bd 042b 06be 54c1 3f3e
00000010: 2bc0 00be a2d5 dbbd b6b0 873e 542b 3a3f
00000020: de4d 65bd 332a bdbd 3edf d9bd e6ce 67bd
00000030: 009e 6abd 5c69 9d3e 3304 713f 2160 463e

encoder.layers.0.conv.linear.weight f4 [16, 16]
0.042096615 0.007845921 0.04799716 0.0471324 -0.014147773 0.05558777 0.011526395 -0.051367607
0.031359516 0.06153999 0.035251696 -0.041419264 -0.02933829 0.04217992 -0.053186283 0.059707876
0.022077147 0.004550252 0.019278895 0.02545875 -0.0049344464 0.020757005 -0.0022863895 -0.020094553
0.01295561 0.02444583 0.017129786 -0.017966088 -0.014067125 0.016635988 -0.021896683 0.030639816
0.042115077 -0.054763004 0.041441098 0.035955347 -0.06992487 0.04450606 0.06192638 -0.024520464
0.098053046 0.1635296 0.081055775 -0.045396548 -0.033629954 0.0449372 -0.07670789 0.0340055
-0.002843373 -0.12003131 -0.053051364 0.028420573 -0.18175344 -1.0250461 0.09349345 0.7482345
-0.26583916 -1.1311074 -0.40828192 0.033231758 -0.17211825 -0.04490658 0.946857 -0.10087994
0.0924751 -0.039270077 0.081302434 0.08678271 -0.046061654 0.008534334 0.056192197 -0.00563337
0.051988102 0.011680633 0.013367708 -0.08038268 -0.085359834 0.08201244 -0.010286068 0.08461886
-0.0114528155 0.0010954908 -0.0017258524 -0.009172623 -0.0064103813 0.004030848 0.00017718453 -0.0012136264
0.0042823274 -0.0023069035 0.0013326792 0.008607731 0.019175353 -0.006424128 -0.006643024 -0.0048812735
0.033621166 -0.15191785 -0.051078398 0.11398498 -0.2448387 -1.054158 0.13590243 0.7835725
-0.35903314 -1.248634 -0.44116494 0.009508932 -0.28499314 -0.010903276 0.98951876 -0.15342548
0.040839437 -0.032127507 0.044660695 0.062716804 -0.055631436 -0.14964195 0.022703536 0.10878225
-0.0067193643 -0.10426376 -0.028222697 -0.02870434 -0.06390642 0.036992684 0.10706641 0.07332634
0.06691851 -0.0072795716 0.091280304 0.0735484 -0.00958659 0.07749844 0.019495808 -0.06970189
0.049270358 0.07312481 0.055752803 -0.07269165 -0.034094784 0.0786024 -0.07524848 0.08170067
0.07734681 -0.014812879 0.07437858 0.07723325 -0.03123631 0.06918086 0.03406532 -0.07484372
0.058097832 0.09060091 0.06216086 -0.0694635 -0.053163048 0.07194383 -0.07854506 0.077440776
0.0042341375 0.0025048289 0.002888445 0.0033688156 -0.01879985 0.015482782 0.011399572 -0.009812116
0.019220943 0.014218888 0.011895164 -0.008555394 0.002056757 0.0047397157 -0.018078037 0.016669853
0.07563172 -0.0022776346 0.08412495 0.07018116 -0.019355686 0.09228694 0.020680178 -0.08565682
0.06383506 0.102760695 0.071606986 -0.07828324 -0.04249045 0.07808696 -0.09328679 0.094420776
0.016792359 0.007582326 0.028326973 0.026351202 0.0016413032 0.014167707 -0.008858041 -0.011210095
0.0010693604 0.0048344666 0.007117692 -0.010962066 -0.0027380513 0.0143062435 -0.012732587 0.039687257
0.05737937 -0.20947415 -0.03394589 0.08362929 -0.30617586 -1.4005436 0.17283373 1.0265592
-0.47559863 -1.5844754 -0.6223792 0.031033969 -0.29754564 -0.041069735 1.3442347 -0.18700168
0.101517536 -0.25544232 0.01951495 0.13757618 -0.33593875 -1.4883444 0.20858876 1.0487709
-0.40951866 -1.3818512 -0.595628 -0.028739499 -0.2985987 0.030036079 1.298068 -0.09755929
0.027085483 -0.12882718 -0.02193206 0.04550505 -0.16448154 -0.84486973 0.117638275 0.61058193
-0.2510992 -0.97613436 -0.33200926 0.03193368 -0.16701016 -0.024725484 0.7245053 -0.08386903
00000000: 806d 2c3d 2e8c 003c ac98 443d e70d 413d
00000010: 10cc 67bc 00b0 633d 34d9 3c3c d766 52bd
00000020: d672 003d 5b11 7c3d 1564 103d 3fa7 29bd
00000030: db56 f0bc dac4 2c3d dcd9 59bd 3f90 743d
00000040: 22db b43c 481a 953b c6ee 9d3c de8e d03c
00000050: 23b1 a1bb 980a aa3c 40d7 15bb 559d a4bc
00000060: c443 543c 9f42 c83c c453 8c3c 9e2d 93bc
00000070: cc79 66bc 3248 883c ac60 b3bc 5a00 fb3c
00000080: dc80 2c3d 2c4f 60bd 24be 293d ea45 133d
00000090: c534 8fbd fd4b 363d 84a6 7d3d 24df c8bc
000000a0: 09d0 c83d 4e74 273e 9200 a63d bbf1 39bd
000000b0: 90bf 09bd 1210 383d 0719 9dbd 5a49 0b3d
000000c0: e257 3abb fad2 f5bd 634c 59bd 43d2 e83c
000000d0: 931d 3abe b634 83bf 7e79 bf3d 4c8c 3f3f
000000e0: 121c 88be 21c8 90bf 540a d1be 061e 083d
000000f0: c43f 30be f6ef 37bd 3865 723f 249a cebd
00000100: 9663 bd3d a9d9 20bd e481 a63d 22bb b13d
00000110: 25ab 3cbd 97d3 0b3c ca29 663d 2298 b8bb
00000120: 7af1 543d 2060 3f3c 3b04 5b3c ad9f a4bd
00000130: 23d1 aebd 23f6 a73d e586 28bc a74c ad3d
00000140: 97a4 3bbc 9296 8f3a ff35 e2ba c548 16bc
00000150: 2d0e d2bb 3415 843b 9cca 3939 8b12 9fba
00000160: c452 8c3b 6b2f 17bb 4bad ae3a 7107 0d3c
00000170: a115 9d3c 7e81 d2bb b9ad d9bb 17f3 9fbb
00000180: 59b6 093d 5a90 1bbe 9537 51bd f570 e93d
00000190: ffb6 7abe a6ee 86bf 022a 0b3e 3598 483f
000001a0: 31d3 b7be 3dd3 9fbf 5fe0 e1be 5acb 1b3c
000001b0: 9fea 91be a7a3 32bc 1a51 7d3f 921b 1dbe
000001c0: 4147 273d 2298 03bd 22ee 363d ab71 803d
000001d0: cadd 63bd bd3b 19be c4fc b93c 3ac9 de3d
000001e0: 1d2e dcbb 3d88 d5bd 4933 e7bc 5d25 ebbc
000001f0: 5ee1 82bd a485 173d a245 db3d 1f2c 963d
00000200: 920c 893d 7989 eebb 2bf1 ba3d 8ba0 963d
00000210: 1311 1dbc 81b7 9e3d acb5 9f3c ddbf 8ebd
00000220: b7cf 493d 76c2 953d 0d5d 643d 5cdf 94bd
00000230: f9a6 0bbd 4cfa a03d e01b 9abd ae52 a73d
00000240: 0168 9e3d b8b1 72bc cc53 983d 772c 9e3d
00000250: 4ae3 ffbc b2ae 8d3d 1488 0b3d aa47 99bd
00000260: fef7 6d3d f88c b93d 639c 7e3d e142 8ebd
00000270: 7fc1 59bd 4957 933d 3bdc a0bd 4599 9e3d
00000280: 85be 8a3b 0e28 243b 114c 3d3b 59c7 5c3b
00000290: 2502 9abc 7fab 7d3c 45c5 3a3c ffc2 20bc
000002a0: 3d75 9d3c 57f6 683c efe3 423c ec2b 0cbc
000002b0: a8ca 063b 9e4f 9b3b 6418 94bc 378f 883c
000002c0: cee4 9a3d 5e44 15bb b449 ac3d 24bb 8f3d
000002d0: d18f 9ebc ef00 bd3d 7a69 a93c d86c afbd
000002e0: f5bb 823d 3374 d23d afa6 923d f752 a0bd
000002f0: 770a 2ebd 0eec 9f3d 250d bfbd ae5f c13d
00000300: 2190 893c 2975 f83b f80d e83c 7ade d73c
00000310: ff20 d73a ac1f 683c 5121 11bc 8caa 37bc
00000320: c829 8c3a 726a 9e3b 873b e93b 3d9a 33bc
00000330: e170 33bb bc64 6a3c 579c 50bc 1b8f 223d
00000340: a106 6b3d 6480 56be d80a 0bbd d545 ab3d
00000350: 15c3 9cbe 0345 b3bf 53fb 303e 4b66 833f
00000360: aa81 f3be 17d0 cabf 3e54 1fbf f33a fe3c
00000370: e757 98be bd38 28bd e20f ac3f 5e7d 3fbe
00000380: 6de8 cf3d 56c9 82be d1dd 9f3c c5e0 0c3e
00000390: 2a00 acbe 1282 bebf 4b98 553e 203e 863f
000003a0: 6eac d1be 80e0 b0bf 147b 18bf 196f ebbc
000003b0: eee1 98be 390e f63c 1827 a63f 2acd c7bd
000003c0: 60e2 dd3c 46eb 03be ddaa b3bc 8163 3a3d
000003d0: d96d 28be 6249 58bf 56ec f03d 194f 1c3f
000003e0: 1390 80be f1e3 79bf 1efd a9be e4cc 023d
000003f0: b604 2bbe 198d cabc 2e79 393f 87c3 abbd

encoder.layers.0.conv.linear.bias f4 [16]
-0.032814205 0.07357786 -0.09911877 0.0676931 0.028391957 -0.069206536 0.18403815 -0.2510292
0.04921585 0.03522638 -0.05411363 -0.026150512 -0.046047714 0.25629523 -0.22127719 0.09509454
00000000: 3068 06bd fdaf 963d c8fe cabd aea2 8a3d
00000010: 4096 e83c 28bc 8dbd 7f74 3c3e e686 80be
00000020: 8f96 493d 8949 103d 41a6 5dbd 9939 d6bc
00000030: 879c 3cbd 2139 833e 7d96 62be edc0 c23d

encoder.layers.0.conv_e.weight f4 [1000, 16]
-0.0006644135 6.1589655e-13 -6.8064613e-13 -0.0026317362 -0.0028756184 -1.2351475e-12 5.9502843e-09 -1.4763157e-12
4.9216837e-13 -0.0012528371 -3.695969e-13 2.1061141e-13 -0.0020277668 -1.9175499e-12 -0.0021782704 -0.0031099734
0.008731323 1.610329e-12 -1.4129403e-13 0.00424753 0.006937382 -9.580174e-13 2.6570312e-08 7.89236e-13
1.4740478e-12 0.0069041 1.0218702e-12 -5.220341e-13 0.00475439 1.1435839e-12 0.0056924378 0.0031928474
0.002600573 5.958825e-13 -9.826587e-13 0.000520952 0.00026458155 -1.4885749e-12 1.37005e-08 8.355501e-13
4.4387462e-13 -0.001178237 -8.615468e-13 7.150944e-13 -0.0034066949 1.3578829e-12 -0.0029343537 0.00066967064
0.006612619 -1.6122223e-12 -2.9194393e-14 0.0055269357 0.006744923 -2.342652e-13 4.4441947e-08 1.088118e-12
1.6227404e-12 0.0061591817 2.2140634e-13 -1.1798525e-12 0.0067337253 -1.0430685e-12 0.0056985826 0.0045862845
-0.0011886571 2.4890823e-13 7.9823496e-13 -0.00032352054 -0.0019170766 1.045391e-12 4.1591203e-08 -7.550296e-13
-1.5111687e-12 -0.0017974448 5.398116e-13 -4.2680627e-13 -0.0012846437 3.6294475e-13 -0.0029522043 -0.002935269
0.0034006205 4.1038893e-13 4.8501605e-13 0.0038816913 0.0044201096 4.3220645e-16 2.4692314e-08 -1.6859735e-12
-5.1879166e-13 0.0037633374 8.326972e-13 -7.3792914e-13 0.0027831225 5.223807e-13 0.0034245409 0.004433426
-0.0014780576 -3.50684e-13 1.1128547e-12 -0.0021052798 -0.0077753584 2.8705537e-13 1.29143745e-08 -3.5478798e-13
4.482663e-13 -0.004846411 4.8292067e-13 -3.5529105e-13 -0.0021963075 3.6147393e-13 -0.005129203 -0.0031453432
-0.0006830659 3.0245134e-13 1.0405389e-12 -0.001332098 -0.0057079885 8.128092e-13 2.4280356e-08 -8.9405073e-13
2.713281e-13 -0.0021977166 -1.7319867e-13 -3.3545722e-13 -0.00092473684 2.3058045e-13 -0.0015788367 -0.0039255186
0.0049323114 8.298944e-13 -8.940813e-13 0.0050900737 0.005270219 -1.0161544e-12 6.5253104e-08 -1.3857367e-12
6.158152e-13 0.0068253023 3.829065e-14 -5.205962e-13 0.005915793 3.1502763e-13 0.004395982 0.0063781287
0.00023720508 -1.0333801e-12 -1.411286e-12 0.0023280762 0.0018599783 -3.358375e-14 -1.1756843e-07 1.7064114e-12
-1.5340745e-12 9.694186e-05 1.5762585e-13 -1.5988883e-12 -0.0010366839 9.83457e-13 -0.0010303521 -0.0014506609
-0.0018396736 -1.2540833e-12 6.7580533e-13 -0.0021834157 -0.0018932173 -6.057276e-13 7.857362e-08 -8.531289e-13
-6.8056265e-13 -0.0014139911 1.6193997e-12 3.091126e-13 -0.0018878474 1.3258122e-12 -0.002401949 -0.0023305344
-0.0006032124 5.4200606e-13 4.930442e-13 3.3365097e-05 0.0015543753 2.8544037e-13 7.0708346e-08 4.624367e-13
1.1373743e-12 -0.0019402001 7.0995434e-13 4.276021e-13 5.289913e-05 -1.1852496e-12 0.0020294362 -0.0026003793
0.0032280206 1.083397e-12 1.3028528e-13 0.0014703757 0.0040821335 -1.1173411e-12 1.7878559e-08 2.3641625e-13
-4.9689495e-13 0.0022433226 1.1946057e-13 -1.4121828e-12 0.00081489416 -1.1463326e-12 0.0004987919 0.0012115731
0.0034208307 1.1413467e-13 -2.5696052e-13 0.0021365066 0.002196246 1.3848376e-12 4.896439e-08 8.7076077e-13
5.2660445e-14 0.0010960682 -1.9787848e-13 -3.7939438e-13 -0.0011238579 3.535978e-13 0.0021370465 0.0021534788
-0.003038513 1.6003233e-12 3.2604247e-13 -0.0036011687 -0.0062313327 -2.1438091e-13 -1.29126345e-08 -2.403109e-15
1.9693012e-13 -0.0031619049 -1.6350195e-12 1.5088285e-13 -0.001418531 -5.0291016e-13 -0.0019816686 -0.0033326037
-0.0046934164 4.078116e-13 -1.9396804e-13 -0.00037119773 -0.0008171517 -2.7513254e-13 2.1568558e-09 4.539848e-13
-3.987985e-13 0.0016844562 3.6342324e-13 1.3848468e-12 0.0036445586 3.3591633e-13 -0.002788808 -0.0007767503
00000000: 092c 2eba 065c 2d2b b995 3fab 3579 2cbb
00000010: df74 3cbb e1d4 adab 4173 cc31 e1c5 cfab
00000020: 7888 0a2b 3d36 a4ba 8710 d0aa 9b20 6d2a
00000030: 48e4 04bb 82ef 06ac 50c1 0ebb b2d0 4bbb
00000040: d30d 0f3c 37a2 e22b 3b15 1faa dd2e 8b3b
00000050: fa52 e33b 37d4 86ab bc3c e432 7326 5e2b
00000060: 2b74 cf2b ca3b e23b c1d0 8f2b 85f0 12ab
00000070: b7ca 9b3b f4f1 a02b a187 ba3b 173f 513b
00000080: 606e 2a3b dcb9 272b 034c 8aab 7f90 083a
00000090: 89b7 8a39 907f d1ab 705f 6b32 bb2f 6b2b
000000a0: 13e1 f92a 136f 9aba fd80 72ab fb47 492b
000000b0: db42 5fbb e31a bf2b 494e 40bb d68c 2f3a
000000c0: abae d83b 6ee6 e2ab d87a 03a9 4c1b b53b
000000d0: 8404 dd3b 2ce1 83aa 70e0 3e33 9523 992b
000000e0: 6261 e42b f6d2 c93b 0848 792a ab0c a6ab
000000f0: 95a6 dc3b 81cc 92ab 2dbb ba3b 8b48 963b
00000100: b7cc 9bba 751f 8c2a e4ae 602b 319e a9b9
00000110: 6b46 fbba 2e20 932b 03a2 3233 9e85 54ab
00000120: 97ad d4ab 3d98 ebba 86f1 172b 4445 f0aa
00000130: 7d61 a8ba da51 cc2a c579 41bb a45d 40bb
00000140: f2dc 5e3b 4707 e72a 1785 082b f963 7e3b
00000150: 91d6 903b 6a26 f925 f91a d432 9947 edab
00000160: e106 12ab 53a2 763b 2862 6a2b 66b5 4fab
00000170: 0c65 363b 7f09 132b 436e 603b 4646 913b
00000180: 62bb c1ba e46a c5aa d19e 9c2b bcf8 09bb
00000190: 6fc8 febb 0a99 a12a 05de 5d32 56ba c7aa
000001a0: fb59 fc2a a4ce 9ebb 1aee 072b d602 c8aa
000001b0: edef 0fbb e27d cb2a e012 a8bb 1a22 4ebb
000001c0: c70f 33ba d543 aa2a 5d71 922b cb99 aeba
000001d0: 140a bbbb 13c9 642b 1191 d032 25a7 7bab
000001e0: 80be 982a 9107 10bb 1e01 43aa 7bd8 bcaa
000001f0: 0a6a 72ba 25ce 812a f8f0 ceba a3a1 80bb
00000200: 3a9f a13b 3298 692b 59a9 7bab a2ca a63b
00000210: cdb1 ac3b d202 8fab 4621 8c33 6d06 c3ab
00000220: 2956 2d2b c9a6 df3b 1d72 2c29 e988 12ab
00000230: 45d9 c13b 4458 b12a 2b0c 903b 9fff d03b
00000240: 41ba 7839 716f 91ab f09e c6ab a392 183b
00000250: 84ca f33a 6d3f 17a9 ee79 fcb3 f327 f02b
00000260: dce6 d7ab 444d cb38 8f78 312a 0606 e1ab
00000270: 57e1 87ba c668 8a2b e10c 87ba 1a24 beba
00000280: 3421 f1ba 1d7f b0ab e838 3e2b a317 0fbb
00000290: d525 f8ba 467f 2aab 4ebc a833 6a22 70ab
000002a0: b58f 3fab ab55 b9ba 06e9 e32b d203 ae2a
000002b0: a671 f7ba 6b97 ba2b 046a 1dbb e1bb 18bb
000002c0: e620 1eba a78f 182b 94c7 0a2b 80f1 0b38
000002d0: 2ebc cb3a 4bb0 a02a 53d8 9733 132a 022b
000002e0: 3a12 a02b 504e feba 9ad5 472b f5b7 f02a
000002f0: 02e0 5d38 1ecf a6ab 4a00 053b 206b 2abb
00000300: 338d 533b 7e79 982b 2db0 122a 9fb9 c03a
00000310: 6bc3 853b 7540 9dab 5e93 9932 2c17 852a
00000320: 0edd 0bab b504 133b 2a80 062a 3fbf c6ab
00000330: 9f9e 553a fc54 a1ab 5cc1 023a a6cd 9e3a
00000340: 0430 603b 1481 002a eaa7 90aa a204 0c3b
00000350: e5ee 0f3b 08e6 c22b eb4c 5233 ed18 752b
00000360: 5c29 6d29 f2a9 8f3a 97ca 5eaa 7e94 d5aa
00000370: 6a4e 93ba d00e c72a b10d 0c3b 6121 0d3b
00000380: ca21 47bb b939 e12b ac8b b72a 9601 6cbb
00000390: 3530 ccbb 175f 71aa 5ed6 5db2 8929 2da7
000003a0: 3eb9 5d2a f637 4fbb c91b e6ab 05e1 292a
000003b0: 01ee b9ba 7f8e 0dab e2de 01bb d067 5abb
000003c0: 3bcb 99bb d893 e52a 7b63 5aaa 519d c2b9
000003d0: 1f36 56ba c7e2 9aaa cf37 1431 1b92 ff2a
000003e0: ec80 e0aa f9c8 dc3a cf96 cc2a 5de6 c22b
000003f0: 8cd9 6e3b a51a bd2a 6fc4 36bb d59e 4bba

encoder.layers.0.conv_e.bias f4 [16]
0.3188839 -0.01027738 -0.010445306 0.5435028 0.63618815 -0.000733438 -7.690387e-07 -0.016765136
-0.00095590285 0.7703809 -4.8189322e-05 -0.0035460661 0.5658988 -0.0013679129 0.39667308 0.6833751
00000000: c044 a33e 7562 28bc ca22 2bbc 0023 0b3f
00000010: 3add 223f 3144 40ba f06f 4eb5 0a57 89bc
00000020: 8e95 7aba af37 453f e41e 4ab8 1e65 68bb
00000030: bede 103f 8a4b b3ba bc18 cb3e acf1 2e3f

decoder.scale f4 [2]
0.49504608 0.6625393
00000000: ae76 fd3e 2d9c 293f

decoder.point f4 [2, 16]
0.0008349236 -0.18311574 0.005568494 0.04675435 0.0056429165 0.14654098 -0.028143905 -0.07317711
0.007906041 0.0015289036 -0.2252307 -0.0025247901 0.059790514 -0.05552304 -0.031619307 0.13958432
0.027069053 0.0030964806 0.07277313 0.16983555 -0.036167506 -0.09198582 0.058392566 0.065547004
0.00064463244 0.038839165 0.0752963 0.0030378057 0.08346471 0.020606093 0.04237785 -0.01373783
00000000: c6de 5a3a b182 3bbe ea77 b63b 7d81 3f3d
00000010: 37e8 b83b d70e 163e 0c8e e6bc e1dd 95bd
00000020: 5788 013c 7e65 c83a e0a2 66be f376 25bb
00000030: e6e6 743d 216c 63bd 3f83 01bd 31ef 0e3e
00000040: ebbf dd3c 53ee 4a3b 140a 953d 5fe9 2d3e
00000050: 6124 14bd 1063 bcbd 0b2d 6f3d 823d 863d
00000060: 8dfc 283a d115 1f3d f234 9a3d ec15 473b
00000070: 8cef aa3d 1cce a83c 6594 2d3d a314 61bc

decoder.tangent f4 [2, 16]
-0.00309524 0.19430318 -0.21968544 0.21473531 -0.018683514 -0.043540746 0.27306503 0.09731815
0.009478955 0.0010656344 -0.17960957 -0.003699851 0.12732416 0.20826605 0.7668895 0.14901316
-0.01896038 0.024678772 0.07114077 -0.33207813 0.013332761 0.13273673 -0.29077476 -0.09455827
-0.0016126318 -0.025102835 0.040268216 0.0022088704 0.023162192 -0.4904932 -0.6909506 -0.12822784
00000000: 83d9 4abb 6af7 463e 38f5 60be 93e3 5b3e
00000010: 2b0e 99bc c857 32bd 2ecf 8b3e bd4e c73d
00000020: 9e4d 1b3c c2ac 8b3a 92eb 37be 3379 72bb
00000030: 4461 023e b243 553e df52 443f e896 183e
00000040: cd52 9bbc 232b ca3c 41b2 913d 2506 aabe
00000050: a771 5a3c 23ec 073e 6ee0 94be c4a7 c1bd
00000060: f25e d3ba 76a4 cdbc 49f0 243d b2c2 103b
00000070: a3be bd3c ed21 fbbe 23e2 30bf 294e 03be

decoder.cls.weight f4 [16, 2]
-0.36408046 0.35535005 -1.30417534e-11 1.2171289e-12 9.05534e-12 -3.7079447e-11 -0.5517402 0.55104816
-0.60322225 0.5956342 -1.0140084e-12 -3.0090725e-13 2.5231915e-07 -2.5550972e-07 4.8814867e-12 -3.808422e-11
-3.7595756e-12 6.03788e-12 -0.64209825 0.64181817 3.3128417e-11 -3.5755786e-12 2.576704e-13 1.7709152e-11
-0.6091361 0.59959924 -5.6596507e-12 2.5362172e-11 -0.43107188 0.44116938 -0.61871594 0.61607146
00000000: c168 babe 71f0 b53e d66e 65ad b14b ab2b
00000010: a04d 1f2d bf13 23ae d93e 0dbf 7e11 0d3f
00000020: c66c 1abf 7c7b 183f 81b5 8eab 4e65 a9aa
00000030: 7b76 8734 fd2c 89b4 86c0 ab2c 057f 27ae
00000040: 3f47 84ac 6370 d42c 8d60 24bf 324e 243f
00000050: 48b3 112e e69b 7bac 380e 912a 77c5 9b2d
00000060: 58f0 1bbf 567f 193f 9a21 c7ac 8916 df2d
00000070: 74b5 dcbe f4e0 e13e 2b64 1ebf dcb6 1d3f

decoder.cls.bias f4 [2]
-0.12131863 0.12131863
00000000: e775 f8bd e775 f83d

decoder.w_e.weight f4 [1, 16]
0.1260249 7.108432e-14 -3.6774928e-12 -0.015809432 -0.011476082 -7.4816656e-13 -2.1586895e-06 -4.8465594e-12
4.7053797e-12 -0.0407966 -2.1528536e-12 7.946536e-13 0.02653326 4.308539e-12 0.07968832 -0.06168735
00000000: ac0c 013e 5211 a029 e963 81ac c882 81bc
00000010: 2d06 3cbc 1597 52ab 01de 10b6 ed85 aaac
00000020: 4b8e a52c 561a 27bd 5d7e 17ac d4ac 5f2b
00000030: 475c d93c df97 972c a133 a33d e0ab 7cbd

decoder.w_h.weight f4 [1, 16]
-0.11418742 -0.24950947 0.070356995 0.38165012 -0.28606227 0.02030239 0.4114453 0.41047758
-0.17358747 -0.29624218 0.00043024353 -0.022181086 -0.0043697353 0.49104086 0.52284235 0.55565476
00000000: 18db e9bd 697f 7fbe 5417 903d a567 c33e
00000010: c176 92be 3351 a63c f5a8 d23e 1e2a d23e
00000020: eac0 31be 0ead 97be 4f92 e139 1cb5 b5bc
00000030: ff2f 8fbb b569 fb3e ffd8 053f 643f 0e3f
