logs/nc/2020_1_18/0/model.pth (torch_old, 478871 bytes, 13 tensors)

encoder.layers.0.conv.att f4 [1, 1, 32]
0.3898903 -0.09246314 -0.32765305 -0.038375434 -0.11431184 -0.10440523 0.21285655 -0.19977808
0.19611461 0.30455583 0.05777379 0.36483687 -0.08265186 -0.10473776 0.12822035 0.24053833
0.45372665 -0.10340391 -0.35949948 -0.041328024 -0.12729253 -0.11634178 0.19091399 -0.22086485
0.2062949 0.35548744 0.08990832 0.33810145 -0.09215813 -0.11678811 0.11626226 0.23526867
00000000: b49f c73e 515d bdbd 24c2 a7be 8f2f 1dbd
00000010: 531c eabd 69d2 d5bd 11f7 593e a092 4cbe
00000020: 45d2 483e beee 9b3e 36a4 6c3d e6cb ba3e
00000030: 6145 a9bd c080 d6bd 324c 033e ae4f 763e
00000040: dc4e e83e 6ec5 d3bd 5110 b8be 9347 29bd
00000050: f958 02be 9944 eebd f57e 433e 652a 62be
00000060: f83e 533e 7302 b63e da21 b83d a21b ad3e
00000070: 67bd bcbd 9b2e efbd e81a ee3d 45ea 703e

encoder.layers.0.conv.bias f4 [16]
0.7243462 -0.0020390875 -0.08032908 -0.024134232 -0.0017677695 -0.010053759 0.44726574 -0.0004599118
0.2831923 0.46520963 0.17534177 0.51411194 -0.005074671 -0.0035606856 0.5140863 0.4210998
00000000: c16e 393f 36a2 05bb 9383 a4bd 27b5 c5bc
00000010: 80b4 e7ba 86b8 24bc 0400 e53e 5120 f1b9
00000020: 95fe 903e f52f ee3e cb8c 333e d79c 033f
00000030: 6d49 a6bb 645a 69bb 299b 033f 659a d73e

encoder.layers.0.conv.linear.weight f4 [16, 3703]
-0.062028866 0.06715441 -0.038554642 0.012778344 0.12689185 0.029409526 -0.0013855246 -0.015667958
-0.03131787 -0.024519973 -0.011041049 -0.1711142 -0.035341606 0.08773037 0.12932506 -0.021787973
-0.11163013 -0.010218536 0.0017421572 -0.07551276 0.05650755 0.025682285 -0.30601284 -0.01784384
0.051308405 0.050515536 -0.017799415 0.12698898 -0.03919461 0.09342911 -0.007855489 -0.020257348
-0.3641028 -0.023045802 -0.06993576 0.28135103 0.093537875 0.13683505 0.05176569 0.028529821
-0.02572438 -0.02725628 0.08065198 0.04566051 -0.06880973 0.027673353 0.115618564 -0.05783712
0.0024253598 0.028645637 -0.0019241082 -0.1234981 -0.095379956 -0.09006266 -0.1568136 -0.00405481
0.020872736 0.05233192 -0.057567734 0.0043548737 -0.019661631 0.0936925 -0.028929086 0.0043022237
0.009846432 0.16977562 0.032470856 0.0111426 0.01583347 0.09088534 0.021833304 -0.008520689
0.04415417 0.13556501 0.096020155 0.037158005 0.09085153 0.043967925 -0.012502926 0.011851839
-0.078031324 -0.043131758 -0.07479 0.020648718 0.0092945155 -0.03032536 0.09398635 -0.025309123
0.022120792 0.015983496 0.018014587 -0.03090826 -0.03003307 0.018228343 -0.018884225 0.11563044
0.06624501 -0.020607797 0.04250716 -0.0074563157 0.012510818 0.11714426 0.27614745 0.03049335
-0.0024304956 -0.08497127 -0.01704234 0.0085714515 0.0414456 0.058260284 0.022197988 0.0142694395
0.009679809 -0.040592927 0.16118982 -0.0038251134 -0.013430032 -0.043329995 0.03200425 -0.07919474
0.061922364 -0.04117711 0.048594896 -0.03196272 -0.031169968 -0.17837088 -0.0067430916 0.016584484
-0.12368999 0.06458627 0.027514545 0.20639133 0.13978752 -0.19874792 0.03785978 -0.0054652407
0.031532753 -0.023058541 -0.052270286 -0.0028375462 0.10526074 -0.031376943 0.1053432 0.008721863
-0.04830217 -0.0154251205 -0.11299537 -0.01826448 -0.0123165855 -0.121720366 0.07246535 -0.012732406
-0.029033791 -0.03935952 -0.007492153 0.06049988 0.028169982 -0.0015854625 0.013437609 0.028418535
-0.01655304 0.04334873 -0.0008701888 0.104700215 -0.008214476 0.014883104 0.17005865 0.019570993
-0.20522112 0.08643908 0.16223937 0.1290535 -0.0163911 0.2921526 0.03444036 0.10513226
-0.049911764 -0.12825583 0.03086066 0.08215028 0.0028287824 0.0087888995 0.06788917 0.07648735
-0.025678301 -0.03517361 -0.08349734 -0.05336226 0.028057419 -0.0036107148 -0.029820975 -0.0027646015
-0.013726891 -0.002477939 -0.0058928328 -0.046690036 -0.051955808 -0.4446808 0.00087326363 0.08726898
0.20936303 0.052983284 -0.038272146 0.06669286 0.030478673 0.001490147 0.015475403 -0.0076904627
-0.08101614 0.021995796 0.007852356 0.04273417 -0.045840956 -0.050066914 -0.0003737748 0.033805624
-0.008378712 -0.046942446 0.01800874 0.00027974707 0.051820967 -0.036654584 -0.1279719 -0.00976893
-0.055021282 -0.08976633 0.14703864 -0.02173355 -0.060021512 0.11939859 0.2530268 0.013848439
-0.03652615 0.0060417983 -0.06419185 0.055310138 0.021609977 -0.16525494 -0.091851175 -0.07699738
0.032347817 0.09383414 0.028554637 0.0056156586 0.19906658 0.026539588 0.07758279 0.10627244
0.027435498 -0.06031399 0.031488508 0.013374283 0.000538854 -0.017489761 -0.018241817 -0.033537243
00000000: fb11 7ebd 4088 893d 79eb 1dbd 425c 513c
00000010: f0ef 013e 3fec f03c 7e9a b5ba 175a 80bc
00000020: 2b47 00bd 1cde c8bc 84e5 34bc 9038 2fbe
00000030: 5cc2 10bd fbab b33d ca6d 043e b17c b2bc
00000040: 569e e4bd a56b 27bc 1859 e43a 6fa6 9abd
00000050: 7674 673d a863 d23c b7ad 9cbe 3f2d 92bc
00000060: c328 523d 61e9 4e3d 14d0 91bc 6609 023e
00000070: 878a 20bd c357 bf3d 4fb4 00bc bdf2 a5bc
00000080: af6b babe 8dca bcbc 7b3a 8fbd 3e0d 903e
00000090: c990 bf3d 7d1e 0c3e 4308 543d 5fb7 e93c
000000a0: efbb d2bc 9048 dfbc de2c a53d 8406 3b3d
000000b0: 1eec 8cbd 3ab3 e23c 6dc9 ec3d 9ee6 6cbd
000000c0: c9f2 1e3b 41aa ea3c 5c32 fcba 92ec fcbd
000000d0: 9156 c3bd c672 b8bd bf93 20be 36de 84bb
000000e0: 4dfd aa3c ff59 563d 25cc 6bbd 54b3 8e3b
000000f0: 6e11 a1bc dae1 bf3d b1fc ecbc abf9 8c3b
00000100: ee52 213c a9d9 2d3e 2900 053d 748f 363c
00000110: 31b5 813c 1822 ba3d c2db b23c 5c9a 0bbc
00000120: 01db 343d 8ed1 0a3e 37a6 c43d fe32 183d
00000130: 5e10 ba3d b617 343d 13d9 4cbc 372e 423c
00000140: e3ce 9fbd edaa 30bd 802b 99bd 8027 a93c
00000150: 0648 183c e46c f8bc ea7b c03d 1455 cfbc
00000160: aa36 b53c d2ef 823c 5493 933c 5233 fdbc
00000170: ea07 f6bc 9b53 953c 17b3 9abc a7cf ec3d
00000180: 77ab 873d afd1 a8bc fd1b 2e3d 1c54 f4bb
00000190: 2dfa 4c3c 54e9 ef3d 3363 8d3e 31cd f93c
000001a0: f348 1fbb 6b05 aebd 619c 8bbc 466f 0c3c
000001b0: ddc2 293d 56a2 6e3d 8ed8 b53c 5eca 693c
000001c0: 1098 1e3c c544 26bd f20e 253e c1ae 7abb
000001d0: a309 5cbc cb7a 31bd e316 033d da30 a2bd
000001e0: 4ea2 7d3d 54a9 28bd 710b 473d 57eb 02bd
000001f0: 2958 ffbc dba6 36be 27f5 dcbb 2fdc 873c
00000200: 2d51 fdbd ce45 843d 2f66 e13c 4058 533e
00000210: 7624 0f3e 9384 4bbe db12 1b3d c315 b3bb
00000220: 7d28 013d 44e5 bcbc 5e19 56bd 20f6 39bb
00000230: f192 d73d 1c85 00bd 2dbe d73d 25e6 0e3c
00000240: 7fd8 45bd a5b9 7cbc 1e6a e7bd 649f 95bc
00000250: 81cb 49bc 8748 f9bd b768 943d 959b 50bc
00000260: 46d8 edbc 7337 21bd bc80 f5bb b9ce 773d
00000270: bcc4 e63c 4bcf cfba 6b29 5c3c fdcd e83c
00000280: 3e9a 87bc 708e 313d 621d 64ba 116d d63d
00000290: 0296 06bc 43d8 733c db23 2e3e 5953 a03c
000002a0: 7c25 52be f906 b13d 1422 263e 9a26 043e
000002b0: a146 86bc 0795 953e 5611 0d3d 954f d73d
000002c0: 4770 4cbd 7f55 03be 7fcf fc3c 683e a83d
000002d0: 1863 393b 51ff 0f3c 7a09 8b3d 66a5 9c3d
000002e0: 4d5b d2bc 3412 10bd a700 abbd 6392 5abd
000002f0: acd8 e53c bea1 6cbb 1e4b f4bc 512e 35bb
00000300: c1e6 60bc eb64 22bb aa18 c1bb 0d3e 3fbd
00000310: 9dcf 54bd 34ad e3be bbeb 643a 14ba b23d
00000320: 4363 563e 0005 593d 41c3 1cbd 4496 883d
00000330: 69ae f93c 0951 c33a 8b8c 7d3c 4700 fcbb
00000340: caeb a5bd 8730 b43c 2ba7 003c 060a 2f3d
00000350: bac3 3bbd f712 4dbd 34f7 c3b9 c477 0a3d
00000360: de46 09bc b946 40bd 1187 933c 04ab 9239
00000370: 3942 543d 1e23 16bd 110b 03be dd0d 20bc
00000380: ff5d 61bd 69d7 b7bd 4c91 163e 8f0a b2bc
00000390: 1ed9 75bd 3f87 f43d bb8c 813e 90e4 623c
000003a0: 729c 15bd 47fa c53b 0477 83bd e28c 623d
000003b0: 6807 b13c 9738 29be 781c bcbd cdb0 9dbd
000003c0: 257f 043d 1d2c c03d 6aeb e93c 8f03 b83b
000003d0: 1cd8 4b3e 8d69 d93c bae3 9e3d 5da5 d93d
000003e0: 69c0 e03c cd0b 77bd 18fa 003d cf1f 5b3c
000003f0: e141 0d3a b046 8fbc dd6f 95bc 595e 09bd

encoder.layers.0.conv.linear.bias f4 [16]
0.5512436 -0.14528777 -0.44555923 -0.0729598 -0.1730385 -0.16256341 0.25552914 -0.27980536
0.18685319 0.3743863 0.07098814 0.35988662 -0.13421902 -0.16177972 0.3219276 0.2951072
00000000: 4d1e 0d3f 51c6 14be 5720 e4be f36b 95bd
00000010: 0131 31be 0677 26be b7d4 823e a642 8fbe
00000020: 7156 3f3e 90af bf3e 3b62 913d 0f43 b83e
00000030: b670 09be 95a9 25be b2d3 a43e 4a18 973e

encoder.layers.0.conv_e.weight f4 [3703, 16]
-9.104566e-09 -0.00078937435 -0.00054933253 0.00052559347 -0.001261176 3.7245285e-10 -1.0848048e-06 0.00022165361
-0.0014638702 -0.0005335593 -8.7314496e-05 0.0011729589 -0.001466242 1.8357902e-12 -0.0007706591 -5.984541e-12
-2.274683e-08 -0.00049492274 -0.0044725817 -0.0035369422 -0.007156737 -2.471133e-09 -9.731833e-06 -0.001378371
-0.006814424 -0.005145553 -0.0043892497 0.00635066 -0.004274391 1.5058564e-12 0.0008786308 -1.4577537e-12
-3.1345695e-09 0.00032817497 0.0005924481 0.00060591067 0.00036881526 2.9005827e-09 2.7302724e-07 -0.00066202367
0.00026462873 0.0004884917 -0.00041334511 -0.00036550566 0.0006689847 3.47839e-12 -0.00041970058 -1.743623e-12
-5.833151e-09 -0.0012066914 0.00011572313 -0.001239861 -0.0002527335 8.023949e-09 -5.9033954e-07 -0.00012636364
-0.002315005 -0.0018908767 0.000569403 0.0016193056 -0.00020141364 -2.2194074e-12 0.0017023636 -1.6721296e-12
5.5242844e-10 8.9503595e-07 3.5564663e-05 0.00044774366 -0.00013128002 1.1207639e-09 -1.9006887e-07 -0.00022744449
-0.000722391 0.000681471 -0.00016504303 0.00032409222 -0.0004440698 1.5388236e-12 -1.2194766e-05 1.1564187e-12
-1.6452115e-09 0.00060853595 -0.00017622097 -0.0003940639 -0.00097396487 -3.9467722e-09 2.3521264e-07 0.00021155181
-0.00035554927 -0.00076981116 -0.0004427297 0.00049160176 0.00028079376 2.2970686e-12 0.0007229012 4.6191553e-12
3.8325108e-09 0.0009287366 -0.0009083545 -0.0010187959 -0.0011529209 2.6966923e-11 2.239499e-08 0.00057350326
-0.0005459724 -0.0018163532 -0.000325468 0.0011527415 0.00043798328 -5.745692e-12 0.0018354392 1.4192607e-12
2.9157692e-09 0.0021657993 9.640419e-05 -0.0005246313 0.0005884225 -3.9427953e-10 9.558189e-07 0.0006352158
-0.00013066827 -0.00029588555 -0.00012808706 -0.0006942928 0.00016144251 -4.4383334e-12 0.0005403212 -1.3307069e-12
-3.284215e-09 0.001607462 0.0014775979 0.0012897529 0.0021353369 5.068754e-09 8.823385e-07 -0.0015296739
0.0018858422 -0.0002789623 -0.0016756927 -0.0006076492 0.00158577 1.8373488e-12 -0.0019581607 -3.0642734e-12
3.520234e-10 0.001983907 0.00022161462 0.0002987664 -4.217349e-05 -8.111426e-09 2.0773105e-06 0.00016784859
0.0005059099 0.0010143983 0.00054079806 -0.0012394809 0.00076601934 1.05825e-12 -0.00035146967 -1.5581509e-12
-2.817567e-09 0.00016030914 0.0017605159 0.001393235 0.00030159115 5.8024776e-09 -1.0889871e-06 -3.6812442e-05
-0.0020318315 0.0019172861 -0.0022596195 0.001557371 -0.0022948163 -4.7500172e-12 -0.0044183536 -2.060589e-12
-7.307682e-09 0.0036616393 0.0022993714 0.0013790012 0.00011698352 6.684844e-09 2.3888615e-06 0.00061205385
0.0008513821 0.0007469206 -0.0001217453 -0.0006051666 0.0019425105 2.9977095e-12 0.001736587 2.9317464e-13
4.2111373e-10 -0.0001040333 0.0013365429 -2.9772504e-05 -9.909594e-05 1.6029925e-09 8.003014e-08 0.00027553082
0.0002947422 0.0011972953 0.001075138 -0.0007138119 0.00044661475 5.39094e-12 0.0001372172 4.1904397e-12
2.23274e-08 0.0026966832 -0.0064695757 -0.0046936204 -0.0066950982 8.856199e-09 -4.3657465e-06 0.0022675348
-0.0046880012 -0.0068473006 -0.0014550968 0.0032871824 0.0010075766 4.3793593e-12 0.005550856 8.638879e-14
1.3135666e-08 -0.00014770016 -0.00046210634 -0.0007075987 0.000880817 -4.108257e-08 8.792565e-07 0.00187181
0.00062978885 -0.00196607 0.0027659405 -0.00044275622 0.0019074995 3.3809602e-12 0.0017926515 1.0264138e-12
2.2161286e-09 -0.0026433528 -0.0007024987 -0.00038204875 0.001420264 -1.8651076e-09 2.0669306e-07 0.0005341101
0.0007386712 -0.0017496897 0.0018982273 -0.00019075708 -0.0010450897 -1.2730261e-12 -0.00032339184 -4.773376e-12
00000000: 4e6a 1cb2 04ee 4eba 1501 10ba fbc7 093a
00000010: 0b4e a5ba 14c2 cc2f 9c99 91b5 b06b 6839
00000020: 55df bfba 8fde 0bba 9d1c b7b8 f8bd 993a
00000030: eb2e c0ba a82e 012c 0f06 4aba f48f d2ac
00000040: cf64 c3b2 b4bd 01ba bc8e 92bb 0bcc 67bb
00000050: 1083 eabb a2d0 29b1 e845 23b7 75aa b4ba
00000060: 884b dfbb 079c a8bb b2d3 8fbb 3319 d03b
00000070: 3110 8cbb 32ee d32b ea53 663a 1d29 cdab
00000080: ee67 57b1 e60e ac39 854e 1b3a fad5 1e3a
00000090: 8c5d c139 9753 4731 9494 9234 a88b 2dba
000000a0: debd 8a39 200e 003a 3eb6 d8b9 57a1 bfb9
000000b0: ce5e 2f3a 1bc5 742c 420b dcb9 a464 f5ab
000000c0: f06c c8b1 d829 9eba 62b0 f238 d582 a2ba
000000d0: 5181 84b9 b3d9 0932 d377 1eb5 7b80 04b9
000000e0: 57b7 17bb 4bd7 f7ba fd43 153a e13e d43a
000000f0: 9032 53b9 4a2d 1cac d821 df3a d154 ebab
00000100: b2d9 1730 6742 7035 442b 1538 23bf ea39
00000110: 36a8 09b9 6009 9a30 bc15 4cb4 2a7e 6eb9
00000120: d75e 3dba bfa4 323a 670f 2db9 ecea a939
00000130: 0ad2 e8b9 f791 d82b 1f98 4cb7 60c0 a22b
00000140: bc1d e2b0 2886 1f3a f5c7 38b9 5d9a ceb9
00000150: ad51 7fba 2d9c 87b1 c28e 7c34 02d4 5d39
00000160: 0469 bab9 27cd 49ba 2d1e e8b9 d6de 003a
00000170: 8037 9339 4fa4 212c 1481 3d3a a785 a22c
00000180: 1faf 8331 7576 733a a31e 6eba 1e89 85ba
00000190: 9b1d 97ba 1d34 ed2d 1b5f c032 2757 163a
000001a0: 961f 0fba b312 eeba 93a3 aab9 9617 973a
000001b0: 1fa1 e539 9828 caac 1f93 f03a 41be c72b
000001c0: c15e 4831 15f0 0d3b 9b2c ca38 6987 09ba
000001d0: 5e40 1a3a e9c1 d8af b049 8035 9c84 263a
000001e0: ff03 09b9 1621 9bb9 1c4f 06b9 3301 36ba
000001f0: e548 2939 f428 9cac 58a4 0d3a c547 bbab
00000200: 85b0 61b1 79b1 d23a f5ab c13a ed0c a93a
00000210: 02f1 0b3b 3b29 ae31 d7d9 6c35 577f c8ba
00000220: 5d2e f73a b041 92b9 eba2 dbba a64a 1fba
00000230: 9dd9 cf3a bc4a 012c 7c54 00bb 0ba1 57ac
00000240: e486 c12f 7004 023b 3961 6839 bfa3 9c39
00000250: 71e3 30b8 6e5a 0bb2 ec67 0b36 8300 3039
00000260: 0a9f 043a 8ff5 843a 58c4 0d3a 1476 a2ba
00000270: b0ce 483a 79ef 942b 7645 b8b9 4d4a dbab
00000280: 2a9f 41b1 a818 2839 1cc1 e63a 369d b63a
00000290: e11e 9e39 225f c731 5029 92b5 0f67 1ab8
000002a0: 7a28 05bb 724d fb3a 2016 14bb b320 cc3a
000002b0: a164 16bb 5a20 a7ac d6c7 90bb 4500 11ac
000002c0: 0d17 fbb1 1df8 6f3b 0db1 163b 9abf b43a
000002d0: 0d55 f538 82b0 e531 5450 2036 3d72 203a
000002e0: 492f 5f3a fecc 433a 8351 ffb8 0ba4 1eba
000002f0: d69b fe3a eff1 522c 319e e33a eb0a a52a
00000300: 7d82 e72f 742c dab8 f02e af3a f7bf f9b7
00000310: bad1 cfb8 4950 dc30 09dd ab33 1f75 9039
00000320: a187 9a39 90ee 9c3a a5eb 8c3a 1b1f 3bba
00000330: 9e27 ea39 45ad bd2c f6e1 0f39 2070 932c
00000340: 79ca bf32 d6ba 303b bcfe d3bb f1cc 99bb
00000350: 8e62 dbbb fa25 1832 7a7d 92b6 ec9a 143b
00000360: ce9d 99bb 525f e0bb f2b8 beba c56d 573b
00000370: a910 843a c315 9a2c f4e3 b53b bf87 c229
00000380: 45ab 6132 f6df 1ab9 dd46 f2b9 257e 39ba
00000390: a1e6 663a c372 30b3 0c06 6c35 8557 f53a
000003a0: 6a18 253a 2ed9 00bb c844 353b bc21 e8b9
000003b0: 1005 fa3a f7e9 6d2c 67f7 ea3a 7474 902b
000003c0: 8c4a 1831 1a3c 2dbb e427 38ba b74d c8b9
000003d0: 2728 ba3a 522b 00b1 5bef 5d34 8603 0c3a
000003e0: 63a3 413a d855 e5ba f0cd f83a f705 48b9
000003f0: 64fb 88ba 9929 b3ab eb8c a9b9 c0f2 a7ac

encoder.layers.0.conv_e.bias f4 [16]
6.4404745e-08 0.09042871 0.05911751 0.045295477 0.20306233 -1.7478194e-06 0.00016644217 0.10379436
0.121023 0.068078004 0.20173718 0.0031142423 0.13171834 -0.0046587847 0.1607245 -0.00019037479
00000000: e24e 8a33 b032 b93d 3425 723d c087 393d
00000010: 92ef 4f3e 9e96 eab5 fb86 2e39 2392 d43d
00000020: e8da f73d 7b6c 8b3d 3194 4e3e 5118 4c3b
00000030: 2ce1 063e b8a8 98bb f794 243e 589f 47b9

decoder.scale f4 [6]
-0.5941536 1.114544 1.6802541 1.9178554 1.7654082 1.925312
00000000: 731a 18bf 61a9 8e3f 9112 d73f 497c f53f
00000010: e5f8 e13f a070 f63f

decoder.point f4 [6, 16]
0.25651464 0.012916312 -0.24091046 0.24582735 -0.016496195 0.07440303 -0.19111781 0.03826774
0.03247201 0.124014005 0.06940349 0.072390914 -0.047630776 0.029761776 0.04040041 -0.03200614
0.1719363 -0.08423584 0.018851466 -0.07210728 0.07591536 0.07207699 0.104074836 0.07635147
0.24626425 0.019389343 -0.12106151 0.17690623 0.00049306406 -0.0004832813 -0.004959186 -0.0032901005
0.12331329 -0.07690643 0.14498043 -0.040029142 0.049104676 -0.00051847886 -0.04348342 0.00022561724
-0.058520038 0.15035611 0.10408377 0.2683003 -0.00043545096 0.05138556 0.15967435 0.15373744
0.07512939 0.0036903874 -0.0009946775 -0.17942096 0.00044517475 0.017501863 0.25976503 -0.00014470117
0.039153334 0.0006998307 -0.29583213 0.20131026 0.00019370393 5.8390997e-05 0.17432752 0.14194846
0.12380987 -0.1317084 -0.0023777457 2.7659304e-05 -0.06327283 0.012184262 0.36647227 0.016746191
-0.043672875 0.04567653 -0.06445113 0.1904776 -0.16477321 -3.921672e-05 0.17759809 -0.08907734
0.07711334 0.00056853314 -0.1615671 -0.0040368116 -0.0021941601 0.01667099 -0.028384034 -0.0034896948
-0.13138133 0.28803685 0.04753168 0.114053875 -0.0034248005 0.00062125735 0.063325666 -0.036583282
00000000: e355 833e f09e 533c 3bb1 76be 2aba 7b3e
00000010: 0723 87bc 9e60 983d 63b4 43be a2be 1c3d
00000020: 5f01 053d 0efb fd3d 6b23 8e3d b041 943d
00000030: 7d18 43bd f8ce f33c e67a 253d df18 03bd
00000040: 1210 303e d783 acbd 646e 9a3c fbac 93bd
00000050: 8379 9b3d 1a9d 933d 3025 d53d 295e 9c3d
00000060: b22c 7c3e 66d6 9e3c 19ef f7bd e826 353e
00000070: f840 013a eb60 fdb9 ab80 a2bb ba9e 57bb
00000080: ae8b fc3d 1e81 9dbd c075 143e 99f5 23bd
00000090: fc21 493d 87ea 07ba ac1b 32bd ab93 6c39
000000a0: b5b2 6fbd f4f6 193e df29 d53d a85e 893e
000000b0: 3d4d e4b9 aa79 523d ac81 233e 596d 1d3e
000000c0: 70dd 993d 6dda 713b d75f 82ba 21ba 37be
000000d0: 5866 e939 1160 8f3c ecff 843e edba 17b9
000000e0: 3f5f 203d d874 373a 4f77 97be 4724 4e3e
000000f0: 011d 4b39 dbe8 7438 ea82 323e f05a 113e
00000100: 0790 fd3d 91de 06be f4d3 1bbb e705 e837
00000110: 2f95 81bd 80a0 473c 41a2 bb3e 4f2f 893c
00000120: 54e2 32bd 5017 3b3d f4fe 83bd 8f0c 433e
00000130: 4fba 28be a27c 24b8 46dc 353e 2e6e b6bd
00000140: 99ed 9d3d 9d09 153a d971 25be 3b47 84bb
00000150: e6cb 0fbb 9a91 883c a285 e8bc 5db3 64bb
00000160: d488 06be 9179 933e 94b0 423d 1495 e93d
00000170: 9e72 60bb e0db 223a e3b0 813d 5ad8 15bd

decoder.tangent f4 [6, 16]
0.43407214 -0.010134105 -0.28854093 0.30125496 -0.02602904 0.092775434 -0.29166374 0.039557613
-0.021817846 0.024998048 -0.31763595 0.119970754 0.04671425 0.03511118 -0.022496168 -0.32598373
0.56326216 0.10495999 -0.026997741 0.11447054 -0.09882359 0.07566309 -0.07610546 -0.13900614
0.3448463 0.12544826 0.20382081 -0.028813258 0.00030957308 0.001080622 -0.5446536 -0.08628106
-0.59718454 -0.14005591 -0.13527963 0.1049017 0.07266776 0.002069661 0.49850163 0.00013388968
0.2441356 -0.07087295 -0.037273575 0.48478952 0.0026392178 0.11891278 -0.45697436 -0.019582335
-0.26637816 0.0009776042 -1.6035874e-05 -0.21289067 -0.00025104015 -0.0076500745 -0.44808286 0.000304988
0.4100107 -0.5040694 0.27603984 0.030023381 0.00057099864 -3.6731508e-05 0.1481888 0.4255258
0.16498102 0.25177076 0.0008321341 -4.7630496e-05 -0.20363635 0.014501456 0.12760739 0.014798605
-0.33845127 0.40527785 0.6180289 -0.003021757 -0.12417339 3.7968082e-05 0.50646657 -0.3961232
-0.16485076 -0.00034058126 -0.14379326 0.0040208753 0.0030214058 -0.011347615 0.1735329 -0.0009741186
-0.34537578 -0.36070535 -0.97892827 -0.25157598 -0.009069807 -0.00065898977 0.6299511 0.06571622
00000000: b43e de3e 8409 26bc a3bb 93be 173e 9a3e
00000010: da3a d5bc 0c01 be3d f354 95be 2a07 223d
00000020: 57bb b2bc b5c8 cc3c 2ea1 a2be 3ab3 f53d
00000030: 7157 3f3d bed0 0f3d e249 b8bc 57e7 a6be
00000040: f331 103f 43f5 d63d 5e2a ddbc 886f ea3d
00000050: 0664 cabd 40f5 9a3d 2edd 9bbd a057 0ebe
00000060: b28f b03e 8275 003e 67b6 503e c809 ecbc
00000070: 324e a239 a8a3 8d3a 6b6e 0bbf 20b4 b0bd
00000080: 16e1 18bf d16a 0fbe be86 0abe b4d6 d63d
00000090: d6d2 943d 26a3 073b 9b3b ff3e bd64 0c39
000000a0: affe 793e d625 91bd 2dac 18bd 5536 f83e
000000b0: baf6 2c3b 8b88 f33d 8bf8 e9be 226b a0bc
000000c0: b862 88be f422 803a c784 86b7 0300 5abe
000000d0: 0a9e 83b9 7aad fabb 1e6b e5be cce6 9f39
000000e0: ecec d13e b10a 01bf 1855 8d3e 98f3 f53c
000000f0: 12af 153a 2810 1ab8 cebe 173e 85de d93e
00000100: c9f0 283e 19e8 803e 9323 5a3a dbc6 47b8
00000110: 0c86 50be 8497 6d3c 83ab 023e d975 723c
00000120: 7c49 adbe 9480 cf3e 2437 1e3f ab08 46bb
00000130: 9e4e febd eb3f 1f38 cba7 013f a9d0 cabe
00000140: a3ce 28be 0b90 b2b9 8a3e 13be 8cc1 833b
00000150: c702 463b 59eb 39bc 9cb2 313e fe5b 7fba
00000160: 18d5 b0be 5fae b8be 0b9b 7abf 91ce 80be
00000170: 8799 14bc 0ec0 2cba 7a44 213f 3a96 863d

decoder.cls.weight f4 [16, 6]
1.400768e-07 3.7540994e-07 -1.4039105e-06 -1.0768412e-07 6.762978e-07 1.260781e-06 -0.045995764 -0.15249217
-0.2719945 0.38252905 0.24153408 -0.12153769 -0.06951071 -0.12201779 0.24584945 0.37021965
-0.17855056 -0.07667513 -0.048544485 -0.06727739 0.2752517 0.24857222 -0.1246921 -0.0781483
0.031812012 0.1472717 -0.09560639 0.12744905 -0.30570334 0.30135015 1.434101e-07 6.8528226e-07
3.672414e-07 -1.3690187e-07 -8.8131725e-07 9.4777974e-08 -0.00013173177 6.942938e-06 -0.00018033721 0.00017173903
2.803249e-05 0.00013229711 -0.07151752 -0.14429235 -0.10271453 -0.06397744 0.13017096 0.23530409
-0.059671342 -0.08055681 -0.20736852 0.35857493 -0.20770709 0.16824296 -0.04024291 0.024422506
0.26721787 0.45466402 -0.24729449 -0.19498426 -0.018702677 -0.06367117 -0.18062912 -0.21010326
-0.056595225 0.48365054 0.04064765 0.14482017 0.12829514 -0.25954846 0.1720281 -0.13927604
-0.080987096 -0.20030573 -0.3785125 0.29059115 0.1668969 0.25313967 -6.298576e-11 9.201903e-11
-3.266506e-11 6.97794e-13 6.552712e-11 2.9347302e-11 -0.03447357 -0.20217893 -0.41507888 -0.04164102
0.3492334 0.33567128 9.422722e-13 7.9882594e-11 -2.05028e-11 1.7927994e-10 -1.0041582e-10 9.94239e-12
00000000: 0568 1634 f38b c934 ff6d bcb5 f93f e7b3
00000010: d58a 3535 1b38 a935 0e66 3cbd e826 1cbe
00000020: dd42 8bbe d9da c33e b654 773e c1e8 f8bd
00000030: a25b 8ebd 77e4 f9bd f5bf 7b3e 6e8d bd3e
00000040: f5d5 36be da07 9dbd 95d6 46bd bac8 89bd
00000050: caed 8c3e b789 7e3e 925e ffbd 370c a0bd
00000060: 504d 023d 64ce 163e 48cd c3bd 0182 023e
00000070: 2685 9cbe 914a 9a3e 45fc 1934 3df4 3735
00000080: 4629 c534 4dff 12b4 a993 6cb5 be88 cb33
00000090: 7a21 0ab9 62f7 e836 e718 3db9 d814 3439
000000a0: 5027 eb37 3cb9 0a39 c777 92bd 60c1 13be
000000b0: ff5b d2bd 9b06 83bd 894b 053e 8ef3 703e
000000c0: f069 74bd f8fa a4bd 6a58 54be 2297 b73e
000000d0: 2bb1 54be e247 2c3e c0d5 24bd b511 c83c
000000e0: c8d0 883e b9c9 e83e c43a 7dbe f4a9 47be
000000f0: 5b36 99bc 0866 82bd d7f6 38be 4f25 57be
00000100: 65d0 67bd 0ba1 f73e 267e 263d bd4b 143e
00000110: cd5f 033e 89e3 84be 2228 303e 619e 0ebe
00000120: 90dc a5bd f21c 4dbe 64cc c1be 5dc8 943e
00000130: 05e7 2a3e 869b 813e d581 8aae 1c5a ca2e
00000140: 97a9 0fae 5b69 442b 7d18 902e 2012 012e
00000150: 2834 0dbd fe07 4fbe 3885 d4be c68f 2abd
00000160: b8ce b23e 1bdd ab3e ef9c 842b e7a9 af2e
00000170: 3458 b4ad d11e 452f 15d1 dcae 8be8 2e2d

decoder.cls.bias f4 [6]
-0.10678091 0.020783301 0.0017017084 0.015556106 0.044235535 0.096273504
00000000: f3af dabd be41 aa3c dc0b df3a 0adf 7e3c
00000010: 5230 353d 0b2b c53d

decoder.w_e.weight f4 [1, 16]
-5.4093334e-07 0.038070567 0.024802258 0.01404708 0.11156046 -1.0223949e-08 0.00011921245 0.04190215
0.059944306 0.029026754 0.08913678 -0.0025768802 0.05640311 4.530107e-12 0.068611704 -1.0570225e-11
00000000: a834 11b5 e2ef 1b3d 1b2e cb3c b925 663c
00000010: cf79 e43d 67a5 2fb2 b201 fa38 97a1 2b3d
00000020: 2988 753d 84c9 ed3c 588d b63d e0e0 28bb
00000030: f306 673d 9463 9f2c 4b84 8c3d 10f4 39ad

decoder.w_h.weight f4 [1, 16]
0.6235362 4.1209085e-12 9.1719005e-10 2.717591e-09 -9.805471e-11 1.4120378e-10 0.5056228 -3.8369602e-10
0.41764635 0.61938435 0.30306563 0.51639616 -1.2390607e-10 -8.898764e-12 0.5924428 0.5359649
00000000: 12a0 1f3f d8fd 902c 831d 7c30 5ec0 3a31
00000010: e59f d7ae 5541 1b2f 7f70 013f 6af0 d2af
00000020: bed5 d53e f98f 1e3f 6b2b 9b3e 8a32 043f
00000030: 753c 08af 788c 1cad 55aa 173f ff34 093f
