logs/lp/2019_12_3/0/model.pth (torch_old, 98513 bytes, 10 tensors)

encoder.layers.0.hy_linear.bias f4 [16]
-0.006843156 -0.04754948 -0.012618987 0.0017958824 0.0020913451 0.0106567 0.023542019 0.019126916
0.014375946 -0.013503781 -0.013785252 0.018194357 -0.021911178 -0.014608441 -0.019914526 -7.333441e-05
00000000: 8e3c e0bb 3ec3 42bd debf 4ebc d063 eb3a
00000010: f30e 093b 7099 2e3c 31db c03c 0db0 9c3c
00000020: 1689 6b3c f63e 5dbc 8adb 61bc 550c 953c
00000030: 127f b3bc 3e58 6fbc ca23 a3bc 1dcb 99b8

encoder.layers.0.hy_linear.weight f4 [16, 1433]
-0.07560321 -0.028570913 0.035016805 -0.018837145 -0.110501334 -0.05866807 0.025709515 -0.0027240259
0.035809178 0.035243846 -0.0030073076 0.0019878917 -0.033741184 0.046991114 -0.008493254 -0.033160727
-0.05840169 -0.03750852 0.0071740705 0.07438652 0.010210454 0.08243188 0.0027468228 -0.009304507
0.062464293 -0.084297046 -0.1085526 -0.0065739686 -0.033584755 0.114708334 -0.038063947 -0.038927317
0.004370122 0.02359379 -0.018832795 0.022099318 -0.0026239927 -0.037373707 0.036066752 -0.035716962
-0.18367751 -0.10701568 0.03817247 -0.0017388179 -0.15406257 0.019111149 -0.0020016911 -0.03727091
-0.11256671 0.09143567 0.0010482563 -0.104667544 0.09607046 -0.0040238136 -0.13824078 -0.030548917
0.08309159 -0.0049194447 -0.030766442 -0.013861118 -0.032935996 -0.030571768 -0.0074792355 0.105203256
0.012431878 -0.012718328 0.08586126 -0.008161761 0.04541911 -0.10768676 0.042100627 0.006610666
0.022594688 0.02254843 0.012500458 0.04267016 0.03814363 -0.010670011 -0.110428825 -0.013062332
0.014171105 -0.023637673 -0.16592216 0.04659222 -0.015326664 0.20168759 -0.09764478 0.05178125
0.1325357 -0.056907903 0.018338064 -0.03257792 -0.04359453 -0.07793749 -0.020498956 -0.03341448
0.09398905 -0.025524633 0.022011677 0.09484157 0.037443202 -0.052474532 0.04680806 0.09150114
0.05457695 0.0047813593 0.003928779 0.00016604773 -0.026789576 0.011219744 0.006365468 0.03263805
-0.020983728 -0.039255682 0.07457018 -0.050922774 0.07988912 -0.0396467 -0.009818781 -0.023399925
-0.053073388 0.015400021 -0.018643107 0.019152576 -0.0058153276 0.036524985 -0.028105892 0.008381458
0.09908378 -0.020568604 0.030133097 0.037085142 0.053055122 0.0020266657 0.015014991 0.03566115
0.036967132 0.0024896802 0.00069411454 -0.03127059 0.014524404 -0.04311568 -0.056838363 0.08448206
0.014839754 -0.030092942 -0.0033494697 0.033088155 -0.022317562 0.040777538 -0.029791031 -0.015261628
-0.07769252 0.11514478 -0.040691413 -0.01603072 -0.01813243 0.020158263 0.050524414 0.027432946
0.005919425 -0.019507734 -0.023737395 -0.03613153 -0.06458865 0.08353898 -0.07567096 0.008683114
-0.00048332394 -0.0016647188 -0.045000236 0.0739487 0.042886715 0.11920212 -0.1030544 0.033697367
0.14328602 0.06473917 0.01215933 0.009067297 -0.02384493 -0.048505522 -0.06374848 0.015604157
0.03291269 -0.07556537 0.06120382 0.016697252 -0.04144838 -0.0012786468 -0.026740672 0.028630128
-0.1128133 0.11044218 -0.005800493 0.013300521 -0.0111154355 -0.05826389 0.035178475 0.028821554
0.0060279737 0.0113079185 -0.012412678 0.01615283 -0.063624665 0.06565048 0.017422734 0.031952556
-0.010292016 0.02338527 -0.018062053 -0.022308059 0.03478447 0.06433506 -0.0009995603 0.029893478
0.05376921 0.050638597 0.0008365352 0.068238035 0.004746253 -0.0299018 -0.009069714 0.045771617
-0.0687418 -0.02430711 -0.116256155 0.049534105 -0.087546356 0.049813647 0.08172483 -0.17263682
-0.032736234 -0.047927804 -0.0857504 0.06071662 -0.069420405 0.13337843 0.013135659 -0.105154544
0.0013126279 0.057229288 -0.056133762 -0.052216757 -0.0020901035 -0.0009763486 -0.09547865 -0.027047185
-0.19990994 0.078584105 0.07831181 0.012593915 0.040497184 0.044600707 0.04382352 -0.0046184273
00000000: dbd5 9abd 8c0d eabc c86d 0f3d 5b50 9abc
00000010: 864e e2bd ee4d 70bd c39c d23c 9285 32bb
00000020: a5ac 123d da5b 103d 4016 45bb 4a47 023b
00000030: 3234 0abd c179 403d 4a27 0bbc 8bd3 07bd
00000040: 9c36 6fbd 89a2 19bd 7714 eb3b f657 983d
00000050: c049 273c 0cd2 a83d 0a04 343b ee71 18bc
00000060: 8fda 7f3d eea3 acbd d350 debd 726a d7bb
00000070: 2b90 09bd 34ec ea3d f1e8 1bbd 4072 1fbd
00000080: 3e33 8f3b c447 c13c 3c47 9abc a109 b53c
00000090: 4bf7 2bbb 2c15 19bd bbba 133d f34b 12bd
000000a0: f515 3cbe 092b dbbd bc5a 1c3d 0ce9 e3ba
000000b0: 94c2 1dbe fc8e 9c3c ce2e 03bb 62a9 18bd
000000c0: 6089 e6bd a042 bb3d a565 893a f05b d6bd
000000d0: 97c0 c43d 32da 83bb fe8e 0dbe b941 fabc
000000e0: ec2b aa3d 4b33 a1bb e809 fcbc be19 63bc
000000f0: e5e7 06bd a571 fabc 6014 f5bb ce74 d73d
00000100: 13af 4b3c 8960 50bc 07d8 af3d e8b8 05bc
00000110: 6409 3a3d e08a dcbd b571 2c3d 499e d83b
00000120: 7f18 b93c 7cb7 b83c b9ce 4c3c e8c6 2e3d
00000130: 7f3c 1c3d 45d1 2ebc 8228 e2bd 6403 56bc
00000140: ec2d 683c cba3 c1bc 80e7 29be 7cd7 3e3d
00000150: b01c 7bbc 3187 4e3e fdf9 c7bd 9318 543d
00000160: 70b7 073e 4318 69bd b539 963c 6d70 05bd
00000170: 2e90 32bd b19d 9fbd 6ded a7bc 9fdd 08bd
00000180: 557d c03d 0919 d1bc d551 b43c 4c3c c23d
00000190: 0b5e 193d 89ef 56bd cfb9 3f3d f364 bb3d
000001a0: 148c 5f3d f3ac 9c3b fdbc 803b 191d 2e39
000001b0: d075 dbbc 04d3 373c 6a95 d03b 7aaf 053d
000001c0: 11e6 abbc 91ca 20bd 40b8 983d 6694 50bd
000001d0: e89c a33d 9464 22bd f4de 20bc 33b1 bfbc
000001e0: 7b63 59bd 5f50 7c3c 6eb9 98bc dde5 9c3c
000001f0: 818e bebb 399b 153d 543e e6bc 6252 093c
00000200: 70ec ca3d 7d7f a8bc afd9 f63c 97e6 173d
00000210: 5450 593d cfd1 043b 7001 763c 6d11 123d
00000220: d96a 173d e729 233b 3df5 353a 9715 00bd
00000230: c4f7 6d3c 119a 30bd 58cf 68bd ee04 ad3d
00000240: 7122 733c 7985 f6bc c782 5bbb 7287 073d
00000250: 52d3 b6bc 5906 273d 520c f4bc e80b 7abc
00000260: 421d 9fbd 07d1 eb3d 0aac 26bd db52 83bc
00000270: 768a 94bc f122 a53c b0f2 4e3d 0fbb e03c
00000280: bcf7 c13b afce 9fbc ed74 c2bc a8fe 13bd
00000290: 0e47 84bd 7c16 ab3d 60f9 9abd 9f43 0e3c
000002a0: a466 fdb9 b232 daba 2b52 38bd 6b72 973d
000002b0: fba9 2f3d 3e20 f43d 2f0e d3bd 4006 0a3d
000002c0: 92b9 123e f895 843d ed37 473c 008f 143c
000002d0: 7156 c3bc baad 46bd 908e 82bd 94a8 7f3c
000002e0: 75cf 063d 04c2 9abd dbb0 7a3d adc8 883c
000002f0: c7c5 29bd 4498 a7ba 410f dbbc bb89 ea3c
00000300: a90a e7bd 822f e23d 1012 bebb 6eea 593c
00000310: 841d 36bc 1ea6 6ebd 4e17 103d 2e1b ec3c
00000320: 4f86 c53b d944 393c 8c5e 4bbc f152 843c
00000330: a64d 82bd c273 863d 1fba 8e3c afe0 023d
00000340: d89f 28bc 7792 bf3c dff6 93bc 64bf b6bc
00000350: 297a 0e3d 1ac2 833d ae03 83ba 2be3 f43c
00000360: 1a3d 5c3d 6b6a 4f3d ed4a 5b3a 62c0 8b3d
00000370: 7586 9b3b 9ff4 f4bc 2399 14bc 057b 3b3d
00000380: 80c8 8cbd b41f c7bc b517 eebd 46e4 4a3d
00000390: 814b b3bd 6509 4c3d 595f a73d b5c7 30be
000003a0: 6e16 06bd f24f 44bd e89d afbd feb1 783d
000003b0: 492c 8ebd 5b94 083e f236 573c 445b d7bd
000003c0: 7c0c ac3a 4269 6a3d 84ec 65bd 3de1 55bd
000003d0: 1efa 08bb a5f1 7fba 4f8a c3bd 0f92 ddbc
000003e0: 31b5 4cbe b4f0 a03d f161 a03d b556 4e3c
000003f0: 60e0 253d 3baf 363d 4b80 333d 2d56 97bb

encoder.layers.0.conv.weight f4 [16, 16]
0.100282416 -0.09442162 -0.27578065 -0.26471022 0.004322901 0.13885738 -0.536224 0.35516924
-0.11846869 0.3716584 0.08650283 -0.16780406 -0.14503494 0.14106162 -0.115090944 0.08636685
0.3487338 0.71049684 0.53191906 0.06602933 -0.0031090179 0.1787297 0.3909254 0.18811731
-0.071627885 -0.22313228 0.25578573 0.46040952 0.30147815 0.21687175 0.1963158 0.18949288
0.30939102 0.23860483 -0.55726576 -0.20438723 0.0019726104 0.207788 -0.41855225 0.22576137
0.2882211 0.46040472 0.34551942 -0.49585357 0.39785525 0.24715218 0.35124877 0.42485458
0.3095096 0.43145877 0.45838502 0.4812893 -0.0029780753 0.18711069 0.11910269 0.11657647
-0.52386117 -0.21559566 -0.43621963 0.22134614 -0.3466213 0.3844571 -0.087609045 0.4574566
0.047325984 0.6900152 0.4260028 -0.4333326 -0.0011414511 -0.088767745 0.016402183 -0.33587813
-0.23033653 -0.16005614 0.2933019 0.00036940275 0.27067286 -0.110328645 0.43508625 -0.0106643615
-0.11751366 -0.26367536 -0.5999736 -0.33902916 0.0032198706 -0.3088784 0.1313233 -0.4080895
-0.29473376 0.06435939 0.13749877 -0.15049809 0.00614122 -0.39924315 0.15946133 -0.31474894
0.5491641 0.24878725 -0.44260994 -0.22544207 -0.0015814654 -0.27251977 -0.54965264 -0.11201451
-0.22129415 0.23630375 -0.1088869 -0.48955876 0.21993455 0.088648066 0.19634962 0.4791747
0.4599045 0.0721296 -0.04932904 -0.09353269 -0.001108654 0.07099333 -0.67037696 -0.07621765
-0.063803725 -0.14458595 0.19526525 -0.27846423 0.3945106 0.24027869 -0.20398484 0.31299326
0.0037430131 -0.6427875 -0.34255126 0.35293567 -0.0009923865 0.26440158 0.08138429 0.31129932
-0.4424446 -0.22592549 -0.10209806 -0.23977064 -0.26955074 0.34389117 -0.3156059 -0.07188266
-0.5532182 0.033400748 -0.253689 -0.09729261 0.0002550531 -0.25287908 0.26958847 -0.19526124
0.40432245 0.36715704 0.30812213 -0.36822528 -0.087704346 0.00039963788 0.13930695 -0.32759622
-0.5296377 0.10210692 -0.26637962 0.06672847 -0.008124562 -0.08635906 0.3571136 0.1354149
0.31096956 0.41583085 0.3172552 -0.12745564 -0.060754728 -0.44477868 0.058128286 -0.1332876
0.022017706 -0.68926966 -0.21572897 -0.2824538 0.002747035 -0.2336848 -0.49628323 0.21823482
0.2852289 0.081108905 -0.4078315 0.3308485 -0.20536162 0.40221748 -0.6569105 -0.1041985
0.31791407 -0.044109695 0.030524494 0.2401128 -0.0022130895 0.118615575 -0.02232502 -0.30744013
0.347315 0.5329935 0.53080004 -0.5415869 0.3479373 0.17929132 0.17636421 0.11502641
0.1213424 -0.07598105 -0.25230294 -0.52203166 0.0047818087 0.3847182 0.32385468 -0.057508975
0.13638999 -0.14456436 -0.24364987 0.42249405 0.6316506 0.023795167 -0.5685066 -0.587823
0.100658335 0.55549496 0.6063705 0.022009153 -0.0017644275 0.41964382 -0.07728451 -0.22664382
-0.1981259 -0.07356334 -0.048572987 0.24032143 0.016147437 0.53373504 0.12266839 -0.24561575
-0.4840564 -0.49355796 0.04864862 0.61321187 -0.0015973748 0.009393545 0.55550957 -0.059220865
-0.12536353 0.18283379 -0.3336395 0.22387715 -0.6976567 -0.0889872 0.33907917 0.550843
00000000: de60 cd3d 1f60 c1bd 1f33 8dbe 1988 87be
00000010: 1fa7 8d3b a130 0e3e fa45 09bf bed8 b53e
00000020: b69f f2bd 034a be3e 6528 b13d d4d4 2bbe
00000030: 0a84 14be 7572 103e cdb4 ebbd 1ae1 b03d
00000040: 3d8d b23e 1fe3 353f d92b 083f 633a 873d
00000050: aac0 4bbb eb04 373e 6027 c83e d3a1 403e
00000060: a4b1 92bd ca7c 64be 59f6 823e ccba eb3e
00000070: 585b 9a3e a113 5e3e 0207 493e 6c0a 423e
00000080: 8068 9e3e d354 743e f8a8 0ebf e34a 51be
00000090: e946 013b 61c6 543e 7b4c d6be fd2d 673e
000000a0: b791 933e 2bba eb3e ece7 b03e 85e0 fdbe
000000b0: afb3 cb3e 7615 7d3e e1d6 b33e 8a86 d93e
000000c0: 0b78 9e3e 2ae8 dc3e 71b1 ea3e 8d6b f63e
000000d0: d02b 43bb f299 3f3e 1cec f33d a5bf ee3d
000000e0: c41b 06bf 1cc5 5cbe 2e58 dfbe 90a8 623e
000000f0: 5978 b1be 90d7 c43e 5f6c b3bd c037 ea3e
00000100: e4d8 413d d6a4 303f 0a1d da3e c5dd ddbe
00000110: be9c 95ba ddcb b5bd df5d 863c 38f8 abbe
00000120: 57dd 6bbe c2e5 23be ab2b 963e 66ac c139
00000130: a295 8a3e fcf3 e1bd a0c3 de3e 93b9 2ebc
00000140: 00ab f0bd 7500 87be df97 19bf 3b95 adbe
00000150: 7704 533b 4f25 9ebe 9d79 063e 1bf1 d0be
00000160: 58e7 96be dbce 833d 7acc 0c3e 2c1c 1abe
00000170: 4a3c c93b 9969 ccbe d549 233e c626 a1be
00000180: 0596 0c3f 16c2 7e3e c59d e2be 49da 66be
00000190: 2c49 cfba b687 8bbe 09b6 0cbf dd67 e5bd
000001a0: ef9a 62be 9cf9 713e 1800 dfbd 72a7 fabe
000001b0: 8636 613e 1e8d b53d e00f 493e 6356 f53e
000001c0: 9a78 eb3e afb8 933d 3f0d 4abd 118e bfbd
000001d0: 4150 91ba f364 913d d39d 2bbf 0018 9cbd
000001e0: 87ab 82bd 570e 14be 9df3 473e dd92 8ebe
000001f0: 4bfd c93e 9e0b 763e 67e1 50be a740 a03e
00000200: 574d 753b b98d 24bf e162 afbe fcb3 b43e
00000210: f712 82ba a55f 873e ceac a63d a062 9f3e
00000220: 1988 e2be 0359 67be ca18 d1bd 6f86 75be
00000230: 8e02 8abe 8112 b03e 1997 a1be 3737 93bd
00000240: b59f 0dbf 39cf 083d 86e3 81be 5941 c7bd
00000250: a6b8 8539 5e79 81be 8007 8a3e 90f2 47be
00000260: 5a03 cf3e 02fc bb3e 2fc2 9d3e 0688 bcbe
00000270: 569e b3bd 7d86 d139 7ba6 0e3e b1ba a7be
00000280: 5696 07bf 6f1d d13d e962 88be f0a8 883d
00000290: e21c 05bc 05dd b0bd 98d7 b63e 34aa 0a3e
000002a0: 6737 9f3e c8e7 d43e 466f a23e bb83 02be
000002b0: f3d9 78bd 08ba e3be ed17 6e3d 8b7c 08be
000002c0: 7a5e b43c fa73 30bf 0ee8 5cbe c99d 90be
000002d0: 9907 343b 114b 6fbe d618 febe f378 5f3e
000002e0: 8609 923e 6d1c a63d 4acf d0be f964 a93e
000002f0: 514a 52be 73ef cd3e 492b 28bf 0666 d5bd
00000300: a2c5 a23e 5eac 34bd 810e fa3c 21e0 753e
00000310: 7b09 11bb b9ec f23d f6e2 b6bc cb68 9dbe
00000320: 46d3 b13e 4372 083f 83e2 073f 70a5 0abf
00000330: d624 b23e 2598 373e d298 343e f792 eb3d
00000340: 5d82 f83d f49b 9bbd da2d 81be dea3 05bf
00000350: b8b0 9c3b c9f9 c43e 48d0 a53e 888e 6bbd
00000360: d1a9 0b3e ae08 14be 5a7f 79be 2451 d83e
00000370: dbb3 213f 15ee c23c a689 11bf 917b 16bf
00000380: f525 ce3d eb34 0e3f 193b 1b3f 8a4c b43c
00000390: 5d44 e7ba 8edb d63e 5747 9ebd 5115 68be
000003a0: 84e1 4abe 60a8 96bd 78f4 46bd d216 763e
000003b0: a147 843c dca2 083f 9139 fb3d b282 7bbe
000003c0: 3ed6 f7be a1b3 fcbe c643 473d 74fb 1c3f
000003d0: 015f d1ba 62e7 193c e035 0e3f 9491 72bd
000003e0: 4c5f 00be c838 3b3e ccd2 aabe 0d40 653e
000003f0: a199 32bf ec3e b6bd c99b ad3e 0c04 0d3f

encoder.layers.0.conv.att f4 [1, 1, 32]
-0.018820154 -0.12517963 -0.07239128 0.012840298 0.0018422544 -0.08245169 -0.06287369 -0.0055127647
-0.07770721 -0.07876845 -0.10317308 0.014168774 -0.1320525 -0.04256035 -0.051848903 0.027694475
0.010427892 0.014907787 0.029152978 0.119019896 -0.037933838 0.09232385 0.0609813 0.012829739
0.008259628 -0.022257471 0.16843523 -0.09515807 0.04966151 0.14779574 -0.0088947145 0.069237694
00000000: b92c 9abc 172f 00be e141 94bd 1d60 523c
00000010: cd77 f13a 6fdc a8bd ecc3 80bd 6ca4 b4bb
00000020: f524 9fbd 5a51 a1bd 684c d3bd 2524 683c
00000030: c538 07be c353 2ebd 845f 54bd 86df e23c
00000040: c0d9 2a3c ca3f 743c 3ad2 ee3c b4c0 f33d
00000050: 8360 1bbd 4914 bd3d 87c7 793d d333 523c
00000060: 6453 073c 4d55 b6bc 497a 2c3e 3ce2 c2bd
00000070: de69 4b3d c457 173e 23bb 11bc 7ecc 8d3d

encoder.layers.0.conv.bias f4 [16]
0.03491321 0.059899822 0.048232935 0.045516316 -0.042836964 0.057893183 0.06629513 0.033259362
0.042234194 0.04069157 0.058690067 0.04415981 0.06058665 0.047249258 0.041844636 0.035533156
00000000: 2701 0f3d 8459 753d e68f 453d 516f 3a3d
00000010: d075 2fbd 6721 6d3d bec5 873d f83a 083d
00000020: c3fd 2c3d 34ac 263d ff64 703d ebe0 343d
00000030: b529 783d 7088 413d 4865 2b3d 378b 113d

encoder.layers.1.hy_linear.bias f4 [16]
0.09801426 -0.1640917 0.06468234 0.09701316 -0.17696619 -0.16270003 0.27194217 0.04803251
-0.20977522 -0.35721248 0.21053065 -0.051436845 0.21330324 0.1617561 -0.23802772 0.04825023
00000000: b3bb c83d a807 28be 2d78 843d d6ae c63d
00000010: a036 35be d69a 26be 013c 8b3e bdbd 443d
00000020: 51cf 56be 8ee4 b6be 5995 573e 71af 52bd
00000030: 2a6c 5a3e 64a3 253e 8abd 73be 08a2 453d

encoder.layers.1.hy_linear.weight f4 [16, 16]
-0.47995102 -0.58808446 0.42786914 0.5143414 -9.919876e-09 0.36567047 0.3127994 0.29949757
-0.546405 -0.20998834 -0.46755952 0.08531274 -0.6889324 0.040638853 0.36320478 0.46413714
-0.7200548 0.21409015 -0.6040854 0.15452725 1.6600293e-08 -0.2521872 0.22157213 -0.6195594
0.22799075 0.4457735 0.6548165 -0.22250311 0.1129439 -0.7168888 0.39885303 -0.28157213
-0.16006203 0.2428409 0.109932005 -0.939218 -4.964036e-08 0.07904533 -0.8084067 0.29147062
0.07127266 0.029075548 0.35496363 -0.22947548 0.21421547 -0.15351418 0.31963995 0.19893214
-0.0050253337 -0.59472376 -0.8047929 -0.60523677 -1.935833e-09 -0.3348308 -0.88715273 0.04559123
-0.23604032 -0.37927967 -0.1657631 -0.7038833 -0.060731634 0.18244593 -0.5834255 -0.21071321
-0.24585779 0.018402595 -0.048238873 0.030144168 1.31064875e-08 -0.44280016 -0.15749621 -0.37458777
0.40092596 0.4011068 0.7268203 -0.46707714 0.17088434 -0.55373234 0.5180206 0.14956047
0.58909667 0.841898 0.813276 -0.22274469 5.98312e-08 0.25302666 -0.17221852 -0.5929365
-0.26965567 -0.27046213 0.2874397 -0.18790887 0.114196315 0.33215278 0.6799871 0.2770095
0.42119512 -0.36885184 -0.40990868 -0.08724036 1.2382885e-09 -0.49945238 -0.37449664 -0.092352346
0.036200825 0.4010393 0.4030251 -0.36794052 -0.06307249 -0.007682712 0.39003086 0.49101707
-0.396755 -0.38032725 -0.34494784 0.5127324 -5.1437303e-09 0.06094386 -0.25138637 0.56052744
0.27099192 0.45416316 -0.16633217 -0.32976288 -0.39641634 0.291971 0.121355675 0.59742975
-0.15376005 -0.38337597 0.50406414 0.29983923 -2.4670441e-09 -0.3299302 0.5651646 -0.49012738
-0.13443945 -0.18243772 -0.025501993 0.5582155 0.44652006 0.25790626 0.17508057 -0.37594143
0.5412245 -0.087286085 0.041792016 0.1070838 -1.8063205e-09 0.43852893 -0.5478676 0.34833544
-0.54005027 0.04659047 0.0054888907 -0.0023398767 0.13179879 0.5716132 -0.5637874 0.5089115
-0.59881836 -0.3761188 0.09967013 0.21286856 3.026778e-09 0.015823849 0.058718633 0.30364466
0.34015173 -0.1708568 -0.35059875 0.16690508 -0.25914034 -0.11668373 -0.5903811 -0.7890564
-0.2481269 -0.5115588 0.13089713 -0.23539631 1.4652203e-09 0.32590353 0.52893203 0.056297474
0.10227153 0.17462172 0.3015724 -0.1064269 -0.045344494 -0.53615725 0.00052438007 -0.4839678
0.22158425 -0.13891923 -0.5381285 -0.5670556 1.6269831e-09 -0.098780565 -0.33933848 -0.11676367
0.46343994 0.05502948 -0.33569083 -0.4799839 0.16762854 -0.45602572 0.01402984 -0.40576252
-0.18197846 0.81187725 0.4618313 0.1280298 -3.5728873e-09 -0.42081907 0.14308958 -0.21150675
0.23740071 0.25056732 0.43421257 -0.41224757 0.043017987 -0.10857934 0.76784575 0.6385489
0.00575888 -0.6947387 -0.12536065 0.19357954 -1.114202e-08 -0.5168773 0.060899477 -0.2703999
0.4786785 0.34150296 -0.13637203 -0.462888 -0.7304899 -0.27503973 0.07370925 0.35486272
0.44214213 0.25995225 -0.18585688 -0.42052248 6.5927876e-09 0.3270146 -0.0018945015 -0.05582517
0.4549021 0.53951377 0.17306888 -0.11076497 0.6038888 0.4898705 -0.08955578 -0.110225745
00000000: 24bc f5be b48c 16bf aa11 db3e e1ab 033f
00000010: 136c 2ab2 2939 bb3e 3e27 a03e bf57 993e
00000020: 33e1 0bbf 2f07 57be f663 efbe 72b8 ae3d
00000030: e05d 30bf ed74 263d faf5 b93e 62a3 ed3e
00000040: 8355 38bf 733a 5b3e 57a5 1abf 643c 1e3e
00000050: 6e98 8e32 ae1e 81be cee3 623e 729b 1ebf
00000060: 6876 693e 6d3c e43e 0ea2 273f dbd7 63be
00000070: 224f e73d 0686 37bf 7736 cc3e 392a 90be
00000080: 4de7 23be 49ab 783e 0824 e13d 9770 70bf
00000090: 2734 55b3 85e2 a13d bef3 4ebf a33b 953e
000000a0: 66f7 913d d82f ee3c cbbd b53e 9ffb 6abe
000000b0: 4d5b 5b3e d232 1dbe d9a7 a33e deb4 4b3e
000000c0: 8eab a4bb d13f 18bf e806 4ebf ccf0 1abf
000000d0: 8907 05b1 f16e abbe 711c 63bf dfbd 3a3d
000000e0: 8eb4 71be f230 c2be cdbd 29be b231 34bf
000000f0: bcc1 78bd 1bd3 3a3e 605b 15bf 34c5 57be
00000100: 25c2 7bbe 0ac1 963c 2096 45bd e7f0 f63c
00000110: f12a 6132 b4b6 e2be b046 21be f8c9 bfbe
00000120: 2b46 cd3e df5d cd3e e510 3a3f bc24 efbe
00000130: 4efc 2e3e 67c1 0dbf ff9c 043f 6126 193e
00000140: 0acf 163f a186 573f db32 503f 2f17 64be
00000150: 8d7c 8033 b68c 813e 0d5a 30be b0ca 17bf
00000160: 4f10 8abe 037a 8abe 4c2b 933e 2f6b 40be
00000170: c2df e93d ee0f aa3e a213 2e3f 30d4 8d3e
00000180: e3a6 d73e 26da bcbe 8ddf d1be 13ab b2bd
00000190: 6730 aa30 39b8 ffbe 06be bfbe 3a23 bdbd
000001a0: 5147 143d 0655 cd3e 4e59 ce3e b362 bcbe
000001b0: 262c 81bd 42bf fbbb 20b2 c73e 9766 fb3e
000001c0: 7923 cbbe 41ba c2be 019d b0be 6e42 033f
000001d0: bbbc b0b1 45a0 793d b7b5 80be ba7e 0f3f
000001e0: 74bf 8a3e 1388 e83e fb52 2abe aed6 a8be
000001f0: 15f7 cabe 397d 953e 5389 f83d 28f1 183f
00000200: 4673 1dbe db49 c4be 590a 013f 8784 993e
00000210: b388 29b1 9cec a8be a1ae 103f faf1 fabe
00000220: 7faa 09be f4d0 3abe 8ee9 d0bc 36e7 0e3f
00000230: 479e e43e 4a0c 843e 5248 333e 657b c0be
00000240: b08d 0a3f 0cc3 b2bd 1b2e 2b3d c04e db3d
00000250: 4142 f8b0 dd86 e03e 0d41 0cbf 0659 b23e
00000260: bc40 0abf a6d5 3e3d 27dc b33b 9e58 19bb
00000270: 43f6 063e 3e55 123f 5f54 10bf 0648 023f
00000280: 294c 19bf a592 c0be da1f cc3d 37fa 593e
00000290: a4ff 4f31 04a1 813c f382 703d 5077 9b3e
000002a0: 5e28 ae3e 16f5 2ebe ae81 b3be 2ae9 2a3e
000002b0: 0bae 84be e1f7 eebd 3723 17bf 9aff 49bf
000002c0: fa14 7ebe 84f5 02bf e609 063e bb0b 71be
000002d0: db60 c930 d4dc a63e 1768 073f 2e98 663d
000002e0: bc73 d13d 09d0 323e b367 9a3e 59f6 d9bd
000002f0: 26bb 39bd 9a41 09bf 8d76 093a a1ca f7be
00000300: fbe6 623e d840 0ebe cac2 09bf 8e2a 11bf
00000310: 619c df30 774d cabd c6bd adbe cb21 efbd
00000320: 0048 ed3e 9866 613d abdf abbe 73c0 f5be
00000330: d1a6 2b3e 347c e9be 6add 653c 1bc0 cfbe
00000340: 9058 3abe 30d7 4f3f 2775 ec3e 3e1a 033e
00000350: e686 75b1 9975 d7be 1386 123e 3a95 58be
00000360: 2c19 733e 5c4a 803e 1c51 de3e 1d12 d3be
00000370: a133 303d d85e debd 8a91 443f f177 233f
00000380: fdb4 bc3b 65da 31bf 8b5e 00be b739 463e
00000390: 1f6b 3fb2 1252 04bf bb71 793d db71 8abe
000003a0: 5915 f53e 7ad9 ae3e 1ca5 0bbe a8ff ecbe
000003b0: 6301 3bbf 02d2 8cbe e0f4 963d 91b0 b53e
000003c0: 7460 e23e 7618 853e 4451 3ebe b94e d7be
000003d0: c686 e231 756e a73e ec50 f8ba efa8 64bd
000003e0: eee8 e83e 931d 0a3f f838 313e bfd8 e2bd
000003f0: 7598 1a3f 4ed0 fa3e 0569 b7bd 09be e1bd

encoder.layers.1.conv.weight f4 [16, 16]
-0.29046863 0.35095385 0.08758205 0.4313919 0.23649816 0.35218957 -0.40046915 -0.16361494
-0.32463253 0.12307521 0.14294325 0.13149774 -0.05330331 0.11482919 -0.48587736 -0.19118735
0.3162099 0.5327834 -0.09125936 -0.3672191 -0.19148533 -0.06066945 0.25688684 -0.26498234
0.16692054 0.03196005 0.004177236 0.6294966 -0.09739216 -0.15410796 -0.41263193 0.24159648
0.26207626 -0.106920086 0.031053577 -0.109343186 -0.25630355 -0.024138097 -0.017357383 0.31140944
0.17359772 -0.2084663 0.26760754 -0.0073381336 0.18306105 -0.25978926 0.29524115 0.018541548
0.4377294 0.015115283 0.00090794044 0.1775421 -0.052388467 -0.15256014 0.5278919 0.6047888
-0.14578858 -0.30935326 0.25364783 -0.31406352 0.24318507 0.5802813 0.19157805 -0.34359765
0.35811147 0.07045788 -0.30382884 -0.39423138 -0.3577847 0.3223056 0.31258908 0.43711188
-0.16362537 0.17425132 -0.11213451 0.42747712 -0.28450835 -0.31857207 -0.12609342 0.3699035
0.24059646 -0.35135514 -0.5488939 0.20086454 0.410203 -0.07863344 -0.3958044 0.37582067
-0.13346411 0.41176924 -0.18830706 -0.3159373 0.104188964 -0.690542 -0.21271141 0.53155065
0.38114777 0.0509206 -0.63204 -0.22624503 -0.0847279 0.012339783 0.11346836 -0.05755942
-0.37947127 -0.4639128 0.15493399 -0.40679443 -0.570313 0.2632827 0.080599055 -0.2523492
0.031977113 -0.05730685 0.24010397 0.16753098 -0.29209435 0.28138706 0.15182967 -0.059135
-0.84402525 0.19061692 0.304089 0.040064216 -0.36187086 0.29167444 -0.16361244 -0.14253166
-0.1665646 0.09683324 0.3954153 -0.09732193 0.19920051 -0.19581997 0.11907945 -0.44106245
0.09572977 -0.311967 -0.09935736 -0.17325738 0.06828964 -0.11502438 -0.29692236 0.33404544
0.106699556 -0.35754204 0.1080405 -0.08640868 0.5204151 -0.02071657 -0.26418287 0.38797843
-0.48972473 0.07484114 0.18477851 -0.26920322 0.4289161 0.10187878 -0.09712834 0.042727955
-0.38061354 0.37858117 0.5438933 0.33140564 -0.36891097 -0.08641452 0.23484787 -0.28145358
0.32953647 0.27196875 -0.18441707 0.2078434 -0.086835295 0.259698 0.37132993 -0.45664638
0.03175909 0.16136879 0.0762102 0.015741251 -0.26672024 -0.1934699 0.48952353 -0.31883034
0.18651578 0.04393059 -0.18543981 0.23202907 -0.27814442 0.1357098 0.25333947 0.13604376
0.1785918 0.24926867 -0.110683315 -0.15094267 -0.25145873 -0.09196688 0.24117652 0.3343446
0.32032144 -0.17218034 -0.010611512 0.018833125 0.20132442 0.19254674 0.0825402 -0.3979128
-0.07771089 0.3377258 -0.07475082 -0.37203377 -0.029743282 0.16454166 -0.0056523206 -0.0007458383
-0.101465546 -0.15182123 0.17511392 -0.25195056 -0.22018708 -0.7177616 -0.4727188 0.4205369
0.33607388 0.4308712 0.14846273 -0.03226577 -0.008002972 0.53178275 0.19865261 -0.19486855
-0.37082013 0.014153624 -0.05322864 0.1777266 -0.3412857 0.42881012 0.2785684 -0.027866246
0.22075069 -0.4339732 0.27819458 -0.4776384 -0.3844737 -0.4915074 0.17038791 -0.1644681
-0.035215624 0.35928735 0.3771471 0.079874605 0.23166457 -0.027787898 0.15048742 -0.17270072
00000000: 4eb8 94be 39b0 b33e 385e b33d 66df dc3e
00000010: 932c 723e 3152 b43e 4b0a cdbe ad8a 27be
00000020: 3c36 a6be db0e fc3d b75f 123e 58a7 063e
00000030: 9254 5abd 912b eb3d ebc4 f8be 9ec6 43be
00000040: 44e6 a13e 7e64 083f 30e6 babd 2404 bcbe
00000050: bb14 44be 8780 78bd ac86 833e c4ab 87be
00000060: 38ed 2a3e 8be8 023d 32e1 883b b026 213f
00000070: 8a75 c7bd 7ace 1dbe 7e44 d3be 1165 773e
00000080: dc2e 863e ebf8 dabd 1264 fe3c 52ef dfbd
00000090: 383a 83be 42bd c5bc 1231 8ebc 0f71 9f3e
000000a0: 9ac3 313e 3178 55be db03 893e ba74 f0bb
000000b0: 5b74 3b3e 1903 85be d929 973e 72e4 973c
000000c0: 111e e03e 18a6 773c da02 6e3a 99cd 353e
000000d0: 4a95 56bd ba38 1cbe ec23 073f 70d3 1a3f
000000e0: 9a49 15be 8d63 9ebe 21de 813e efcc a0be
000000f0: 8205 793e 518d 143f 092d 443e 08ec afbe
00000100: 635a b73e 394c 903d 748f 9bbe b2d8 c9be
00000110: 8e2f b7be 3d05 a53e ad0b a03e 21cd df3e
00000120: 698d 27be f06e 323e c7a6 e5bd 48de da3e
00000130: 14ab 91be e11b a3be a21e 01be fe63 bd3e
00000140: eb5e 763e d2e4 b3be 5084 0cbf 6faf 4d3e
00000150: 2106 d23e 920a a1bd e0a6 cabe 916b c03e
00000160: d1aa 08be 6bd3 d23e 91d3 40be 89c2 a1be
00000170: 0661 d53d 5cc7 30bf 05d1 59be b413 083f
00000180: cd25 c33e 1e92 503d 60cd 21bf c7ac 67be
00000190: d285 adbd cd2c 4a3c 1962 e83d 6dc3 6bbd
000001a0: 0f4a c2be fb85 edbe 04a7 1e3e 5c47 d0be
000001b0: 0800 12bf fdcc 863e 1e11 a53d ea33 81be
000001c0: 6ffa 023d 96ba 6abd d1dd 753e 3e8d 2b3e
000001d0: 648d 95be f711 903e 3d79 1b3e 8b37 72bd
000001e0: 0a12 58bf 1531 433e 8eb1 9b3e 601a 243d
000001f0: 2347 b9be 5a56 953e 058a 27be d2f3 11be
00000200: e98f 2abe 8150 c63d e073 ca3e b850 c7bd
00000210: 38fb 4b3e 0885 48be eddf f33d f0d2 e1be
00000220: f80d c43d 23ba 9fbe df7b cbbd 626a 31be
00000230: 70db 8b3d e791 ebbd 3506 98be 0108 ab3e
00000240: 4c85 da3d c00f b7be 5644 dd3d 09f7 b0bd
00000250: ed39 053f ccb5 a9bc fa42 87be 1ca5 c63e
00000260: 33bd fabe 5046 993d 9436 3d3e 01d5 89be
00000270: e49a db3e d2a5 d03d 39eb c6bd 8203 2f3d
00000280: c7df c2be 64d5 c13e 973c 0b3f 00ae a93e
00000290: e6e1 bcbe 19fa b0bd f67b 703e af1a 90be
000002a0: 01b9 a83e 7d3f 8b3e d4d7 3cbe e6d4 543e
000002b0: b4d6 b1bd 23f7 843e f51e be3e 8ecd e9be
000002c0: d215 023d dc3d 253e 1814 9c3d ccf3 803c
000002d0: 8e8f 88be f91c 46be d4a2 fa3e bb3d a3be
000002e0: fefd 3e3e 90f0 333d efe3 3dbe 0799 6d3e
000002f0: f268 8ebe 83f7 0a3e b6b5 813e 0e4f 0b3e
00000300: c5e0 363e 4940 7f3e efad e2bd b790 1abe
00000310: 33bf 80be 2259 bcbd faf6 763e 372f ab3e
00000320: 2c01 a43e 0b50 30be e8db 2dbc ed47 9a3c
00000330: fd27 4e3e f92a 453e d60a a93d 3abb cbbe
00000340: e326 9fbd 65ea ac3e f516 99bd 367b bebe
00000350: 2fa8 f3bc 9c7d 283e 1a37 b9bb 5c84 43ba
00000360: 2bcd cfbd 0677 1bbe 1051 333e aaff 80be
00000370: b978 61be 39bf 37bf 3308 f2be 9d50 d73e
00000380: e011 ac3e 269b dc3e 9d06 183e 1d29 04bd
00000390: e61e 03bc ea22 083f 976b 4b3e 9f8b 47be
000003a0: 23dc bdbe 9ae4 673c 4606 5abd f6fd 353e
000003b0: 00bd aebe 008d db3e 84a0 8e3e c147 e4bc
000003c0: 780c 623e bc31 debe 856f 8e3e 058d f4be
000003d0: bdd9 c4be dca6 fbbe 2b7a 2e3e 536a 28be
000003e0: 423e 10bd 83f4 b73e 6d19 c13e 4c95 a33d
000003f0: 7a39 6d3e 72a3 e3bc 6019 1a3e 75d8 30be

encoder.layers.1.conv.att f4 [1, 1, 32]
-0.33823788 -0.16542245 -0.18800877 -0.16421296 -0.22532985 -0.10815439 -0.2734767 -0.29106182
0.020476634 0.002768906 0.11126923 -0.19580027 -0.13733341 -0.39857295 -0.018618768 0.089816265
-0.20789643 0.3343717 -0.38095912 0.313421 -0.13812163 0.091058895 0.07519976 0.11338036
0.20286217 -0.4000132 0.13154739 -0.3019558 -0.25924775 0.11282274 0.1273798 -0.39101735
00000000: 842d adbe 8164 29be 5f85 40be 7127 28be
00000010: debc 66be 0c80 ddbd 2305 8cbe 0e06 95be
00000020: 9dbe a73c 8976 353b 1fe1 e33d de7f 48be
00000030: 21a1 0cbe c111 ccbe 6386 98bc 97f1 b73d
00000040: cde2 54be c432 ab3e 130d c3be b878 a03e
00000050: c26f 0dbe 167d ba3d 5502 9a3d f633 e83d
00000060: 1abb 4f3e 88ce ccbe 5cb4 063e f399 9abe
00000070: 1fbc 84be 9c0f e73d da6f 023e 6d33 c8be

encoder.layers.1.conv.bias f4 [16]
0.22926356 0.22736953 0.1650199 0.22743195 0.25540453 0.1804242 0.14152059 0.21581757
0.22066377 0.099198006 0.20826116 0.16153495 0.21418549 0.16409026 0.11974482 0.2370632
00000000: 11c4 6a3e 8fd3 683e fafa 283e ece3 683e
00000010: 62c4 823e 1fc1 383e c6ea 103e 48ff 5c3e
00000020: aff5 613e 5328 cb3d 6a42 553e 6b69 253e
00000030: 7153 5b3e 4707 283e c63c f53d b2c0 723e
