logs/lp/2019_11_29/2/model.pth (torch_old, 34293 bytes, 4 tensors)

encoder.layers.0.conv.weight f4 [500, 16]
2.4708807 0.020908713 -0.009146697 0.040767606 -0.0050063482 0.050581474 -0.092586294 0.86152893
-5.57709e-15 0.0019797212 0.07674311 -0.07439574 0.07451623 1.2769688 0.0056869173 -0.78273094
0.023372613 -0.0013212909 -0.018123573 0.07987976 -0.0007516765 -0.020004326 0.1265251 -0.22254713
-2.7077834e-14 -0.0020790421 -0.0016441696 0.37778607 -0.0013229701 -0.028071998 -0.0005425383 0.38575858
-0.00601539 -0.014106875 -0.015466604 -0.22921553 0.0063516106 -0.022848113 0.1511124 0.051672947
1.5685376e-14 -0.031223621 -0.0033916202 0.07624734 -0.0296416 0.0131852925 -0.0051677474 0.12761551
0.18295796 0.002044459 0.0036558642 -0.08174932 0.00089364086 0.0066543687 -0.093306296 0.1817253
-1.8700646e-14 -0.0052601923 -0.00052375696 -0.3782172 -0.0039148647 0.16900025 0.0008807526 -0.22509599
0.0039218366 -0.00022283927 0.00070340553 0.031283546 -0.00012432286 -0.007642683 -0.15807451 0.019581929
6.63097e-14 0.0010885501 5.2933367e-05 0.16447775 -0.0067565953 0.056066055 4.1299747e-05 -0.06746279
-0.0046781665 0.0027406956 -0.00887437 -0.07990855 -0.0010004261 0.027988069 0.32527775 0.43992403
1.9952566e-14 0.006505606 0.0017168665 -0.098221645 -0.01061917 -0.060787242 0.009065005 0.37591052
0.40361694 -0.00049917464 -0.0038099485 -0.005757675 -0.00028813412 -0.013169923 0.05191825 -0.22312166
4.09484e-14 0.000244287 -0.00029924148 0.008222511 -0.015867623 0.6976856 -0.00025877298 0.075052746
-0.14390205 -0.0068194363 0.01464827 -0.14859618 -0.0020414584 -0.023249498 -0.1381431 0.003333833
-5.976035e-14 0.000101732534 0.0063897707 -0.123282224 -0.018225811 -0.18983275 -0.0096288435 0.119350575
1.0267614 -0.00038357716 0.024551608 -0.05859718 0.008419338 -0.019459574 -0.2076421 0.19079664
3.190742e-14 -0.001368865 0.0075152833 0.008556272 -0.018819751 0.46437895 0.00015329753 -0.7246728
0.29723802 -0.017414317 -0.024776522 -0.39857066 -0.00052654656 -0.038762987 -0.0751029 -0.066269115
-2.914419e-14 0.0017625033 -0.011404174 -0.060741544 -0.011961883 0.45230746 0.003527626 -0.32236028
-0.17992379 0.0037693596 0.007232723 -0.2658916 -0.0042426926 -0.025821902 -0.14058632 0.09998596
2.6539684e-14 0.006032904 -0.0011918563 -0.060125977 0.022867003 -0.4222762 0.002934166 -0.029079393
-0.04765605 -0.00040007252 -0.006007787 -0.062449627 -0.0006741414 0.0123155 -0.20372263 0.3923233
5.0875252e-14 0.00029050288 0.0012684268 0.139119 0.012909862 -0.16205782 0.0010552362 -0.07163233
0.15657884 -0.0039008558 -0.004412223 -0.041420788 -0.00071424164 -0.019039067 -0.10490338 0.20325841
1.3644032e-14 0.00040236593 -0.002876492 0.091089234 0.008779292 0.20388919 0.0006182655 -0.10174938
-0.30680278 -0.0077735907 -0.011325168 -0.054601263 -0.00220236 -0.0018896979 0.02160036 -0.3554725
4.529488e-14 -0.010549985 -0.010962606 0.28539133 -0.029914308 -0.028142009 -0.0036698703 0.09992977
-0.18136199 0.0024298604 0.0021949369 -0.0341105 -0.00075893034 -0.01647516 -0.14418162 -0.23158091
-7.054012e-14 0.003386518 0.0013019746 -0.12169801 0.010144018 -0.23481418 0.0013052621 -0.167533
1.0089666 -0.038467966 -0.04902751 0.012391879 -0.010356201 -0.09248865 0.01494789 -0.016075052
1.9397007e-14 -0.079919636 -0.0009552713 0.047905132 0.005422113 1.3556472 -0.03051529 -0.291607
00000000: e922 1e40 c048 ab3c 07dc 15bc effb 263d
00000010: 4b0c a4bb 852e 4f3d e29d bdbd 298d 5c3f
00000020: 93ef c8a7 36be 013b 7e2b 9d3d cb5c 98bd
00000030: f79b 983d b773 a33f 5259 ba3b 0e61 48bf
00000040: ec77 bf3c 2a2f adba e377 94bc 0098 a33d
00000050: 280c 45ba 1de0 a3bc cc8f 013e 65e3 63be
00000060: 3ce5 f3a8 8a40 08bb 2d81 d7ba 2d6d c13e
00000070: 8367 adba 3ff7 e5bc 2139 0eba 2682 c53e
00000080: c01c c5bb 8620 67bc a467 7dbc 7ab7 6abe
00000090: 2c21 d03b f72b bbbc 36bd 1a3e 03a7 533d
000000a0: 0448 8d28 aec8 ffbc f245 5ebb 9127 9c3d
000000b0: f1d2 f2bc 2007 583c 3556 a9bb a4ad 023e
000000c0: 5559 3b3e 55fc 053b 3997 6f3b 306c a7bd
000000d0: 3943 6a3a e40c da3b 5f17 bfbd 3216 3a3e
000000e0: c170 a8a8 b15d acbb bc4c 09ba afa5 c1be
000000f0: 4448 80bb 670e 2d3e 4ee2 663a 907f 66be
00000100: c082 803b f6a9 69b9 bf64 383a 2d23 003d
00000110: aa5c 02b9 796f fabb 49de 21be 486a a03c
00000120: f150 9529 aead 8e3a c504 5e38 db6c 283e
00000130: 6e66 ddbb 85a5 653d 4439 2d38 ee29 8abd
00000140: 4e4b 99bb 3e9d 333b ce65 11bc 18a7 a3bd
00000150: bb20 83ba 3c47 e53c ce8a a63e b93d e13e
00000160: 7cb7 b328 fb2c d53b 7b08 e13a 6e28 c9bd
00000170: 07fc 2dbc 0bfc 78bd 6385 143c 5877 c03e
00000180: e1a6 ce3e 0bdb 02ba 54b0 79bb e1aa bcbb
00000190: b510 97b9 a9c6 57bc 3ba8 543d 017a 64be
000001a0: 4a6a 3829 a513 8039 83e3 9cb9 b6b7 063c
000001b0: d1fc 81bc 869b 323f ecab 87b9 41b5 993d
000001c0: 0f5b 13be 9475 dfbb 4cff 6f3c 9929 18be
000001d0: fdc9 05bb bb75 bebc 6375 0dbe 707c 5a3b
000001e0: 7f91 86a9 3d59 d538 4861 d13b 647b fcbd
000001f0: 4c4e 95bc 8463 42be 4cc2 1dbc 136e f43d
00000200: eb6c 833f db1a c9b9 7420 c93c 9903 70bd
00000210: 43f1 093c af69 9fbc 21a0 54be 3260 433e
00000220: c0b2 0f29 7d6b b3ba c442 f63b 9b2f 0c3c
00000230: e12b 9abc 14c3 ed3e 7ebe 2039 2884 39bf
00000240: 952f 983e 78a8 8ebc 22f8 cabc 7411 ccbe
00000250: f107 0aba f0c5 1ebd 8dcf 99bd 1ab8 87bd
00000260: f740 03a9 cc03 e73a 93d8 3abc 20cc 78bd
00000270: c6fb 43bc d894 e73e be2f 673b 680c a5be
00000280: f13d 38be 5c07 773b 7a00 ed3b f222 88be
00000290: 4906 8bbb 7488 d3bc dcf5 0fbe 70c5 cc3d
000002a0: 580c ef28 abaf c53b 1038 9cba a846 76bd
000002b0: 9553 bb3c 9634 d8be 234b 403b e837 eebc
000002c0: fe32 43bd d3c0 d1b9 f8dc c4bb 2ecb 7fbd
000002d0: ddb8 30ba f3c6 493c aa9c 50be 99de c83e
000002e0: 2c1f 6529 a34e 9839 5741 a63a 3675 0e3e
000002f0: e383 533c 7cf2 25be da4f 8a3a f9b3 92bd
00000300: 3456 203e 80a5 7fbb 6994 90bb d8a8 29bd
00000310: f23b 3bba d1f7 9bbc 95d7 d6bd f922 503e
00000320: fec9 7528 a4f4 d239 8783 3cbb fe8c ba3d
00000330: 05d7 0f3c 54c8 503e 1813 223a fb61 d0bd
00000340: 4115 9dbe 9bb9 febb 338d 39bc 93a5 5fbd
00000350: 7855 10bb bdaf f7ba 3df3 b03c 7e00 b6be
00000360: 71fd 4b29 d8d9 2cbc 819c 33bc d01e 923e
00000370: da0e f5bc 128a e6bc 3582 70bb fba7 cc3d
00000380: f5b6 39be 4b3e 1f3b eed8 0f3b 74b7 0bbd
00000390: f4f2 46ba eaf6 86bc 59a4 13be 8c23 6dbe
000003a0: 9cd7 9ea9 58f0 5d3b 05a7 aa3a ce3c f9bd
000003b0: 1833 263c 2173 70be 5415 ab3a c58d 2bbe
000003c0: d125 813f 9690 1dbd 12d1 48bd 4f07 4b3c
000003d0: 0ead 29bc b06a bdbd ffe7 743c d4af 83bc
000003e0: 74b6 ae28 e8ac a3bd 2c6b 7aba 2c38 443d
000003f0: fbab b13b d985 ad3f 34fb f9bc 834d 95be

encoder.layers.0.conv.bias f4 [16]
0.020413004 -0.064089775 -0.093609154 0.025963763 -0.061009955 -0.09620661 0.02044479 -0.014172214
-0.031142484 -0.086973295 -0.07268578 0.035510175 -0.07277724 0.0044488916 -0.05627586 -0.013358005
00000000: 2c39 a73c 8041 83bd 28b6 bfbd f5b1 d43c
00000010: 93e5 79bd f907 c5bd d57b a73c 9332 68bc
00000020: 861e ffbc 0e1f b2bd 48dc 94bd 1e73 113d
00000030: 3c0c 95bd 02c8 913b 8481 66bd 89db 5abc

encoder.layers.1.conv.weight f4 [16, 16]
-0.004229601 -0.09299845 -0.963234 -1.4426209 0.10974684 -0.011500149 -0.43380815 -0.048206765
-0.7208193 0.29055256 -0.028866855 -1.6020563 -1.7994635 -0.021203434 0.08994422 -0.053458106
-0.031487156 0.29857707 0.043776415 -0.35046336 0.2602406 -0.039118268 0.05364328 -0.044461872
-0.019611686 0.3088301 0.1061222 -0.042041954 0.1109986 0.15872079 0.010353645 0.0398279
0.27257118 0.17852451 0.23234421 0.3074668 -0.33564806 0.038408726 -0.26220578 -0.15973616
0.12993664 -0.06425392 0.1493346 0.2414297 0.20883153 -0.0037864365 -0.27639246 0.21493466
-1.3295946 0.38463846 -1.1641788 -0.08212096 0.021101495 -0.373828 -0.018281313 -0.37960494
-0.05968418 -1.4559069 0.044461686 0.09089884 -0.016173555 -0.04921619 -0.07803243 -0.48107898
0.011356295 -0.106643826 0.23982193 -0.10525303 0.002494902 -0.11940508 0.16005361 0.07373037
0.27906874 0.06713522 0.22216375 -0.057697672 0.31304964 -0.26725143 0.054109566 -0.27625868
-0.32380575 -0.10991832 0.2665296 0.27869368 0.24388644 -0.31688622 -0.047367427 -0.12293379
-0.22418228 0.0879433 -0.120943144 0.017267553 0.29595163 0.2211089 -0.4488202 0.36405444
-0.51149917 -0.42207068 -0.00017222104 -0.05269104 -1.2148986 -0.65748614 -1.154854 0.37421402
0.23201793 0.037389103 -1.6514341 -0.06489036 -0.053825673 -0.30004874 0.20028688 -0.28299707
0.07540862 0.2401052 0.09549502 -0.01835942 -1.3299319 0.019128913 -1.1907958 0.009412987
-1.6536466 0.05866653 -0.88477105 -0.0057145385 -0.032427263 -1.6986222 -0.023672987 -0.11202409
2.1283305e-14 1.7530966e-14 -2.9180662e-13 -2.9079714e-13 -1.3715609e-13 5.9084787e-15 1.1777989e-13 4.2675665e-14
1.551278e-13 -1.1739583e-14 -2.5309277e-14 5.6373302e-14 -7.984157e-14 4.641572e-14 4.7354976e-14 -1.5218965e-13
0.041979384 0.057600837 -0.089622036 0.13660316 0.293825 0.29836226 0.10734231 -0.09308267
-0.23930319 -0.3573638 0.1070543 0.19917856 0.06302201 0.16871433 -0.02040515 -0.14369796
0.12555353 0.23304634 0.15271747 -0.025532957 -0.09977008 0.25747147 0.18304574 0.11298391
0.2904698 -0.38077587 0.10689234 -0.14428651 -0.102935955 -0.23303461 0.19068067 -0.14941071
0.10566659 -1.7128483 0.048233714 -0.012843969 -0.0335668 0.09591375 0.11817095 -0.32003692
-0.10465694 0.025619142 0.12392994 -0.013537432 0.032006513 -0.09540466 -2.1656735 -0.40162897
0.21152994 0.122902796 0.13150209 -0.013160563 0.12279895 -0.09678493 0.05497548 0.16763034
0.23644908 0.007293008 0.03832167 -0.01653476 0.15799965 0.2549921 0.33703524 -0.09671633
0.15117885 0.055234518 -0.6388632 -1.1950974 -0.12656587 -0.019733224 0.042508986 -0.48716998
0.115483105 -0.8363842 -0.06285577 -1.3840444 -1.0635978 -0.121034175 -0.024853395 0.24978243
-0.036940478 0.0021849084 -0.009316723 0.049018953 0.054638576 0.19624697 0.011617237 0.31808725
-0.28789428 0.23607153 -0.3458528 -0.22072625 -0.14996183 -0.14958914 0.25356096 -0.28954622
-1.5192412 -0.21312533 0.15666324 0.112100735 -0.07624685 -2.5860627 -0.071129516 -1.4900198
-0.0048429207 -0.08167802 -0.18270095 0.0675381 0.10829054 -0.01842575 0.08582266 -2.450517
00000000: 7798 8abb f975 bebd 8196 76bf cda7 b8bf
00000010: f4c2 e03d 1f6b 3cbc 1a1c debe 7574 45bd
00000020: 9d87 38bf 4ec3 943e 2f7a ecbc 2e10 cdbf
00000030: d254 e6bf d3b2 adbc ad34 b83d e3f6 5abd
00000040: adf8 00bd 18df 983e e64e 333d ef6f b3be
00000050: 423e 853e 7a3a 20bd 0eb9 5b3d a71d 36bd
00000060: b0a8 a0bc fb1e 9e3e 9956 d93d 2f34 2cbd
00000070: 3c53 e33d b487 223e 56a2 293c 9422 233d
00000080: 738e 8b3e 21cf 363e a4eb 6d3e 4a6c 9d3e
00000090: 10da abbe 7852 1d3d d63f 86be e091 23be
000000a0: 1c0e 053e 8f97 83bd 2beb 183e 5939 773e
000000b0: efd7 553e dd25 78bb 5083 8dbe d517 5c3e
000000c0: 2830 aabf 55ef c43e d003 95bf 092f a8bd
000000d0: 0bdd ac3c 6266 bfbe b1c2 95bc 945b c2be
000000e0: 6677 74bd 285b babf 751d 363d 2c29 ba3d
000000f0: 677e 84bc ea96 49bd 77cf 9fbd fc4f f6be
00000100: c10f 3a3c 1468 dabd e193 753e e78e d7bd
00000110: 8281 233b a78a f4bd 18e5 233e f3ff 963d
00000120: 19e2 8e3e 317e 893d e57e 633e 6554 6cbd
00000130: 0b48 a03e 2ed5 88be fea1 5d3d c771 8dbe
00000140: dec9 a5be db1c e1bd 9176 883e f0b0 8e3e
00000150: 5ebd 793e e93e a2be 5904 42bd b6c4 fbbd
00000160: 0a90 65be 9e1b b43d 0ab1 f7bd af74 8d3c
00000170: f986 973e 5f6a 623e c3cb e5be 5865 ba3e
00000180: 9cf1 02bf a619 d8be 3c96 34b9 8fd2 57bd
00000190: cc81 9bbf 0351 28bf 42d2 93bf fb98 bf3e
000001a0: 1c96 6d3e 5125 193d 3162 d3bf 3de5 84bd
000001b0: 4f78 5cbd fd9f 99be 0118 4d3e fee4 90be
000001c0: d66f 9a3d 23de 753e e592 c33d 7f66 96bc
000001d0: 353b aabf 3db4 9c3c ff6b 98bf ee38 1a3c
000001e0: b1aa d3bf 514c 703d 5b80 62bf 0641 bbbb
000001f0: 73d2 04bd 746c d9bf daed c1bc e36c e5bd
00000200: f6b3 bf28 a8e7 9d28 c445 a4aa 49b4 a3aa
00000210: 8d6c 1aaa 19e0 d427 be9b 042a b131 4029
00000220: 8ba8 2e2a 457b 53a8 38f7 e3a8 fee1 7d29
00000230: 88c9 b3a9 af09 5129 9244 5529 ae59 2baa
00000240: 93f2 2b3d dbee 6b3d c28b b7bd b3e1 0b3e
00000250: 3b70 963e f0c2 983e 49d6 db3d 20a2 bebd
00000260: e50b 75be 63f8 b6be 493f db3d 77f5 4b3e
00000270: af11 813d 73c3 2c3e b328 a7bc 8f25 13be
00000280: 1b91 003e b3a3 6e3e f861 1c3e 7e2a d1bc
00000290: 4154 ccbd 4dd3 833e 5870 3b3e 1c64 e73d
000002a0: 75b8 943e 0ef5 c2be 5fea da3d d8bf 13be
000002b0: 16d0 d2bd a0a0 6ebe cb41 433e 1fff 18be
000002c0: ba67 d83d 9d3e dbbf b790 453d 836f 52bc
000002d0: 577d 09bd 6e6e c43d 9c03 f23d e1db a3be
000002e0: 6156 d6bd 3cdf d13c fbce fd3d 1bcc 5dbc
000002f0: 4319 033d 8563 c3bd 659a 0ac0 50a2 cdbe
00000300: 4e9b 583e 76b4 fb3d 7ca8 063e 679f 57bc
00000310: 047e fb3d 2d37 c6bd f82d 613d 4aa7 2b3e
00000320: b51f 723e 2ffa ee3b 2ff7 1c3d e873 87bc
00000330: a9ca 213e 538e 823e e28f ac3e 3613 c6bd
00000340: a1ce 1a3e 973d 623d 8a8c 23bf f4f8 98bf
00000350: 7c9a 01be 92a7 a1bc e71d 2e3d 586e f9be
00000360: 6882 ec3d 461d 56bf 87ba 80bd 5e28 b1bf
00000370: f923 88bf c4e0 f7bd 5999 cbbc f7c6 7f3e
00000380: e64e 17bd ae30 0f3b 2ba5 18bc 19c8 483d
00000390: b3cc 5f3d f7f4 483e 3956 3e3c 55dc a23e
000003a0: e166 93be bcbc 713e 9e13 b1be 1006 62be
000003b0: 988f 19be e52d 19be bed2 813e 673f 94be
000003c0: 7f76 c2bf 873d 5abe 546c 203e 1295 e53d
000003d0: 4f27 9cbd 0d82 25c0 5aac 91bd f8b8 bebf
000003e0: 5db1 9ebb ce46 a7bd f515 3bbe 6a51 8a3d
000003f0: 6ec7 dd3d 99f1 96bc cac3 af3d 45d5 1cc0

encoder.layers.1.conv.bias f4 [16]
0.2440572 0.21016873 0.24131326 0.2526033 0.24200864 0.25926563 0.2448517 0.2337449
0.22963004 0.22384906 0.24330176 0.24984926 0.24845399 0.23916596 0.2169029 0.2611421
00000000: 21ea 793e 7936 573e d31a 773e 3855 813e
00000010: 1dd1 773e 77be 843e 67ba 7a3e d35a 6f3e
00000020: 2324 6b3e b038 653e 1924 793e 7cd8 7f3e
00000030: b96a 7e3e ece7 743e cb1b 5e3e 6bb4 853e
