logs/lp/2020_5_31/0/model.pth (torch_old, 8096 bytes, 18 tensors)

encoder.layers.0.conv.bias f4 [16]
-3.861824e-10 0.016142963 1.9243714e-08 1.7533422e-09 0.03618245 -7.551397e-06 -0.0138423825 0.0022598892
0.0056392336 0.002595772 -0.0012030632 9.830559e-05 0.02683731 8.957357e-06 0.0019025158 -3.1973622e-07
00000000: 574e d4af 3f3e 843c 604d a532 3ffa f030
00000010: 0c34 143d 0262 fdb6 29cb 62bc a61a 143b
00000020: 52c9 b83b d41d 2a3b 1ab0 9dba 6929 ce38
00000030: ebd9 db3c 8e47 1637 d65d f93a 36a8 abb4

encoder.layers.0.conv.att f4 [1, 8, 4]
4.6132025e-11 4.7638854e-10 -2.4875792e-11 -1.545517e-09 1.2568747e-11 -1.0673381e-11 2.0299827e-12 6.813106e-12
1.905282e-09 -3.192025e-11 5.8695826e-09 -2.3189619e-11 3.076476e-09 -2.0687346e-10 3.4912379e-10 -3.097198e-10
2.1157152e-08 2.1237094e-09 1.3184017e-07 -3.8747783e-09 5.0072124e-11 -4.9402333e-11 9.890384e-11 5.1076997e-11
-1.984347e-09 -6.800466e-11 1.9569972e-09 2.3260517e-10 -4.2486148e-10 -1.6008085e-12 -3.1773265e-10 1.7728343e-11
00000000: 0be4 4a2e ddf2 0230 4ecf daad 0c6a d4b0
00000010: 9b1c 5d2d a2c4 3bad ebd8 0e2c 01b7 ef2c
00000020: 13ee 0231 0263 0cae 65ad c931 61fa cbad
00000030: f069 5331 b475 63af ceee bf2f 3045 aaaf
00000040: 12bd b532 b1f0 1131 f38f 0d34 e922 85b1
00000050: 3338 5c2e 1546 59ae ea7d d92e 96a3 602e
00000060: 005d 08b1 388b 95ae dc7b 0631 89c0 7f2f
00000070: f091 e9af 344b e1ab e5ac aeaf aef0 9b2d

encoder.layers.0.conv.hy_linear.bias f4 [16]
8.211782e-10 1.1761352e-07 2.4189175e-08 1.1456207e-08 6.017412e-08 2.5835583e-09 -1.3860497e-06 -9.8767615e-08
7.827914e-06 2.3470646e-08 -4.763666e-09 5.1170304e-08 8.57743e-07 7.2202258e-09 -2.5191055e-08 2.7520553e-09
00000000: 47b9 6130 b792 fc33 8fc8 cf32 eed0 4432
00000010: 1339 8133 708a 3131 4e08 bab5 121a d4b3
00000020: a254 0337 7f9c c932 a6ad a3b1 58c6 5b33
00000030: a63f 6635 c715 f831 b763 d8b2 ab1e 3d31

encoder.layers.0.conv.hy_linear.weight f4 [16, 11]
-3.0777526e-11 6.4695377e-10 3.3847335e-11 2.1638033e-10 1.2070052e-10 6.4751166e-10 -1.2826773e-09 9.0853725e-09
1.3742195e-10 1.0552178e-09 -1.16222275e-10 -4.3021944e-05 -0.00012548958 -0.00019406417 5.976626e-05 -1.95143e-05
-2.3683513e-05 8.851651e-06 8.733409e-05 1.5630048e-05 -0.0010039253 -0.0059869825 8.8422354e-08 -7.325496e-08
1.1977468e-07 -4.2096058e-08 -1.7771969e-08 -1.3854633e-07 6.5411584e-08 -6.613302e-09 4.4245912e-08 -1.3549896e-07
7.165745e-08 -6.8729076e-09 3.0554976e-09 -4.83798e-06 -5.875103e-09 -7.2453077e-10 6.16872e-09 -1.7634724e-08
-1.9013005e-09 6.7401324e-08 -6.728258e-09 1.0045765e-09 -5.7353533e-05 0.00026808848 -2.7638347e-05 -1.8682693e-05
0.00031082332 0.0020464577 2.1015556e-05 -2.2436121e-05 -7.4584505e-06 -3.0552746e-06 -0.018024635 1.7493266e-09
-5.201438e-10 -5.942583e-10 2.6794917e-09 -1.5748899e-09 -1.7563412e-09 2.4191704e-10 9.64089e-10 -1.9621503e-10
-1.4495113e-09 5.9727554e-05 0.0024849684 -0.00044898406 -0.0053443895 0.0016588476 -0.0013739447 0.001959411
-0.0024596853 0.009147966 -1.1862879e-05 -0.0010136033 -0.0026234777 0.00028445097 9.324616e-07 -1.5658232e-05
2.8141001e-05 -1.52101375e-05 3.235145e-06 -6.5902846e-06 -4.0335937e-05 0.00077629875 5.1864066e-07 -4.5585217e-08
0.00013573674 4.7646732e-05 0.00029887163 0.00036415659 0.00021054276 0.00027195452 -0.00012624725 0.0001304224
0.00025938408 0.00044027867 0.07920856 3.7498774e-07 1.0357832e-07 2.5198597e-06 1.912402e-06 9.732091e-07
2.872897e-06 -3.950577e-07 5.487388e-07 2.28726e-06 2.0764974e-06 -1.1557752e-06 -1.1971358e-06 -3.0067224e-05
1.7762991e-07 5.2676154e-07 8.061913e-06 2.4373006e-07 -4.467793e-08 1.4680276e-06 -3.2221854e-07 -3.8972484e-08
-4.2447756e-08 -5.1453e-07 1.5866802e-07 -4.1612662e-07 -6.5615274e-07 1.2590985e-07 -0.0003385067 3.2851742e-07
-2.0884993e-06 -1.9995323e-06 -6.553444e-07 0.00017221147 5.7580244e-05 -0.00010408525 0.00011056702 -4.479735e-05
-0.00017152191 -0.00027724114 1.3899932e-05 -7.7101104e-05 -1.2315514e-05 0.00020860633 -0.0061026723 4.362071e-10
3.8234598e-09 -1.8463067e-09 -3.8154183e-10 -3.247196e-09 4.025153e-09 -4.8094495e-08 6.645762e-09 -5.8082533e-10
9.857516e-09 1.9987207e-08 2.6371283e-06 2.3025752e-06 7.533424e-06 5.9438376e-06 4.5552856e-06 6.5023537e-06
-1.7680392e-06 2.2511279e-06 5.097405e-06 6.1131254e-06 -3.6331398e-06 2.6169275e-10 4.2941029e-10 -2.745704e-10
1.1199319e-09 7.925343e-11 8.41041e-11 -1.0161445e-09 -1.1010597e-09 3.5120498e-10 -3.5615144e-10 1.8168744e-10
00000000: 6a5c 07ae 53d5 3130 b6dc 142e a6e9 6d2f
00000010: 2db6 042f 95fc 3130 324a b0b0 e415 1c32
00000020: d718 172f 2d07 9130 5393 ffae 7672 34b8
00000030: da95 03b9 b47d 4bb9 88ad 7a38 a4b2 a3b7
00000040: f5ab c6b7 8d81 1437 2227 b738 461d 8337
00000050: 2596 83ba 732e c4bb b4e2 bd33 5750 9db3
00000060: 6a9b 0034 1bcd 34b3 f9a8 98b2 53c3 14b4
00000070: 6678 8c33 383b e3b1 e508 3e33 ac7d 11b4
00000080: 1ae2 9933 bc26 ecb1 e2f8 5131 ef55 a2b6
00000090: f4dd c9b1 5228 47b0 a3f4 d331 2b7b 97b2
000000a0: 08a8 02b1 45be 9033 622e e7b1 6511 8a30
000000b0: e38e 70b8 3a8e 8c39 e6d8 e7b7 c7b8 9cb7
000000c0: 00f6 a239 dd1d 063b 904a b037 3435 bcb7
000000d0: 9a43 fab6 3809 4db6 66a8 93bc f56c f030
000000e0: def9 0eb0 3659 23b0 1e22 3831 8373 d8b0
000000f0: c363 f1b0 ccfe 842f de80 8430 9fbd 57af
00000100: 2538 c7b0 f983 7a38 dada 223b 9f65 ebb9
00000110: fd1f afbb b06d d93a ef15 b4ba 7669 003b
00000120: ac32 21bb 5ae1 153c ad06 47b7 e2da 84ba
00000130: a7ee 2bbb 5d22 9539 464e 7a35 cc59 83b7
00000140: 5710 ec37 0b2f 7fb7 5e1b 5936 1d22 ddb6
00000150: 622e 29b8 8780 4b3a b738 0b35 7ac9 43b3
00000160: 8e54 0e39 4ad8 4738 dfb1 9c39 45ec be39
00000170: 24c5 5c39 1e95 8e39 3d61 04b9 ffc1 0839
00000180: f1fd 8739 34d5 e639 1938 a23d ec51 c934
00000190: c96e de33 dc1a 2936 d156 0036 369f 8235
000001a0: ffcb 4036 5118 d4b4 0b4d 1335 d47e 1936
000001b0: f459 0b36 2220 9bb5 46ad a0b5 df38 fcb7
000001c0: 8aba 3e34 c766 0d35 a741 0737 01da 8234
000001d0: e7e3 3fb3 0b09 c535 61fd acb4 b362 27b3
000001e0: cd4f 36b3 3b1e 0ab5 555e 2a34 0268 dfb4
000001f0: 7922 30b5 d631 0734 9a79 b1b9 175f b034
00000200: 2528 0cb6 b42f 06b6 edea 2fb5 aa93 3439
00000210: 5182 7138 5848 dab8 38e0 e738 cae4 3bb8
00000220: 90da 33b9 ad5a 91b9 c133 6937 57b1 a1b8
00000230: bb9e 4eb7 56bd 5a39 edf8 c7bb b1ce ef2f
00000240: 825f 8331 24c1 fdb0 3dc1 d1af 4725 5fb1
00000250: 9f4d 8a31 7590 4eb3 be58 e431 f3a7 1fb0
00000260: d059 2932 55b0 ab32 85f9 3036 f185 1a36
00000270: 9fc7 fc36 2d71 c736 9bd9 9836 cb2e da36
00000280: 5d4d edb5 1512 1736 600a ab36 591f cd36
00000290: ded0 73b6 fbdd 8f2f 2012 ec2f 59f2 96af
000002a0: 1aec 9930 b747 ae2e 66f2 b82e 68a8 8bb0
000002b0: 1854 97b0 b513 c12f dccb c3af 78c4 472f

encoder.layers.0.conv_e.bias f4 [16]
2.3433758e-07 0.80343187 0.69000876 0.022622555 0.5750403 0.52911884 0.78521115 0.026832042
0.002941621 0.04859467 2.5834004e-07 0.57067823 0.53989846 0.00081151526 0.5935679 0.5530674
00000000: 399e 7b34 b6ad 4d3f 6aa4 303f f052 b93c
00000010: d735 133f 5574 073f 9903 493f dfce db3c
00000020: 36c8 403b 340b 473d fcb1 8a34 f817 123f
00000030: c936 0a3f debb 543a 11f4 173f d395 0d3f

encoder.layers.0.conv_e.att f4 [1, 8, 4]
-4.191367e-09 -0.0040808665 1.0083625e-10 -0.009693987 -0.0016350917 0.001682334 -0.006378201 0.0017751256
-0.0030921486 -0.0027726619 -0.0064243604 -0.0058844364 -0.003037586 0.002460244 -0.009326064 0.0028700365
-3.0305633e-05 0.00015967428 0.0002999011 0.002996569 -1.6198685e-09 -0.001974988 -1.0556906e-09 -0.0034956515
-0.0013554842 5.319201e-05 -0.0029318903 4.8210455e-05 -0.0034976867 -0.003197609 -0.007522038 -0.0066727097
00000000: a703 90b1 cab8 85bb c3bd dd2e 87d3 1ebc
00000010: 9350 d6ba c381 dc3a 3a00 d1bb 55ab e83a
00000020: a5a5 4abb 8cb5 35bb 7183 d2bb 3bd2 c0bb
00000030: 3d12 47bb 0c3c 213b 59cc 18bc 3917 3c3b
00000040: da38 feb7 3d6e 2739 0b3c 9d39 1662 443b
00000050: 0ea2 deb0 cd6e 01bb d017 91b0 4d17 65bb
00000060: 81aa b1ba 7c1a 5f38 f524 40bb 9535 4a38
00000070: 7239 65bb fa8e 51bb 6e7b f6bb bfa6 dabb

encoder.layers.0.conv_e.linear.weight f4 [16, 11]
7.9500104e-08 9.392855e-09 5.1640274e-08 3.7596774e-08 4.4714277e-08 3.203636e-08 -8.0282355e-08 4.8236522e-08
-1.7136795e-08 -3.659653e-09 -5.4259385e-07 0.006091091 0.0015954311 0.0039234683 -0.0022067798 -0.0024979624
0.0009570865 -0.0013886559 0.0037735335 0.0006934641 -0.0011676395 -1.6850497 0.005514207 0.0015919777
0.0027828387 -0.0013454038 -0.0007658932 0.0038805893 -0.003911461 0.002973157 0.0027430216 -0.00052371563
-1.4531255 0.020305319 0.017499225 0.022825476 0.010878244 0.005342298 0.012997396 0.03944062
0.012245197 0.008222644 0.03256018 0.12472985 0.0041243113 -0.0032579876 0.003916462 -0.0018320888
-0.0016691011 0.00015652725 -0.0018595869 0.002547335 0.003605753 -0.0011675907 -1.2154444 0.004623613
-0.0005531779 0.004187781 -0.0015045134 -0.0013142907 0.0008347906 -0.0047038333 0.0012209449 0.0027985214
0.00028641042 -1.116089 0.0070316084 0.0015662331 0.003814576 -0.0027132106 -0.0010314278 0.0031486459
-0.0027303381 0.004008261 -9.770251e-05 0.0008148705 -1.6500549 0.027113471 0.01931621 0.027665658
0.011979747 0.0058507677 0.01438989 0.046211574 0.01596463 0.010509806 0.0383086 0.14656384
0.0040220637 0.0035432987 0.0035518694 0.0020048534 0.0012903113 0.0028530145 0.007763448 0.0021513079
0.0007630897 0.006255991 0.023499288 0.046130735 0.03184708 0.046751212 0.021587037 0.009920657
0.024705462 0.075919725 0.031618807 0.020727348 0.06514711 0.24463193 1.9789827e-08 -2.6300262e-09
2.0721671e-08 -9.7647215e-09 1.2255157e-08 6.701451e-09 -5.994533e-08 3.276508e-08 -4.5596864e-09 -3.1842497e-08
-6.207691e-07 0.0033892132 -0.0020094803 0.004626517 -0.0017227959 -0.0012550615 -0.001097775 -0.0022929981
0.0029551506 0.0029675863 -0.0010855444 -1.2070287 0.0038523842 -0.000879279 0.0058505037 -0.0021088053
-0.0010854614 0.0006374691 -0.003409753 -0.0007155321 0.002117105 0.00076758227 -1.1371969 0.0011660045
0.0011858663 0.001156638 0.0006576766 0.00043645067 0.0010143581 0.0022214062 0.00059110083 0.0002144653
0.0019113256 0.006929235 0.00572281 -0.0003396939 0.005322332 -0.0034133077 -0.0010818313 0.0013446913
-0.004276479 0.0041680266 0.00018803586 -0.001500475 -1.2482888 0.005067909 -0.0011282227 0.0038235548
-0.0026455033 -0.00070955494 0.0015382147 -0.0033967386 0.0018741061 0.00048964686 0.00010184414 -1.167933
00000000: a5b9 aa33 375e 2132 15cb 5d33 177a 2133
00000010: de0b 4033 5a98 0933 b167 acb3 9e2c 4f33
00000020: 3634 93b2 4c7d 7bb1 c4a6 11b5 c697 c73b
00000030: c91d d13a 7090 803b 9f9f 10bb dbb4 23bb
00000040: fde4 7a3a 8f03 b6ba 634d 773b 97c9 353a
00000050: 7b0b 99ba b5af d7bf 85b0 b43b e8a9 d03a
00000060: 4960 363b 4358 b0ba 39c6 48ba 7c51 7e3b
00000070: b72b 80bb 4cd9 423b 44c4 333b f649 09ba
00000080: 0400 babf 5757 a63c 895a 8f3c 7efc ba3c
00000090: aa3a 323c 720e af3b 08f3 543c 7d8c 213d
000000a0: 14a0 483c 45b8 063c d35d 053d 5d72 ff3d
000000b0: 3b25 873b f683 55bb aa55 803b b322 f0ba
000000c0: bdc5 daba 7721 2439 62bd f3ba 31f1 263b
000000d0: 7f4e 6c3b d809 99ba af93 9bbf ad81 973b
000000e0: 2403 11ba a739 893b 1833 c5ba 4744 acba
000000f0: d9d5 5a3a 9d22 9abb 1d08 a03a 6667 373b
00000100: 5b29 9639 01dc 8ebf 6869 e63b 104a cd3a
00000110: f7fd 793b 1fd0 31bb f930 87ba 8359 4e3b
00000120: 79ef 32bb bb57 833b a3e5 ccb8 099d 553a
00000130: 0035 d3bf 121d de3c 073d 9e3c 17a3 e23c
00000140: b346 443c ccb7 bf3b 93c3 6b3c 5948 3d3d
00000150: 41c8 823c 5231 2c3c 7be9 1c3d d514 163e
00000160: 84cb 833b b036 683b 7bc6 683b dc63 033b
00000170: aa1f a93a a4f9 3a3b 8664 fe3b f5fc 0c3b
00000180: 150a 483a 0eff cc3b 9481 c03c 95f3 3c3d
00000190: 1572 023d 337e 3f3d 4cd7 b03c 408a 223c
000001a0: 1c63 ca3c cd7b 9b3d b982 013d 66cc a93c
000001b0: d96b 853d cb80 7a3e 4afe a932 e9bb 34b1
000001c0: 70ff b132 b3c1 27b2 c08a 5232 9642 e631
000001d0: 4bbb 80b3 96b9 0c33 6dab 9cb1 32c3 08b3
000001e0: eda2 26b5 901d 5e3b 7cb1 03bb 0a9a 973b
000001f0: 70cf e1ba e080 a4ba 37e3 8fba 2046 16bb
00000200: 33ab 413b d67b 423b d348 8eba eb7f 9abf
00000210: 4878 7c3b 6a7f 66ba 95b5 bf3b e233 0abb
00000220: 0a46 8eba d41b 273a 2a76 5fbb 8c92 3bba
00000230: 21bf 0a3b 9337 493a ab8f 91bf 9ed4 983a
00000240: 126f 9b3a 559a 973a ee67 2c3a 6bd3 e439
00000250: 36f4 843a 0395 113b 1bf4 1a3a 17e2 6039
00000260: 7285 fa3a a30e e33b 6986 bb3b f218 b2b9
00000270: f566 ae3b cdb1 5fbb 3ccc 8dba 5a40 b03a
00000280: b521 8cbb f193 883b 7e2b 4539 96ab c4ba
00000290: edc7 9fbf b410 a63b dfe0 93ba 9b94 7a3b
000002a0: 2e60 2dbb 6d01 3aba ec9d c93a d19b 5ebb
000002b0: 91a4 f53a a55b 003a 2895 d538 d47e 95bf

encoder.layers.0.conv_e.linear.bias f4 [16]
2.343604e-07 0.8035402 0.68902266 0.02262116 0.5748072 0.53017783 0.78505933 0.027770448
0.003298013 0.048559427 2.8021176e-07 0.5701886 0.53934854 0.00081695954 0.59271765 0.5525132
00000000: 7fa4 7b34 d0b4 4d3f ca63 303f 0350 b93c
00000010: 9126 133f bcb9 073f a6f9 483f da7e e33c
00000020: 7a23 583b 40e6 463d 0370 9634 e1f7 113f
00000030: bf12 0a3f 3a29 563a 58bc 173f 8171 0d3f

encoder.layers.1.conv.bias f4 [16]
0.012279242 -6.1041515e-06 0.004438272 9.94117e-05 0.0015515285 0.020842012 -3.2475087e-10 0.011200037
0.0127310185 0.0033243496 0.00030601115 0.0020663063 0.005379054 -3.7175754e-09 0.0006824238 -5.4199216e-08
00000000: e02e 493c 43d2 ccb6 ed6e 913b 407b d038
00000010: a85c cb3a debc aa3c 9f88 b2af 5c80 373c
00000020: c395 503c 55dd 593b 1f70 a039 de6a 073b
00000030: c742 b03b 4778 7fb1 b0e4 323a abc8 68b3

encoder.layers.1.conv.att f4 [1, 8, 4]
4.7373383e-10 1.9388272e-10 4.2750328e-10 1.4274912e-10 -2.3231555e-08 5.416582e-10 -1.5286468e-10 1.4783558e-09
7.1804944e-11 3.031647e-10 1.1104722e-10 -2.8070812e-10 -4.3642354e-10 -2.998258e-08 -5.5199255e-11 -4.5577123e-10
3.799769e-09 -5.670966e-10 4.1215711e-10 6.485057e-10 -2.0916283e-10 4.2146777e-12 5.609618e-10 -1.7976312e-12
1.095609e-11 -1.2459047e-11 7.917523e-11 7.656496e-11 -8.554912e-12 1.0570888e-11 1.4555138e-11 7.049157e-13
00000000: 0e38 0230 222d 552f bd05 eb2f 4ef4 1c2f
00000010: bb8e c7b2 cfe3 1430 9513 28af 052f cb30
00000020: 97e6 9d2e a3aa a62f 0732 f42e 2852 9aaf
00000030: 27ed efaf 32c6 00b3 d6c4 72ae 1990 faaf
00000040: 1f8f 8231 e0e1 1bb0 f595 e22f 8842 3230
00000050: 1afa 65af 714a 942c 2d32 1a30 7dfe fcab
00000060: d8bd 402d 8f2e 5bad b11b ae2e 3e5e a82e
00000070: e67f 16ad 0cf7 392d 4207 802d 886a 462b

encoder.layers.1.conv.hy_linear.bias f4 [16]
0.001115162 0.008953691 0.0019540514 0.004616483 6.803387e-06 -1.0495305e-07 -0.00476627 0.0030756048
5.190673e-08 0.00068992557 0.0045216666 3.3262663e-07 0.0013281076 -0.004667029 0.00011362967 -0.0053500514
00000000: a12a 923a 81b2 123c 8b0f 003b de45 973b
00000010: a648 e436 8d62 e1b3 5f2e 9cbb 1690 493b
00000020: 0ef0 5e33 1fdc 343a 7d2a 943b db93 b234
00000030: e513 ae3a e0ed 98bb 774c ee38 7c4f afbb

encoder.layers.1.conv.hy_linear.weight f4 [16, 16]
-1.3110321e-09 9.557094e-06 -1.8005872e-08 1.6148608e-08 4.0197276e-05 -1.5023174e-07 -9.359813e-07 1.6422205e-06
0.073842004 2.1191491e-07 1.7840342e-05 0.00011307578 1.34168795e-05 1.1883141e-09 0.00020276007 -1.357909e-11
6.0099956e-09 4.157208e-07 -8.6487745e-10 -1.0750024e-09 -1.3798507e-05 2.5841976e-08 1.1985689e-07 0.00031451223
-0.011068672 -0.0017569922 9.225381e-05 0.0013261021 -1.0166762e-05 -7.608502e-10 1.0538827e-06 1.9773912e-11
4.1814144e-10 -7.5418297e-06 -1.3325213e-08 9.596605e-09 1.5856458e-05 -4.112958e-08 -4.2636375e-06 1.1951329e-06
0.021789847 8.4662645e-08 6.658628e-05 -8.0497597e-07 1.5727577e-05 4.7366986e-09 1.2312893e-07 -2.8201491e-11
-6.3958695e-12 1.4755778e-06 1.3977071e-09 1.096629e-10 0.0018156545 1.4426475e-10 5.896781e-06 -4.6648992e-07
-6.462258e-05 -4.873809e-05 3.7285656e-05 3.538954e-06 0.0042924103 -2.275245e-09 -0.004367331 -4.8551396e-11
-2.36172e-10 3.7221016e-06 1.0622148e-09 -9.144469e-10 3.412651e-07 1.3435784e-09 -1.06494575e-07 -9.821665e-09
-0.00062396255 1.0264724e-09 -9.252626e-05 -1.7552095e-06 -2.1594994e-07 4.6492957e-10 1.0341212e-08 9.803442e-11
6.5421524e-10 0.005764139 1.6044017e-06 2.3941165e-09 0.0070114997 3.463061e-08 0.0060477634 -0.0002526337
-0.010132262 -1.1258704e-07 0.010335906 -2.0435004e-05 0.017476397 9.592528e-09 -4.910359e-08 1.0801151e-10
-5.579591e-11 -8.25116e-10 9.68527e-11 1.4677804e-11 2.2599456e-09 6.421905e-11 2.4384201e-08 -1.924119e-09
7.1417537e-07 2.075815e-10 -7.7783197e-10 -2.3035348e-07 -4.2449058e-10 -1.1879163e-10 1.8914177e-09 -1.149173e-11
4.763022e-11 0.00080138945 8.000238e-05 4.3542645e-09 0.00037445713 3.1199054e-09 0.0032294982 3.2044085e-05
-0.0019156911 3.9871816e-07 -0.00016003697 -4.2016592e-05 0.00019987492 2.2634215e-08 2.3973294e-05 -3.4115984e-11
-1.443772e-09 9.420192e-06 9.297181e-09 9.784701e-09 3.4093075e-05 -1.0791811e-07 -6.782682e-06 1.8939313e-06
0.050618555 0.00030051003 0.00037720517 -8.735714e-05 1.0805229e-05 7.301698e-09 0.0015104144 1.4353975e-10
3.929268e-11 3.4378518e-05 1.4670554e-09 -6.8887047e-09 1.2694834e-05 -3.4154457e-08 -6.947863e-05 6.7102735e-07
0.01628435 4.7495217e-07 0.0045137974 -3.2378455e-05 4.952006e-06 -3.9603143e-10 -3.485896e-08 1.2220817e-10
9.344856e-10 4.5265424e-06 -7.491228e-09 1.01615845e-08 -0.0002630834 -4.620762e-08 -4.1191265e-07 7.917335e-07
0.02039669 1.1235271e-08 1.5390358e-05 -3.959869e-07 -0.00010755442 -1.8103088e-10 2.8258912e-08 2.1061267e-11
2.6423204e-11 4.160865e-06 3.9916146e-09 -1.5031569e-09 1.7769314e-06 9.49403e-10 1.5101006e-07 1.2968296e-07
-0.0005497123 8.969333e-10 -9.253186e-06 0.0009480184 7.903111e-06 1.2269838e-09 -5.8642566e-08 -8.158156e-12
1.6213092e-10 0.0024368253 4.1685136e-05 -5.9395564e-09 3.4491854e-06 2.9431657e-09 5.7425063e-06 3.4742927e-05
-0.0012837019 -3.3017912e-08 0.0002690005 0.000494201 -1.5232573e-08 -1.1106412e-09 -1.0910583e-08 1.9470663e-11
-1.1418184e-12 3.5964853e-09 -1.815544e-10 2.2389273e-11 -1.791487e-09 -1.3685072e-11 -6.5583344e-10 4.4697925e-09
-6.6515595e-06 -3.592609e-09 1.5829603e-08 1.3851356e-09 4.7891904e-09 -2.6382746e-10 -4.481313e-09 -4.370546e-12
-3.102124e-10 3.1903454e-07 4.753832e-09 -1.1703595e-10 5.4389295e-07 -2.0565807e-09 -2.5675813e-08 1.7803304e-08
0.00071604445 2.791151e-06 6.4076535e-09 0.0007584207 9.823876e-08 1.068984e-09 3.4523076e-05 -1.5418286e-11
4.420874e-11 -3.192765e-08 4.4561813e-10 -3.1285388e-10 1.0064054e-08 1.1383681e-10 2.2859414e-08 3.4062502e-09
-0.00030270056 -1.4840257e-09 -0.00013147222 5.8206357e-08 5.1959415e-09 2.1297408e-10 -1.4716727e-07 3.961593e-12
00000000: d72f b4b0 6857 2037 55ab 9ab2 2ab7 8a32
00000010: 7f99 2838 634f 21b4 2540 7bb5 446a dc35
00000020: 7a3a 973d ba8a 6334 d8a7 9537 1923 ed38
00000030: 0f19 6137 1652 a330 fe9b 5439 c9e2 6ead
00000040: 7b80 ce31 3b30 df34 57bc 6db0 49bf 93b0
00000050: 2380 67b7 1bfb dd32 03b2 0034 1ee5 a439
00000060: 6059 35bc e04a e6ba 6378 c138 9ad0 ad3a
00000070: e991 2ab7 1324 51b0 2273 8d35 e4ee ad2d
00000080: 2de0 e52f d30f fdb6 e8ec 64b2 51de 2432
00000090: 7c03 8537 74a6 30b3 5e10 8fb6 7468 a035
000000a0: 9f80 b23c c8cf b533 3da4 8b38 8715 58b5
000000b0: b7ee 8337 71c0 a231 6c35 0434 1d10 f8ad
000000c0: df08 e1ac 780c c635 7219 c030 b926 f12e
000000d0: 41fb ed3a eb9e 1e2f f7dc c536 e371 fab4
000000e0: fc85 87b8 206c 4cb8 2b63 1c38 c47e 6d36
000000f0: 59a7 8c3b 895a 1cb1 d41b 8fbb 0388 55ae
00000100: 41d6 81af 38c9 7936 5cfd 9130 7b5c 7bb0
00000110: 1e37 b734 f6a8 b830 03b2 e4b3 24bc 28b2
00000120: 6b91 23ba c913 8d30 a80a c2b8 8a94 ebb5
00000130: dedf 67b4 0599 ff2f 22a9 3132 7994 d72e
00000140: 4ed4 3330 1ae1 bc3b d356 d735 be85 2431
00000150: b9c0 e53b c2bc 1433 512c c63b ec73 84b9
00000160: c901 26bc 61c7 f1b3 ef57 293c d66b abb7
00000170: a92a 8f3c 62cc 2432 f8e5 52b3 1385 ed2e
00000180: 9c64 75ae 60ce 62b0 39fb d42e 7a1b 812d
00000190: 624d 1b31 1c38 8d2e 6d75 d132 7639 04b1
000001a0: c2b5 3f35 ff3c 642f 0fcf 55b0 1557 77b4
000001b0: bd5d e9af df9c 02af 2cfa 0131 272a 4aad
000001c0: dc7a 512e 5614 523a f3c6 a738 849c 9531
000001d0: c952 c439 f565 5631 fda5 533b 1367 0638
000001e0: ed17 fbba 680f d634 99cf 27b9 f93a 30b8
000001f0: 8495 5139 2a6d c232 421a c937 2f0b 16ae
00000200: 366e c6b0 6b0b 1e37 6fb9 1f32 9219 2832
00000210: 29ff 0e38 9cc0 e7b3 cb96 e3b6 fc32 fe35
00000220: 6755 4f3d c68d 9d39 9fc3 c539 8233 b7b8
00000230: 1b48 3537 6ae2 fa31 19f9 c53a d9d2 1d2f
00000240: a0cf 2c2e a731 1038 6ca1 c930 b0b1 ecb1
00000250: e6fb 5437 39b1 12b3 0eb5 91b8 a620 3435
00000260: c266 853c eefc fe34 7ae8 933b 1ace 07b8
00000270: 6829 a636 78b8 d9af d5b7 15b3 8b5e 062f
00000280: 4a6f 8030 b4e2 9736 c5b2 00b2 1f93 2e32
00000290: 75ee 89b9 d175 46b3 d824 ddb4 8387 5435
000002a0: f616 a73c 3f05 4132 8b1a 8137 0698 d4b4
000002b0: d78e e1b8 aa0b 47af 01be f232 c241 b92d
000002c0: c46b e82d 8f9d 8b36 9d26 8931 a297 ceb0
000002d0: e67e ee35 267c 8230 5425 2234 fb3e 0b34
000002e0: 911a 10ba 128c 7630 223e 1bb7 7084 783a
000002f0: 9a97 0437 a8a2 a830 2fde 7bb3 1185 0fad
00000300: cc43 322f 25b3 1f3b 13d7 2e38 e414 ccb1
00000310: 8e78 6736 b840 4a31 c1af c036 efb8 1138
00000320: e341 a8ba 94cf 0db3 a308 8d39 458d 013a
00000330: c8d8 82b2 37a5 98b0 4071 3bb2 0944 ab2d
00000340: 58b2 a0ab 0a26 7731 059f 47af 29f0 c42d
00000350: 5838 f6b0 16c0 70ad 2d46 34b0 b694 9931
00000360: 7630 dfb6 d9e1 76b1 aaf9 8732 205f be30
00000370: 2a8e a431 6a0a 91af 0cfa 99b1 61c6 99ac
00000380: 848a aaaf c647 ab34 2657 a331 b1ae 00af
00000390: 0a00 1235 c053 0db1 b68d dcb2 e1ed 9832
000003a0: eeb4 3b3a 9c4f 3b36 512a dc31 c0d0 463a
000003b0: 54f7 d233 88eb 9230 dfcc 1038 e59e 87ad
000003c0: 9e6e 422e d320 09b3 2dfb f42f 45fe abaf
000003d0: 2de6 2c32 6d54 fa2e 625c c432 6313 6a31
000003e0: c8b3 9eb9 83f6 cbb0 cedb 09b9 91fe 7933
000003f0: fc87 b231 e02a 6a2f 0805 1eb4 dc62 8b2c

encoder.layers.1.conv_e.bias f4 [16]
0.041613903 0.03857306 0.026527783 -3.177226e-05 0.03616702 4.335334e-05 0.038141843 0.0015547326
1.46627435e-05 0.0258566 0.00045601622 0.04333754 0.045163937 1.6780322e-09 0.02938053 3.70615e-07
00000000: 5773 2a3d c9fe 1d3d cb50 d93c 3443 05b8
00000010: df23 143d 4bd6 3538 9f3a 1c3d 2bc8 cb3a
00000020: 0100 7637 38d1 d33c 7615 ef39 b482 313d
00000030: d2fd 383d 82a0 e630 70af f03c f0f8 c634

encoder.layers.1.conv_e.att f4 [1, 8, 4]
-0.0010092866 0.00028284165 -0.0060062227 -0.005653269 -2.8397296e-06 -1.980788e-09 -0.004479504 -1.448492e-07
0.0007195275 -1.2282043e-06 -0.004055485 -2.3812352e-05 1.5636215e-06 -1.8115652e-07 -0.004801806 -0.00039739878
-2.9477332e-09 -2.4540884e-06 6.077435e-07 -0.0025183435 -3.1833413e-05 0.00699004 -1.29422415e-05 -0.0013301697
0.012325725 2.5425198e-10 -0.0041936617 -3.5255996e-09 7.3235447e-07 -4.1326365e-10 -0.0031142293 -5.210113e-08
00000000: 0a4a 84ba 5d4a 9439 d9cf c4bb 0f3f b9bb
00000010: 2f92 3eb6 641e 08b1 cec8 92bb d887 1bb4
00000020: ac9e 3c3a c7d8 a4b5 e0e3 84bb a3c0 c7b7
00000030: a0dd d135 ed83 42b4 7858 9dbb f659 d0b9
00000040: 1291 4ab1 ebb0 24b6 d123 2335 cb0a 25bb
00000050: de84 05b8 b50c e53b 8122 59b7 1759 aeba
00000060: d6f1 493c c9c6 8b2f fc6a 89bb 0147 72b1
00000070: 0497 4435 b031 e3af 1918 4cbb ccc5 5fb3

encoder.layers.1.conv_e.linear.weight f4 [16, 16]
1.8187504e-07 0.75006366 0.64306307 -0.050357293 0.53705734 0.4929556 0.73546785 -0.06029949
-0.00941941 -0.10194815 2.3933381e-07 0.5333773 0.5023758 -0.0027973054 0.5522195 0.51609015
1.6105085e-07 0.70872957 0.6062237 -0.04841607 0.5067611 0.4653215 0.6917105 -0.05788526
-0.0091030365 -0.096857235 2.2768181e-07 0.5033108 0.47416815 -0.0027178368 0.5209844 0.48701078
1.2250943e-07 0.50360185 0.43054894 -0.034154195 0.36015165 0.33060506 0.49193272 -0.040478088
-0.006403532 -0.068334736 1.602917e-07 0.3577188 0.3379774 -0.0019250353 0.37006834 0.34603092
9.226133e-11 1.9475015e-06 -7.296499e-05 -3.4375236e-05 1.3415181e-06 6.1734016e-07 -5.6354356e-06 -2.9684496e-05
-4.591978e-06 0.00011004277 -3.8410106e-10 -5.6344884e-06 -6.432389e-06 -1.3978057e-06 7.2190306e-07 -8.394162e-06
1.521833e-07 0.65757823 0.56115144 -0.044699006 0.46884692 0.4301058 0.64062977 -0.053080663
-0.008407605 -0.089501925 2.0847975e-07 0.46537516 0.43833578 -0.0025098864 0.48151508 0.45033792
2.561977e-10 0.0008824361 0.0007445035 -6.0969967e-05 0.00062534754 0.00057220476 0.00086078455 -7.12305e-05
-1.0966081e-05 -0.000118798795 2.5672636e-10 0.00061969407 0.0005822747 -3.2423886e-06 0.0006412206 0.000604841
1.7225386e-07 0.7132284 0.6093341 -0.04813375 0.50882363 0.46705577 0.6960438 -0.057194274
-0.009005247 -0.09664113 2.2630093e-07 0.50533676 0.4759816 -0.0026723214 0.5228479 0.48900086
2.8936165e-08 0.052595496 0.044272777 -0.0038500014 0.037126377 0.033822667 0.050916284 -0.0046830787
-0.0006902199 -0.0072288522 1.5260582e-08 0.036648244 0.034513257 -0.0002639523 0.037916407 0.035423443
1.5060332e-10 0.0002998065 0.00025402135 -2.146109e-05 0.0002141512 0.00019448204 0.00028980145 -2.4669615e-05
-3.828049e-06 -4.0863273e-05 8.5364535e-11 0.00021143943 0.00019828732 -1.2254729e-06 0.00021803216 0.00020581941
1.1766667e-07 0.48306358 0.41206944 -0.032807473 0.34588134 0.31580156 0.47088084 -0.038934875
-0.0061369385 -0.06576521 1.5427317e-07 0.34172592 0.3219429 -0.0018185923 0.35354424 0.33060268
2.4477809e-09 0.008278786 0.0071890736 -0.0005721753 0.0059250677 0.0054267184 0.008104765 -0.00067388004
-0.000108816224 -0.0011166573 3.1373357e-09 0.005864165 0.0055211247 -3.1877407e-05 0.00606293 0.0056410553
1.9297737e-07 0.8128534 0.69513226 -0.055665694 0.58102334 0.53346294 0.79457724 -0.06570848
-0.010377994 -0.11091081 2.5451016e-07 0.57652247 0.5430554 -0.0030685097 0.5983501 0.5577982
2.0272064e-07 0.83549297 0.7147069 -0.05668815 0.59688073 0.5478549 0.81552434 -0.06740755
-0.010620342 -0.11365919 2.6429746e-07 0.59280574 0.5583442 -0.0031453744 0.61467785 0.57350284
-6.073184e-11 4.8942052e-08 4.1935678e-08 5.3897824e-09 3.574188e-08 3.446554e-08 4.980858e-08 -3.907694e-09
-2.7910825e-09 -8.3886125e-09 -3.6049577e-11 3.6394443e-08 3.113303e-08 -1.2044855e-09 3.711906e-08 3.5756994e-08
1.3016417e-07 0.5298212 0.4531663 -0.036223143 0.37902376 0.34757268 0.51675737 -0.04287985
-0.006802157 -0.07242722 1.7449203e-07 0.37603563 0.35500437 -0.0020149932 0.38915104 0.36382043
1.9386673e-10 6.607181e-06 5.6272684e-06 -4.8128516e-07 4.6789046e-06 4.304685e-06 6.347317e-06 -5.056786e-07
-5.1777068e-08 -8.6266175e-07 4.2097525e-10 4.640686e-06 4.329972e-06 1.7654259e-09 4.8349716e-06 4.486085e-06
00000000: 6e49 4334 2c04 403f c89f 243f 7343 4ebd
00000010: 977c 093f ad64 fc3e 9f47 3c3f 99fc 76bd
00000020: de53 1abc 31ca d0bd ca7d 8034 6a8b 083f
00000030: b39b 003f ff52 37bb 425e 0d3f 7c1e 043f
00000040: 52ed 2c34 4d6f 353f 7a31 1b3f ee4f 46bd
00000050: 18bb 013f 9f3e ee3e f013 313f 1819 6dbd
00000060: e724 15bc 165d c6bd b378 7434 fad8 003f
00000070: 2bc6 f23e bc1d 32bb 3c5f 053f 7a59 f93e
00000080: 238b 0334 0dec 003f e970 dc3e 45e5 0bbd
00000090: cc65 b83e 1145 a93e 9bde fb3e 5acc 25bd
000000a0: b8d4 d1bb 15f3 8bbd a61c 2c34 eb26 b73e
000000b0: 600b ad3e 7751 fcba 9979 bd3e f72a b13e
000000c0: 83e2 ca2e d2b1 0236 c804 99b8 212e 10b8
000000d0: 360e b435 4bb7 2535 0618 bdb6 f802 f9b7
000000e0: ca14 9ab6 c3c6 e638 6b29 d3af e30f bdb6
000000f0: cdd5 d7b6 3d9c bbb5 cdc8 4135 a7d4 0cb7
00000100: d467 2334 0c57 283f 9fa7 0f3f 4e16 37bd
00000110: b40c f03e d436 dc3e 5000 243f 1c6b 59bd
00000120: 0dc0 09bc c94c b7bd 7ada 5f34 a745 ee3e
00000130: 8c6d e03e e87c 24bb 2589 f63e b192 e63e
00000140: 9fd8 8c2f 4953 673a c92a 433a 01ba 7fb8
00000150: 5dee 233a 0300 163a 46a6 613a 9561 95b8
00000160: f6fa 37b7 9e23 f9b8 0623 8d2f f772 223a
00000170: cba3 183a d097 59b6 9617 283a 318e 1e3a
00000180: c8f4 3834 2396 363f 52fd 1b3f e527 45bd
00000190: 4442 023f ef21 ef3e ed2f 323f 8b44 6abd
000001a0: be8a 13bc c9eb c5bd 20fd 7234 c05d 013f
000001b0: dcb3 f33e 1d22 2fbb 5cd9 053f 525e fa3e
000001c0: 4d8f f832 606e 573d 5f57 353d 4e50 7cbb
000001d0: d411 183d a389 0a3d 988d 503d 8374 99bb
000001e0: e0ef 34ba 02e0 ecbb 6016 8332 781c 163d
000001f0: c65d 0d3d 1463 8ab9 3c4e 1b3d 2c18 113d
00000200: 1197 252f 592f 9d39 2b2e 8539 5707 b4b7
00000210: c68d 6039 e0ed 4b39 7ef0 9739 98f1 ceb7
00000220: b172 80b6 9b64 2bb8 f6b7 bb2e d7b5 5d39
00000230: 59eb 4f39 ee7a a4b5 909f 6439 3ad1 5739
00000240: f0af fc33 1c54 f73e c4fa d23e 2161 06bd
00000250: 5c17 b13e beb0 a13e 4b17 f13e 2d7a 1fbd
00000260: 5f18 c9bb e9af 86bd 49a6 2534 b3f6 ae3e
00000270: b3d5 a43e d55d eeba c003 b53e c144 a93e
00000280: d135 2831 bfa3 073c 5292 eb3b 09fe 15ba
00000290: 1227 c23b 9dd2 b13b d9c9 043c 53a7 30ba
000002a0: 4434 e4b8 cd5c 92ba 9898 5731 2e28 c03b
000002b0: 8dea b43b 1bb4 05b8 8bab c63b 9ad8 b83b
000002c0: 3735 4f34 2917 503f 30f4 313f b601 64bd
000002d0: f2bd 143f 0791 083f 6a69 4b3f 2b92 86bd
000002e0: 7608 2abc 3525 e3bd 9ca3 8834 fa96 133f
000002f0: ae05 0b3f 0d19 49bb 792d 193f ddcb 0e3f
00000300: 6dab 5934 dee2 553f 08f7 363f d531 68bd
00000310: 2dcd 183f 3840 0c3f 34c6 503f f80c 8abd
00000320: f100 2ebc 26c6 e8bd c4e4 8d34 1ec2 173f
00000330: a5ef 0e3f a022 4ebb 875b 1d3f 15d1 123f
00000340: fd8c 85ae 5b34 5233 c41c 3433 0731 b931
00000350: 9d82 1933 4307 1433 1ded 5533 7144 86b1
00000360: 3ecd 3fb1 821d 10b2 378c 1eae 1d50 1c33
00000370: 21b7 0533 118b a5b0 d76c 1f33 3b93 1933
00000380: 41c3 0b34 5da2 073f 6a05 e83e b85e 14bd
00000390: 670f c23e 0cf5 b13e 364a 043f c8a2 2fbd
000003a0: a1e4 debb b954 94bd 015c 3b34 be87 c03e
000003b0: 22c3 b53e fa0d 04bb ce3e c73e ac46 ba3e
000003c0: a228 552f 41b3 dd36 ded1 bc36 aa31 01b5
000003d0: 7cff 9c36 f670 9036 0afb d436 f8bd 07b5
000003e0: 7d61 5eb3 aa91 67b5 006f e72f 30b7 9b36
000003f0: 2d4a 9136 67a3 f230 173c a236 2d87 9636

encoder.layers.1.conv_e.linear.bias f4 [16]
0.04136003 0.038944166 0.026502762 -3.623419e-05 0.036139064 4.314787e-05 0.03824242 0.0015721667
1.4801009e-05 0.026126381 0.00045277097 0.043570112 0.044838108 2.0895337e-09 0.029620932 3.0126375e-07
00000000: 2369 293d eb83 1f3d 521c d93c 2afa 17b8
00000010: 8e06 143d acf9 3438 15a4 1c3d 2911 ce3a
00000020: d951 7837 fe06 d63c e461 ed39 9376 323d
00000030: 2aa8 373d 7797 0f31 99a7 f23c 60bd a134

w_e.weight f4 [1, 32]
0.030018225 -0.016195849 0.059251413 0.012050837 0.17181893 -0.10668497 0.15364988 -0.10522881
0.07649849 0.09025641 0.025771424 -0.08095295 0.07031958 0.121551946 -0.1149703 -0.048563957
0.06478508 -0.06939234 -0.09288329 0.07253805 0.15063252 0.094467744 -0.08732842 -0.024089307
0.08262204 0.0076498836 -0.09088055 0.05276653 0.13848661 0.053644747 0.14970125 -0.035858095
00000000: c8e8 f53c 28ad 84bc 9cb1 723d e070 453c
00000010: 4df1 2f3e a67d dabd 6556 1d3e 3482 d7bd
00000020: 3eab 9c3d 5ad8 b83d 981e d33c a9ca a5bd
00000030: b603 903d 3af0 f83d 8c75 ebbd 00eb 46bd
00000040: 0aae 843d 921d 8ebd 9839 bebd d48e 943d
00000050: 693f 1a3e 4e78 c13d 3ed9 b2bd f056 c5bc
00000060: be35 a93d e0ab fa3b 951f babd b821 583d
00000070: 6fcf 0d3e 98ba 5b3d 494b 193e f0df 12bd

w_h.weight f4 [1, 32]
-0.018443331 0.12808074 -0.05429618 -0.03603266 -0.03775662 0.13737483 -0.017629176 0.106411144
0.06569439 0.080889836 -0.03224343 -0.17232226 0.1701848 -0.04171242 0.050821885 -0.16498008
0.018928215 0.008786395 0.14865653 0.11748956 -0.119098015 0.04774186 0.13341726 0.11283328
-0.13741767 0.16982271 0.028333351 0.111132905 0.013460606 0.045975283 0.1313821 0.022654653
00000000: 7816 97bc 9927 033e ac65 5ebd fc96 13bd
00000010: b0a6 1abd fdab 0c3e 106b 90bc 16ee d93d
00000020: c88a 863d 92a9 a53d b011 04bd 3f75 30be
00000030: ed44 2e3e a4da 2abd 9c2a 503d 8af0 28be
00000040: 580f 9b3c d0f4 0f3c 6b39 183e 5e9e f03d
00000050: a9e9 f3bd f88c 433d 899e 083e 2215 e73d
00000060: 38b7 0cbe 01e6 2d3e 581b e83c a699 e33d
00000070: e089 5c3c 9450 3c3d 0789 063e 4096 b93c
