logs/nc/2020_1_18/2/model.pth (torch_old, 478871 bytes, 13 tensors)

encoder.layers.0.conv.att f4 [1, 1, 32]
000000 7f f9 aa 3e 90 f6 1d bd ca de 75 3d 13 07 e7 bc
       0.33393475 -0.03856522 0.06002692 -0.028201615
000010 27 b6 93 bd c2 08 ab 3e 38 79 80 3e b7 67 f2 be
       -0.07212477 0.3340512 0.25092483 -0.47344753
000020 a2 14 b4 3e 45 04 75 3e 1c ed 16 bd 53 07 ed 3e
       0.35171992 0.2392741 -0.03684722 0.4629465
000030 e3 a6 6a bd 55 c0 93 bd bb 29 81 3e 18 0e 82 3e
       -0.05728806 -0.07214419 0.2522715 0.25401378
000040 3b 11 a6 3e df 71 66 bd 0e 4f 18 3e 85 25 1c bd
       0.3243502 -0.05626094 0.14873907 -0.03812172
000050 93 8a d2 bd ce 73 51 3e 02 8e 12 3e 67 b5 0a bf
       -0.10280337 0.20454332 0.14311984 -0.5418305
000060 d6 83 90 3e ac 24 45 3e 1a 1d 9e bb da 29 bf 3e
       0.28225583 0.1925227 -0.0048252465 0.37336618
000070 72 34 a3 bd e2 e2 d1 bd e1 74 0d 3e 89 c9 52 3e
       -0.079689875 -0.102483526 0.13814117 0.20584692

encoder.layers.0.conv.bias f4 [16]
000000 86 14 ce 3e 58 32 47 be 5a 19 c9 3d 04 e1 30 be
       0.40250033 -0.19452798 0.098192886 -0.17273337
000010 4d e1 62 be 58 cb 14 3f de 81 b9 3e 67 6f 2c bf
       -0.22156258 0.5812278 0.36231893 -0.67357486
000020 48 0f c2 3e de ee ab 3e 92 ca 85 3e 44 19 02 3f
       0.37902284 0.3358068 0.2613111 0.508198
000030 7d 05 5d be 9d b3 67 be cf bf f9 3e 97 bf a9 3e
       -0.21584125 -0.22627111 0.4877915 0.33153984

encoder.layers.0.conv.linear.weight f4 [16, 3703]
000000 76 95 be bb fb db 67 3e 99 99 2c 3b d0 51 27 bd
       -0.005816157 0.2264251 0.0026336669 -0.040849507
000010 94 a3 16 3e 96 a6 ae 3c fc d2 bb 3c f3 19 e6 3c
       0.14710838 0.021319669 0.022927754 0.028088545
000020 0e 54 53 bd c2 b7 07 3d 6f a4 f5 bc ba 0e 07 be
       -0.051593833 0.03313423 -0.029985635 -0.13189211
000030 3d c1 9c bc 36 e5 94 3d 0f 3a 01 3e 1e b5 39 bd
       -0.019135112 0.07270281 0.12619804 -0.045338742
000040 97 9e 0c be 4d 1a 99 3c 11 70 d3 bd 05 f2 64 bd
       -0.13732372 0.018689299 -0.10324109 -0.05589487
000050 65 b9 2e 3d 84 1c 6f 3d 1b 6c ad be fe 9d aa bc
       0.042657275 0.058376804 -0.3387154 -0.02082729
000060 af 3b ec 3c 1b 82 fd 3d 43 a3 e1 3b cf 0f fa 3d
       0.028837053 0.12378331 0.0068859174 0.122100465
000070 4c 24 e0 3d 42 39 84 bc e5 b9 b7 bc 41 67 dd bc
       0.10944423 -0.016140584 -0.022427509 -0.027026774
000080 f3 ae b1 be e8 70 80 bd 32 e7 cf bc fb d8 f5 3d
       -0.34703788 -0.06271535 -0.025378797 0.12004276
000090 4a 96 38 3e cf 60 44 3e a0 04 13 be 60 d9 96 3d
       0.1802608 0.19177555 -0.14357233 0.0736568
0000a0 75 11 09 bd e3 4f 89 bc b7 5c b6 3d 64 46 1b 3d
       -0.033463914 -0.016761726 0.08904403 0.037908927
0000b0 c7 a7 55 be 9f f8 f6 3c bb 18 02 3e 43 13 28 bd
       -0.20864783 0.030147849 0.12704746 -0.041033994
0000c0 f3 8c 31 bd 62 d3 5a bc 5b 6e c5 3c 70 a9 9c bd
       -0.04334731 -0.013356062 0.024100473 -0.07649505
0000d0 3b 83 e5 bc c0 b5 2d be 2f 6d 91 bd e4 60 4b 3c
       -0.028016677 -0.16963863 -0.07100903 0.012413237
0000e0 80 e2 3a 3b 3a 7f 00 3d 1b 88 90 bc 82 bd b5 3c
       0.0028516352 0.031371333 -0.017643025 0.02218509
0000f0 35 c7 6f bd b7 84 17 3e 6d 6c b7 3b 63 ed 4e 3c
       -0.058539588 0.1479672 0.005597642 0.01262984
000100 a2 e5 b6 3c 00 4e f3 3e ba ee d4 3c 5f ce 2f bc
       0.022326294 0.47520447 0.02599274 -0.010730355
000110 09 87 fc 3c 00 1f 23 3c 80 d7 a2 3c 84 4e 39 3a
       0.030826109 0.009956121 0.019878149 0.00070688897
000120 29 8b d8 3c 55 a8 b1 3d ff f1 6d 3d e8 26 b8 3d
       0.026433544 0.08674685 0.058092114 0.08991796
000130 2f b6 8b 3d ff 79 d7 3d 4c 6e 91 3d f4 f7 77 3d
       0.06821858 0.10521316 0.071011156 0.0605392
000140 a7 69 1b bd f6 d9 37 bd 2e 0a ee bd d8 94 b1 3b
       -0.037942555 -0.044885598 -0.11623035 0.005419355
000150 7a bc 3d 3d b5 d6 e3 bc ad fc 1f 3d 4d c6 98 bd
       0.046322323 -0.027812341 0.03905933 -0.07459698
000160 75 8b fe 3c f0 c5 99 3c 69 76 7b 3d a7 c5 b2 3c
       0.031072358 0.018771142 0.06139222 0.021822764
000170 4f a4 da 3d de c4 ab bb 94 6f 10 3c 5c dd c9 3d
       0.106758706 -0.0052419743 0.008815665 0.09856674
000180 55 21 37 bd 5d d5 09 bd 3b 21 d0 3c 9a 11 4b 3c
       -0.044709522 -0.033650745 0.02540647 0.012394333
000190 71 28 91 3c bd 30 b8 3d 51 fe 9c 3e ce e4 98 3c
       0.01771948 0.08993671 0.30662778 0.01866379
0001a0 4b 51 2d bc e4 b5 02 be 0c 5b 98 bc 0c 67 18 bd
       -0.010578464 -0.12764698 -0.018598102 -0.03720765
0001b0 8f 35 32 3d 0e 5c d3 3c 57 50 1f 3d 53 38 cf bc
       0.04350811 0.025800731 0.038894977 -0.025295412
0001c0 50 48 88 3d d2 de 0a bd c7 de 2c 3e 51 67 4e 3b
       0.066544175 -0.033903904 0.16881858 0.0031494687
0001d0 c2 34 30 3c 46 0e 46 3d 92 21 07 3d d0 9e 99 bc
       0.010754766 0.048353456 0.032991 -0.018752486
0001e0 40 95 b2 3d b9 fe c4 39 58 c5 45 3d 3f 2d 80 bd
       0.087198734 0.00037573816 0.048283905 -0.0625863
0001f0 41 ee d4 3b b6 68 e7 bd 11 95 21 bc 28 51 a7 3c
       0.0064981286 -0.11299269 -0.0098622 0.02042444
000200 42 1e 6c bd 58 2a da 3d ad 7a a3 3d 97 ef 1d bb
       -0.057646044 0.10652608 0.07982383 -0.0024099106
000210 e5 2f 96 3d 22 5e ec bd a1 be 85 3c 9e 8a 36 bb
       0.07333354 -0.11541392 0.01632625 -0.0027853618
000220 bf 4b 0a 3d 5b 2d 86 bc 52 b8 78 3c 32 ec 1d 3d
       0.033763643 -0.016379049 0.015180664 0.03855533
000230 b8 94 9d 3d 88 73 5c bd bd a7 34 3c 4e c3 82 3d
       0.076943815 -0.053821117 0.01102632 0.06384908
000240 8b 8a 41 bd e8 9b a6 3c fd f4 05 be 10 f9 07 3d
       -0.047251265 0.020338014 -0.13081737 0.03319651
000250 27 48 05 3d 27 28 1f be 0d 13 2e 3d 9b d7 41 3c
       0.032539513 -0.1554266 0.042498637 0.0118311895
000260 a1 dc 73 bd f2 8f e4 ba 32 24 4a 3b 8a b1 fb 3d
       -0.05953658 -0.0017437919 0.0030844328 0.12289722
000270 e6 2e 3f 3d c6 60 1d 3c 98 aa 1c 3d 89 4b 44 3c
       0.046675585 0.009605592 0.03824863 0.0119809
000280 6a ca 9d bc 8d b6 5a 3d b7 f2 3a bc 94 99 ab 3d
       -0.019261558 0.05339675 -0.011410407 0.08378902
000290 dc 31 76 3d 5b ca 83 bd b8 39 76 3d 54 65 dc bb
       0.060106143 -0.064350806 0.06011364 -0.0067259464
0002a0 85 20 97 be 2f 2d 0f 3d 55 14 d1 3d 9d 79 e9 3d
       -0.29516998 0.0349552 0.10208956 0.11400149
0002b0 a0 a6 cf 3c 69 12 fd 3d de 1d 28 3d 29 23 99 3d
       0.025348008 0.12357027 0.04104411 0.074774094
0002c0 30 2b 44 bc f4 0c 98 bc 5a c0 c0 3d 2e 17 1a 3d
       -0.011973187 -0.018560864 0.09411688 0.037619762
0002d0 61 af 96 bb 7e bd 49 3d 54 4e cf 3c 1a 00 03 3d
       -0.0045985435 0.04925298 0.025305904 0.03198252
0002e0 67 ef f7 3c ec f7 2e bd cd 4a ac bc 1a 6f 4f bd
       0.030265523 -0.042716905 -0.021031762 -0.050643064
0002f0 eb 39 db 3b 56 91 d8 3b 06 92 2e bd be c2 4c 3d
       0.006690254 0.0066091223 -0.042619728 0.049990408
000300 3c b1 d4 3c 69 8f 3e bd bd 4f 92 3c 69 5b b0 bb
       0.025963418 -0.046523485 0.017860288 -0.0053819907
000310 15 8b 26 bd 25 42 d3 be f8 c4 63 bc 8d 08 6c 3d
       -0.040659983 -0.41261402 -0.0139019415 0.057625342
000320 90 0f d4 3e 60 ab c0 3c 11 d5 51 bd 7c 92 fb 3d
       0.41418123 0.023519218 -0.051228587 0.12283799
000330 8c 30 47 3d 19 53 35 3c e0 16 8d 3d 0a a0 13 3d
       0.048630282 0.011067175 0.06889129 0.036041297
000340 7f 6f 1c 3d d8 6b 7d bb f1 11 11 bc 73 a5 99 3d
       0.03819227 -0.0038669016 -0.008854375 0.0750226
000350 9c 68 1d 3c 04 06 c1 bc 7f 2d da 3b 19 32 47 3d
       0.00960746 -0.023562439 0.0066582556 0.04863176
000360 67 0e 71 bd f0 28 eb bc 16 10 19 3d 0d c2 d7 3b
       -0.058851626 -0.028706044 0.037368856 0.006584412
000370 db b8 55 3d 1c b4 63 bc b0 42 e3 3c ba 3f 53 3b
       0.052178245 -0.013897922 0.02774176 0.003223403
000380 d6 41 eb bc 96 ae c2 bc 1a 80 2e 3c bc 78 32 bd
       -0.028717916 -0.02376489 0.010650659 -0.043572173
000390 01 70 72 bd c4 db 50 3d 09 86 3c 3e 29 77 3a 3d
       -0.059188846 0.050990835 0.18410505 0.045523796
0003a0 dd 10 8c 3c bc 47 48 3d bd 40 2e 3d ca 20 4c 3d
       0.017097885 0.048896536 0.042542208 0.049835958
0003b0 6a be 61 be 51 35 8c bd 6d 7c 1f bd ae 9c 20 bd
       -0.22045293 -0.06846107 -0.03893702 -0.03921192
0003c0 a0 0d e1 3c 8f db 39 3d 65 80 07 3e 53 ac a4 3c
       0.027472317 0.045375403 0.13232572 0.020101702
0003d0 d1 36 3c 3e 9e f4 6d bd 64 9e bf 3d 8c 86 33 3e
       0.18380286 -0.058094613 0.093563825 0.17531794
0003e0 1a 06 4e bc 76 2b 2e bc f6 45 97 3d ce 3f 72 3c
       -0.012574697 -0.010630479 0.07386391 0.01478572
0003f0 25 a5 bc 3c c4 40 62 ba 76 95 91 be 79 8f 1f bd
       0.023027966 -0.00086308667 -0.28434342 -0.038955186

encoder.layers.0.conv.linear.bias f4 [16]
000000 63 f8 b6 3e 77 e1 50 be de d9 fe 3d 3b 67 3e be
       0.3573638 -0.20398508 0.124438986 -0.18594067
000010 4b b3 81 be 1e f0 e3 3e 7c 1b 47 3e 37 9a 80 bf
       -0.25332102 0.44519132 0.19444078 -1.0047063
000020 8f 01 9a 3e 47 b3 99 3e 1f 20 0c 3d 10 80 d3 3e
       0.30079314 0.3001959 0.03421032 0.4130864
000030 dd 94 70 be de 8d 83 be 07 83 c0 3e 88 2c 5e 3e
       -0.23494287 -0.25694174 0.37599966 0.21696675

encoder.layers.0.conv_e.weight f4 [3703, 16]
000000 ab d5 93 b0 42 77 d9 3a f3 0d af bb 84 49 db bb
       -1.0756386e-09 0.0016591328 -0.005342239 -0.0066921134
000010 e0 1d 48 bc 26 bf a7 3b 4c 26 69 b0 92 19 14 bc
       -0.012214154 0.005119222 -8.481933e-10 -0.0090393
000020 59 40 34 bc 95 db 8d bb e7 9a d8 bb d6 4c a3 3b
       -0.01100167 -0.0043291547 -0.0066102627 0.004983525
000030 dc 4a 83 bb 03 77 dc 2f 98 83 04 bb 61 6b 47 31
       -0.0040067267 4.010233e-10 -0.0020220038 2.901935e-09
000040 61 04 83 af ad 0f a7 ba 6e a2 f5 bc 9c 30 fd bc
       -2.3831873e-10 -0.0012745761 -0.02998468 -0.030906968
000050 fb fc e5 bc c9 0f 7f 3d 23 5b 0a 31 c8 cb 25 bd
       -0.028074732 0.062270913 2.0133448e-09 -0.040477544
000060 60 69 0c bd 9f 0a 95 bc b0 9d a6 bc 3e 2a 05 3d
       -0.03428018 -0.018193541 -0.020338863 0.03251099
000070 a7 df 09 bd d6 9c e4 b0 bd 9c 43 bc cc 72 70 b1
       -0.033660557 -1.6633759e-09 -0.011939225 -3.498985e-09
000080 6b 2a 0e b1 56 41 ed 3b eb d8 ee 3a 5e 03 1c 3c
       -2.0687831e-09 0.0072404547 0.0018222606 0.009522287
000090 d2 e1 9b 3b ef 06 c1 3a 70 c5 12 30 b1 15 c7 3b
       0.0047571445 0.0014726798 5.3395066e-10 0.006075584
0000a0 6d 39 0a 3c 3c d8 db 3b 97 36 50 bb 9f a8 a8 bb
       0.008436543 0.0067091268 -0.003177082 -0.0051470543
0000b0 0e 77 b4 3b a9 d3 d5 30 a3 93 b8 3b 8e 55 36 30
       0.0055073565 1.5557947e-09 0.005632834 6.6332795e-10
0000c0 13 d2 4f b0 d1 ad ed 39 68 e3 ac b8 ae c8 68 3b
       -7.5604695e-10 0.00045333666 -8.243957e-05 0.0035520005
0000d0 c0 e2 76 3a 00 fc 43 3a cb 79 12 31 7e 69 bf b9
       0.00094179437 0.00074762106 2.1315028e-09 -0.00036508957
0000e0 5a 32 3c bc 55 1c 5d 3b 2c da 6c bb 5f d1 13 3c
       -0.011486614 0.003373881 -0.0036140783 0.009022086
0000f0 83 fe 5b bb a2 32 88 2f 21 6c cf 3a a7 fc 66 af
       -0.003356845 2.4774233e-10 0.0015825072 -2.1008138e-10
000100 b2 1b b2 b0 f8 e3 a3 3a 23 df 5d bb f4 15 86 3a
       -1.2959076e-09 0.0012503853 -0.0033854924 0.0010229931
000110 eb 9a 04 bb 80 55 a1 ba 41 a4 ce 30 e4 17 5b bb
       -0.002023394 -0.0012308806 1.5035156e-09 -0.0033430988
000120 a2 cc 64 bb ad 7d 1f bb f7 0b 0e bb b6 ab a8 3b
       -0.003491201 -0.0024336383 -0.0021674612 0.0051474227
000130 37 e3 61 ba a1 ee 66 30 8c 38 a2 ba ed fa 42 b0
       -0.00086169265 8.4012625e-10 -0.0012376471 -7.0933376e-10
000140 94 31 c0 30 a0 2d cb 3b ae db f2 bb 93 20 d9 bb
       1.398393e-09 0.0062005073 -0.0074114418 -0.0066261976
000150 1e ed 3b bc 5a 97 d1 bb c3 37 ad 30 3e 9e b9 38
       -0.011470107 -0.0063962163 1.2603255e-09 8.850962e-05
000160 20 4a 1d bc 27 60 f7 bb b9 3f 31 bb d4 bb f1 3b
       -0.009600192 -0.007549304 -0.0027046038 0.007377127
000170 d9 1d ff 3a 1f 5d 38 b0 81 f8 94 3b c9 9c 02 b1
       0.0019463851 -6.7071143e-10 0.0045462255 -1.9006612e-09
000180 a8 d4 1d 31 c9 d9 8f 3b 4a 35 01 bc 90 9c 04 bc
       2.2967388e-09 0.0043899757 -0.00788624 -0.008093968
000190 51 5b e7 bb 7e 93 b7 ba ab 6b 9d ae 9e f2 49 3a
       -0.0070604463 -0.0014005748 -7.158659e-11 0.0007703694
0001a0 b6 8c 22 bc a3 f0 d7 bb 42 94 13 ba f4 19 91 3b
       -0.009921243 -0.0065899654 -0.0005629697 0.0044281427
0001b0 43 9a 0d 3b 79 76 a1 30 9a 11 89 3b c9 d7 3e 31
       0.002160684 1.1747964e-09 0.0041830065 2.7771299e-09
0001c0 4e 59 13 31 f0 0e f5 3a ac 5f d5 ba e3 22 16 bb
       2.144208e-09 0.0018696468 -0.0016279123 -0.0022908978
0001d0 7b 06 01 bb c1 82 66 3b fc 5e c6 30 89 4b 36 3b
       -0.00196877 0.003517315 1.4433392e-09 0.0027816019
0001e0 a0 42 63 bb 2c b4 a5 3a a7 97 01 3b b2 d2 50 bb
       -0.0034677163 0.0012642196 0.001977423 -0.0031863865
0001f0 91 b4 dc 3a 16 5c 4c 30 d8 cd e9 3b 65 ca 48 b0
       0.0016838481 7.434563e-10 0.007135134 -7.3047196e-10
000200 42 c2 5f b1 56 0c 47 3c fb 50 a3 3c 10 1c c9 3c
       -3.2561194e-09 0.012148937 0.019936075 0.024549514
000210 96 3f b6 3a e3 d5 e9 bb f0 4a 89 af 98 9d c0 3a
       0.0013904448 -0.007136093 -2.49734e-10 0.0014695404
000220 b2 72 81 3c ea 03 89 3c af cd 94 bb 67 f1 3f bc
       0.015801761 0.0167255 -0.004541121 -0.01171527
000230 8c ee 19 3c ca 40 25 b1 2d 67 2b bb 8c 5c 99 b0
       0.009395253 -2.4047488e-09 -0.0026154027 -1.1158519e-09
000240 54 d2 dd af d7 df 12 3c 57 88 1e 3b 13 bf 14 3b
       -4.0349113e-10 0.0089645 0.0024190152 0.0022696897
000250 72 48 32 ba b0 1c 36 ba fa f5 92 30 8d 57 90 3a
       -0.00068009563 -0.0006947024 1.0692809e-09 0.001101242
000260 e5 81 a0 3b b1 2c 51 3b ca 2a 87 bb 27 d1 10 bb
       0.004898297 0.0031917507 -0.004124974 -0.002209732
000270 95 7c a1 3b 56 33 b8 ae 76 ea 97 3b b2 09 70 b0
       0.0049281814 -8.3764704e-11 0.004636104 -8.732527e-10
000280 ab 24 24 b1 0c 5f 09 bc ba c2 2c 3b 75 2b a2 3b
       -2.3885984e-09 -0.008384477 0.0026361183 0.004949028
000290 29 16 7d b9 b0 c5 de 3a 86 2a 9c 30 d6 fd 57 3b
       -0.00024136216 0.0016996171 1.136258e-09 0.0032957694
0002a0 3f 35 8a bb 9e 77 91 ba fb 08 4e b9 3f 36 f4 3a
       -0.004217773 -0.0011098271 -0.00019649036 0.0018631889
0002b0 46 68 0b bc 54 ab 1d 31 43 17 97 bb 6c b5 93 30
       -0.008508747 2.2943896e-09 -0.0046109273 1.0747221e-09
0002c0 57 31 c6 2e 8f 94 3e 3c 4d f6 63 3c 9c 27 4a 3c
       9.012762e-11 0.011632099 0.013913703 0.012338545
0002d0 b3 88 c9 bb d3 55 30 bc 29 06 53 af 84 9d b0 3b
       -0.006150329 -0.01076265 -1.9192527e-10 0.005389871
0002e0 ba 62 0d 3c 93 f4 33 3c 4d 7d 0a bc 67 65 16 bc
       0.008629495 0.010983604 -0.008452726 -0.00917945
0002f0 e6 42 b6 3b d5 53 50 b0 d0 de a0 3b 30 e9 03 b0
       0.005562174 -7.578909e-10 0.004909374 -4.79889e-10
000300 02 21 de b0 31 38 84 3b ab 8a ad 3b 9b f3 d5 3b
       -1.6162007e-09 0.004035019 0.0052960715 0.006529284
000310 78 0d c0 39 25 5e 51 bb 35 76 35 31 ba 35 04 3b
       0.0003663113 -0.0031946984 2.640616e-09 0.0020173625
000320 25 b2 b7 3b e0 fa ba 3b 8e da c6 ba f2 cf 18 bb
       0.0056059533 0.005706176 -0.0015171336 -0.0023317304
000330 d7 e3 c1 3b b5 17 63 b1 03 35 47 3b ae 40 17 b1
       0.005917053 -3.3046323e-09 0.0030396588 -2.2010158e-09
000340 d8 2d 97 2f ae ef 22 bb 94 44 fd bc 37 ba d8 bc
       2.7499314e-10 -0.0024862099 -0.03091649 -0.026455982
000350 41 f8 04 bc 90 bd 33 bc 8c 89 f4 2f 0a 11 2c bc
       -0.008115829 -0.010970488 4.4481074e-10 -0.010502109
000360 a9 e6 fb bc 79 84 c4 bc 2e 03 9c bb c9 42 a7 3c
       -0.030749636 -0.02398895 -0.0047611212 0.020417588
000370 5d 7c 31 bb 09 67 17 b1 6d 9c b3 3b 26 b2 16 b0
       -0.0027082183 -2.203196e-09 0.005481294 -5.4822846e-10
000380 fa 34 3e b1 67 e5 3b bb d8 3a c6 ba c9 3f 83 ba
       -2.7678753e-09 -0.002867067 -0.0015123738 -0.0010013516
000390 80 16 15 3b 5b 32 94 ba 68 c2 53 31 bc d3 35 3a
       0.0022749007 -0.0011306511 3.0815048e-09 0.0006936153
0003a0 53 a4 75 3b 99 09 19 bb bf 72 a9 3b 3f 70 73 3b
       0.0037481978 -0.0023351668 0.0051711495 0.0037145761
0003b0 d5 87 9f 3a 96 c2 ec 30 06 88 16 3b 9a 66 a1 b0
       0.0012171218 1.7226565e-09 0.002296926 -1.1743453e-09
0003c0 88 f4 be b0 59 ca a7 39 be b4 45 bb 71 bb 92 39
       -1.3893819e-09 0.00032003483 -0.0030167545 0.00027986945
0003d0 4b 63 99 bb 03 cf 21 bb 1c a1 3c 30 40 2d 60 bb
       -0.004681026 -0.002469004 6.862295e-10 -0.0034206659
0003e0 48 8f d5 bb 83 ac b4 b9 09 04 08 3a 32 7c 6d 3b
       -0.0065173246 -0.00034460807 0.00051885896 0.0036237356
0003f0 cd f3 1e bb c8 83 99 af da 6c bc ba c8 f9 e9 30
       -0.0024254203 -2.7924174e-10 -0.0014375702 1.7023973e-09

encoder.layers.0.conv_e.bias f4 [16]
000000 1b fb d9 ba a3 aa 82 3d d8 90 89 3d 7e f0 99 3d
       -0.0016630621 0.063802026 0.0671708 0.07516573
000010 85 19 19 3e c7 ff 43 3f 76 00 10 ba 15 3b 03 3e
       0.14951141 0.7656216 -0.0005493233 0.12815507
000020 5c ed b8 3d 96 7c b3 3d 4b d7 38 3e 32 87 80 3d
       0.09029648 0.08763997 0.18050878 0.062757865
000030 0a 34 a4 3d 0e f2 ea bc 62 bd b2 3d 5c 46 4e bc
       0.08017738 -0.028679874 0.08727528 -0.012590017

decoder.scale f4 [6]
000000 0b 15 9c be c7 19 cb 3f eb 4a d4 3f e8 10 81 3f
       -0.30484805 1.5867242 1.6585363 1.0083284
000010 c3 c0 ae 3f 1d 7a b0 3f
       1.3652576 1.3787266

decoder.point f4 [6, 16]
000000 b5 32 99 3e c5 ac 51 3e 22 82 55 be 03 ab 86 3e
       0.299215 0.20476063 -0.20850423 0.26302347
000010 e5 1f 69 bd e0 0d 6c 3e ad 72 52 be f3 76 4b 3c
       -0.056915183 0.23052168 -0.20551558 0.012418496
000020 0c 7a 74 3d bf 87 1b 3e ce 23 3f bc d8 06 28 3e
       0.059686705 0.15188502 -0.011666251 0.1640886
000030 1e a2 fe 3c b3 0c 63 3c db df 39 3e 9a c5 a8 bd
       0.031083163 0.013858008 0.181518 -0.082408145
000040 00 97 18 3e 42 9f bc bd 02 47 4b 3d ec 7e a8 bd
       0.14901352 -0.092100635 0.049628265 -0.082273334
000050 26 77 be 3d eb 93 70 3e 38 16 0d 3e b2 c0 a9 3d
       0.093000695 0.23493926 0.13778007 0.08288707
000060 5e 40 94 3e db 86 13 3e 88 fd c7 bd b5 6a a1 3d
       0.28955358 0.14406912 -0.09765154 0.07881681
000070 27 21 0d 3c ef 30 0c 3d 9c af 36 3c 30 7a 0a bd
       0.008613861 0.034226354 0.011150267 -0.033807933
000080 da 8e af 3d 08 e2 d8 bd ec 77 59 3e 28 b5 de bc
       0.08572169 -0.10589987 0.21237153 -0.027185991
000090 20 f6 a7 3d 66 12 79 3e b9 ae b9 bc 9d 21 89 39
       0.082012415 0.24323425 -0.022666322 0.0002615572
0000a0 5b 14 c1 bc c3 bf 91 3d ad 47 13 3e e1 63 98 3e
       -0.023569277 0.07116654 0.14382811 0.29763702
0000b0 59 33 9b bb bf 7e a5 3d 01 0a 1c 3e c8 1e cf 3d
       -0.0047363457 0.080808155 0.15238191 0.10113293
0000c0 53 7d dd 3d aa 04 97 bc e5 78 61 bd 8d 36 4a be
       0.10814919 -0.018434841 -0.055046935 -0.19747372
0000d0 46 f9 c7 3d 81 5e 38 3d 3e 32 65 3e 46 95 f0 3c
       0.09764342 0.045012 0.22382447 0.029368054
0000e0 88 40 7a 3d ed 53 d4 bc 4a af 82 be 4f ed 6a 3e
       0.061096698 -0.025918925 -0.2552436 0.22942089
0000f0 de ae 17 ba 71 29 c2 3d 22 1d 4e 3e 1a 6e 0e 3e
       -0.000578625 0.094805606 0.20128301 0.13909188
000100 a7 16 d0 3d 24 e5 1c be 68 32 87 bd d4 47 a0 3a
       0.101605706 -0.15321785 -0.06601411 0.0012228438
000110 3d 3e 99 bd 21 35 88 3d e8 2d bc 3e 87 8f 05 3c
       -0.07482574 0.066507585 0.36753774 0.008151895
000120 9b 87 d0 bc 26 89 f5 ba 8a d2 c0 bd f2 e0 68 3d
       -0.025455287 -0.001873289 -0.09415157 0.05685515
000130 c6 49 37 be 07 92 81 3b 0c 62 1f 3e 89 5f a1 bd
       -0.17899236 0.0039541754 0.15564746 -0.0787955
000140 ea fa d5 3d 02 d0 8d bc a1 aa 86 be 04 9a 23 3e
       0.10448249 -0.0173111 -0.26302055 0.15976721
000150 21 32 01 3e 7a e0 25 3c 17 f2 43 3d 6a e5 1d bd
       0.12616779 0.01012432 0.047838297 -0.038548864
000160 b4 1c 5c be b5 f7 80 3e 47 ed db 3c 80 67 b4 3d
       -0.21495324 0.25188985 0.026846541 0.088088036
000170 82 f8 82 bd 20 b6 0c 3e a9 02 e4 3d 38 4e c7 3d
       -0.06395055 0.1374135 0.1113332 0.09731716

decoder.tangent f4 [6, 16]
000000 08 69 11 3f 1d 50 58 bf fe 30 a0 be 77 5a d2 3e
       0.5680089 -0.84497243 -0.31287378 0.41084644
000010 c8 c9 25 3d fa a9 c2 3c 26 4d d0 be 47 4a 84 bc
       0.040475637 0.023762692 -0.4068386 -0.0161487
000020 72 7e 06 3e 05 d3 3d 3c 9c 69 f0 be 48 3a 0b 3e
       0.13134173 0.0115859555 -0.46955574 0.13596451
000030 ba 4b c1 bc 00 f8 74 bd 49 0d 50 bd 7f 95 21 bf
       -0.02359568 -0.059806824 -0.05079392 -0.6311874
000040 19 20 8a 3e 08 9b 05 3e 50 78 7d 3c 42 86 3e 3e
       0.26977614 0.13047421 0.015470579 0.18605903
000050 86 e3 1a be 58 63 77 3f 75 64 e8 3b 16 87 6c be
       -0.15125856 0.9663596 0.0070920535 -0.23098406
000060 52 99 c7 3e af 98 e0 3d ce 54 c4 3e dc d4 82 be
       0.38984162 0.10966622 0.3834595 -0.25553024
000070 9a f6 af 3b 00 6b 0f bd c5 1a f4 be ec c4 4a bd
       0.0053699734 -0.035014153 -0.47676674 -0.049504206
000080 37 21 ef be 2b 9b 34 be 47 e9 a5 be f4 2b b0 3d
       -0.46705028 -0.17637317 -0.3240454 0.086021334
000090 e0 65 e1 3d e7 30 2b be f1 80 e8 3e 2e de cf 38
       0.11005759 -0.16717874 0.45410874 9.9119134e-05
0000a0 07 9b 34 3e 70 7e 11 be d2 c2 33 bd c4 cf ee 3e
       0.17637263 -0.14208388 -0.043886967 0.46642888
0000b0 3b 4d 1e 3b bf 31 29 3e 9b be 0d bf a4 c4 57 bd
       0.002415492 0.16522883 -0.55368966 -0.052677765
0000c0 c5 0f 9f bd 26 60 8c 3c b0 fd 18 3e ab 63 7d be
       -0.0776668 0.01713569 0.14940524 -0.24745052
0000d0 6e 18 b3 bd 7b e1 87 be 1f d5 c3 be 68 98 d8 bc
       -0.08744894 -0.26539215 -0.38248536 -0.02643986
0000e0 9c 78 e3 3e 2e 6d 0d bf 7c de 69 3e 6f 5f 43 bd
       0.44427955 -0.5524472 0.22838777 -0.047698434
0000f0 f3 65 08 ba 1b 5d ba bd 4a 91 48 3d 3d 4b 10 3f
       -0.000520318 -0.0909979 0.048966683 0.56364805
000100 d7 ca af 3d ef e9 99 3e 09 16 20 3e 80 d7 17 bc
       0.085836105 0.3006129 0.15633406 -0.009267688
000110 bb bb 90 be 1e ec a5 be 00 5f 0d 3e 37 71 07 bc
       -0.28268227 -0.32406706 0.13805771 -0.008266739
000120 11 ef 94 be be 86 b9 3e 56 2b 19 3f e2 a8 ad 3d
       -0.29088643 0.36235613 0.5983175 0.084794775
000130 a1 cd 12 be 0e 4d 70 bb ad 4c ec 3e ca 94 bc be
       -0.14336254 -0.0036667022 0.4615225 -0.36832267
000140 7b 09 31 bd 13 6e 8b 3c d4 8a bd be 37 df 0e be
       -0.043221932 0.01702026 -0.3701998 -0.13952337
000150 22 a8 10 be 0a d0 15 3f 1f 7d ca 3d 47 4c 0c 3d
       -0.14126638 0.5852057 0.09887146 0.03425243
000160 30 d3 9e be 4a bc 8b be 7b 20 12 be 4b f0 8c be
       -0.31020498 -0.2729209 -0.14270203 -0.2752708
000170 41 b4 33 bd 77 93 1b be e5 12 05 3f 10 53 eb 3c
       -0.043873075 -0.15192972 0.51981956 0.02872613

decoder.cls.weight f4 [16, 6]
000000 39 5b 0f 32 7d 16 fa b3 a6 16 91 31 ce fb 0b 32
       8.344437e-09 -1.1645623e-07 4.2226302e-09 8.148119e-09
000010 79 ef ad b3 15 e4 9e b1 7b 6d 26 bd bd 6a c3 be
       -8.0995e-08 -4.624335e-09 -0.040631752 -0.38167372
000020 9d 22 1a bf 90 f6 66 3f 65 ab 2b 3f 73 b5 e0 be
       -0.60209066 0.90219975 0.670584 -0.43888435
000030 27 76 eb be 1e 8f 2a bf a7 60 33 3f 69 92 81 3f
       -0.4598858 -0.6662463 0.70069355 1.0122806
000040 7d f5 5b bf db 75 8e be 1b 8c 0f bf 50 55 d5 be
       -0.8592146 -0.27824292 -0.5607316 -0.4166665
000050 fc 2c 55 3f 0d c6 47 3f 1d 82 1e bf 8d 15 97 be
       0.83271766 0.78036577 -0.6191729 -0.2950863
000060 ab 72 0d bd a7 c7 12 3f 44 7e 75 be 4a 3d aa 3e
       -0.034533184 0.57335895 -0.23973948 0.33249885
000070 34 18 2f bf 3b 50 13 3f 20 f8 83 3f d4 a6 83 be
       -0.68396306 0.57544297 1.0310097 -0.25713217
000080 7d dd 94 be ca 28 8c be d9 be 8d be ad 51 aa be
       -0.29075232 -0.2737487 -0.27684668 -0.3326544
000090 32 e5 f4 31 7f e4 0a b2 86 4b c0 b0 8b 20 e8 31
       7.127391e-09 -8.084611e-09 -1.3991304e-09 6.7557884e-09
0000a0 e5 b4 9e b0 a0 97 3b b2 31 95 41 bf b0 8d 0c bf
       -1.1547426e-09 -1.0919308e-08 -0.75618273 -0.549037
0000b0 e8 a3 d8 3c 23 23 9b 3e 42 7a 3b 3e 47 c4 33 3f
       0.026445344 0.30300245 0.18308356 0.7022137
0000c0 ba 1e ba bd b9 83 ed be 31 8b 04 bf 64 f6 80 3f
       -0.09087892 -0.4638956 -0.5177489 1.0075192
0000d0 62 44 85 bf f3 2b 16 3f 0c fb 64 3c 54 25 af 3e
       -1.0411494 0.5866081 0.01397587 0.34208167
0000e0 e4 80 11 3f 27 9f 77 3f 26 49 4a bf 13 74 0b bf
       0.56837296 0.9672722 -0.79017866 -0.5447399
0000f0 9e de 9d be 50 7c fc bd c8 f1 72 be 11 90 ae be
       -0.30833906 -0.12328398 -0.23725045 -0.3409429
000100 fb c4 32 be b2 2f 5d 3f 5f ca 89 bd e4 eb 37 3f
       -0.17457955 0.864009 -0.06728052 0.71844316
000110 b4 49 d4 3e 63 c6 47 bf ad cc 2e 3f 66 85 05 bf
       0.4146248 -0.7803709 0.6828106 -0.52156675
000120 58 99 e0 be 03 e0 1c bf 45 e8 50 bf 4d f7 50 3f
       -0.43866992 -0.61279315 -0.81604415 0.8162735
000130 f3 da d9 3e fd 3a 30 3f 91 b5 ae b3 a6 3b 63 33
       0.42549857 0.6884001 -8.135533e-08 5.2906806e-08
000140 cc 2b aa 32 62 47 b1 b1 45 43 d5 31 d5 93 44 b3
       1.9810521e-08 -5.1594933e-09 6.2067635e-09 -4.576926e-08
000150 a2 71 88 be 1d 48 da be db c5 3a bf 13 5e ec 3e
       -0.26649195 -0.42633143 -0.72958153 0.46165523
000160 6f 30 2e 3f a8 6e 21 3f 3f 04 0e 32 ba 82 26 b3
       0.68042654 0.63059473 8.266453e-09 -3.8768782e-08
000170 c6 0d 3d b1 2f a3 82 32 14 a9 b2 b2 4e eb 3c b2
       -2.751095e-09 1.52082e-08 -2.0798815e-08 -1.0996542e-08

decoder.cls.bias f4 [6]
000000 2c ac c8 be 7f 96 07 3e ae 8e 09 bc 25 57 90 3c
       -0.39193857 0.13241003 -0.008395834 0.017619679
000010 8f ce 4b 3d f3 6f f2 3d
       0.049757537 0.11837759

decoder.w_e.weight f4 [1, 16]
000000 ec d1 ba 31 b0 60 dd 3e ff 83 c6 3e a5 9d d4 3e
       5.437178e-09 0.4323783 0.3877258 0.41526523
000010 5d 3e 00 3f c5 d8 6d 3e 3a c0 22 b2 58 d0 e0 3e
       0.5009516 0.23227222 -9.473348e-09 0.43908954
000020 b5 b8 ba 3e 2d 11 ac 3e ee f9 0e 3f 6b 4c 90 3e
       0.36469045 0.33606854 0.5585011 0.28183302
000030 a7 2c ff 3e 25 34 24 b2 3e 73 08 3f 15 65 80 31
       0.49838755 -9.557913e-09 0.53300846 3.736782e-09

decoder.w_h.weight f4 [1, 16]
000000 c4 41 0d 3f 39 9d 2a b1 89 a8 f2 3c e8 73 af 35
       0.55178475 -2.4827627e-09 0.02962138 1.3072249e-06
000010 35 89 bb b2 99 9b 11 3f 26 a3 15 3f 99 25 f3 b4
       -2.183206e-08 0.5687805 0.5845207 -4.5289633e-07
000020 35 eb 0e 3f b9 80 90 3e b8 86 ed 3e 8c e7 59 3f
       0.5582765 0.28223208 0.46391845 0.8511894
000030 fe f6 81 b3 ef ca 6e b1 44 d8 56 3f 21 03 bc 3e
       -6.051958e-08 -3.4748913e-09 0.83923745 0.36721137
