logs/lp/2019_11_26/0/model.pth (torch_old, 95219 bytes, 4 tensors)

encoder.layers.0.linear.bias f4 [16]
0	0x3cea039b	0.028566172
1	0x3cecfbbb	0.028928628
2	0x3d356a26	0.044290684
3	0x3cf55c20	0.029951155
4	0x3cf52e5d	0.029929334
5	0x3d349f4a	0.044097222
6	0x3cfa8b18	0.030583903
7	0x3ce2e073	0.027694916
8	0x3ccadc79	0.024763333
9	0x3d3d61d5	0.046235878
10	0x3d162546	0.03665664
11	0x3cd5d663	0.026103204
12	0x3cf9ceb9	0.03049408
13	0x3d5a6da3	0.053327214
14	0x3ce01ffc	0.027359001
15	0x3d093388	0.03349641

encoder.layers.0.linear.weight f4 [16, 1433]
0	0xbd64d6ae	-0.055868797
1	0xbd37f8c3	-0.044914972
2	0xbc8ddaad	-0.017316187
3	0x3c81125c	0.015755825
4	0xbdafd35c	-0.085852355
5	0xbccc51ff	-0.024941443
6	0xbd40459f	-0.046941396
7	0x3c11f20d	0.008907807
8	0x3d6acc79	0.057323907
9	0x3d9452f4	0.072423846
10	0xbd3c4cef	-0.045971807
11	0x399b158f	0.00029579966
12	0xbd4491fd	-0.047990788
13	0x3cf7b50c	0.030237697
14	0xbcbd3dc6	-0.023100745
15	0xbd940f51	-0.07229484
16	0x3d431d1a	0.047635175
17	0xbd43a7c2	-0.04776741
18	0xbd54d6ab	-0.051962536
19	0x3c80efbb	0.015739312
20	0x3c11f0a8	0.008907475
21	0xbdaf4b79	-0.08559317
22	0xbd096237	-0.03354093
23	0x3d9fee5a	0.07809134
24	0x3ccd2252	0.02504078
25	0xbc99ff4c	-0.018798493
26	0x3c0e9c02	0.008704187
27	0x3c869fc6	0.016433608
28	0xbce4d49c	-0.027933411
29	0xbcb2f890	-0.02184704
30	0xbc706ae7	-0.014673925
31	0x3c3997c2	0.011327686
32	0xbc30f873	-0.010801422
33	0xba387459	-0.000703638
34	0xbcd4b4bf	-0.025965093
35	0xbca1cdc5	-0.019751439
36	0x3cb384ef	0.021913974
37	0xbb19380b	-0.0023379351
38	0x3dddbe06	0.1082726
39	0xba97f00c	-0.0011591925
40	0xbdc1eae1	-0.09468628
41	0xbd804c2a	-0.06264527
42	0x3cad2ff9	0.02114104
43	0xbd4b7e40	-0.04968095
44	0xbcee7cdb	-0.02911227
45	0xbc26c8e9	-0.010179737
46	0xbd2f796c	-0.042840406
47	0xbd2d4321	-0.042300347
48	0xbc9651ae	-0.018349495
49	0xbae0dfad	-0.0017156504
50	0xbd64bfd3	-0.055847
51	0xbd4e2962	-0.050332434
52	0x3e08b2e7	0.13349496
53	0xbd164b58	-0.036692947
54	0xbd8840f0	-0.06653011
55	0xbd28c708	-0.041205436
56	0x3d46b2e3	0.048510443
57	0xba6d2850	-0.00090468396
58	0xbd1f0bb9	-0.03882954
59	0x3ccd7684	0.025080927
60	0x3c888d59	0.016668962
61	0xbdaffdbe	-0.08593319
62	0x3d6fa78e	0.058509402
63	0x3c9909de	0.018681463
64	0x3db9fd52	0.0908152
65	0x3d054a1b	0.032541376
66	0xbc577cf8	-0.013152353
67	0x3d0051da	0.03132806
68	0x3b27e8a1	0.0025620835
69	0xbcbb7d1c	-0.022886805
70	0x3c37310b	0.011181126
71	0x3b5d7b90	0.0033795573
72	0x3cb1ec22	0.021719042
73	0x3cb0fe48	0.021605626
74	0xbd72685a	-0.05918155
75	0xbd15f2a4	-0.036608353
76	0x3c90223c	0.01759445
77	0x3d1a902f	0.03773516
78	0xbd8af429	-0.06784851
79	0x3c922394	0.01783923
80	0xbbd18d63	-0.0063950284
81	0xbc99c688	-0.018771425
82	0xbd4b6923	-0.049660813
83	0xbd053a7e	-0.032526486
84	0xbb1edf4a	-0.0024241977
85	0xbd846734	-0.06464997
86	0xbd73ee9f	-0.05955374
87	0xbca7eea8	-0.020499542
88	0x3cbf2280	0.02333188
89	0xbd6cc68c	-0.057806537
90	0x3d6d658a	0.057958163
91	0x3c0bd757	0.008535228
92	0x3be8f4c8	0.0071092583
93	0xbdc57365	-0.096411504
94	0xbcf0fcea	-0.029417474
95	0x3b176bb6	0.0023104972
96	0x3badd575	0.005304987
97	0x3d2c6c09	0.042095218
98	0xbca5d781	-0.020244362
99	0x3cb6b805	0.022304544
100	0x3d977148	0.073946536
101	0x3c9d9755	0.0192372
102	0x3ce504fa	0.027956475
103	0x3d83e4a3	0.06440093
104	0x3dac6fc1	0.08419753
105	0xbcd8c5d3	-0.026461517
106	0xbd105620	-0.035238385
107	0x3c92c7f2	0.017917607
108	0xbd70a021	-0.05874646
109	0xbc8a5631	-0.016886802
110	0xbc93e592	-0.018053804
111	0x3d6e4af3	0.058176946
112	0xbc3830ae	-0.011242075
113	0xbd409097	-0.04701289
114	0xbc53514a	-0.012897799
115	0x3d4ed5a5	0.050496716
116	0x3c1bcee0	0.009509772
117	0xbc9803b2	-0.01855645
118	0xbc20e850	-0.009821013
119	0xbcbf02a3	-0.023316687
120	0xbcca3c41	-0.024686934
121	0xbd8282d5	-0.063726105
122	0xbc75d7e1	-0.015005083
123	0x3ac211f9	0.0014806382
124	0x3d53ceff	0.05171108
125	0x3d906892	0.07051195
126	0xbd68d4fd	-0.056843746
127	0x3d193aa2	0.037409432
128	0x3e01981d	0.12655683
129	0x3d206ab9	0.03916428
130	0x3c0f7f10	0.008758321
131	0x3d8cad3c	0.06868979
132	0x3c9e6f8e	0.019340303
133	0x3d3b721c	0.04576312
134	0xbc02a91c	-0.007974889
135	0x3e1cb02e	0.15301582
136	0x3db48a96	0.08815496
137	0xbcf7e4e9	-0.03026052
138	0x3c1d45cb	0.0095991595
139	0xbcf91a1e	-0.030407961
140	0xbbcd4560	-0.0062643737
141	0xbc78ef80	-0.01519382
142	0xbd1bc79c	-0.03803216
143	0x3d1c0fab	0.03810088
144	0x3d65d0e0	0.0561074
145	0xbbb7ee18	-0.0056131
146	0xbc5e31d4	-0.013561685
147	0xbd57f938	-0.052727908
148	0xbcb78735	-0.022403339
149	0x3d5abb4b	0.053401273
150	0xbd082786	-0.033240817
151	0x3e0ec3a6	0.13941821
152	0xbc183581	-0.0092901
153	0x3c8f0bb9	0.017461644
154	0xbda04e42	-0.078274265
155	0xbd26d9a0	-0.040734887
156	0x3d0f93ea	0.03505317
157	0x3d171013	0.036880564
158	0xbd1c808f	-0.03820854
159	0xbbf4d4ef	-0.0074716727
160	0x3cfc0597	0.030764384
161	0xbc4b8e7c	-0.012424108
162	0x3dd472a8	0.103734314
163	0xbd25aa39	-0.04044554
164	0xbc6fb8d2	-0.014631467
165	0x3bd3537e	0.006449162
166	0x3d561853	0.05226929
167	0x3c97eb14	0.018544711
168	0xbe1b6988	-0.15176976
169	0x3d113fb3	0.03546114
170	0x3d056723	0.032569062
171	0x3d1bba0c	0.038019225
172	0x3dbb9f7f	0.09161281
173	0x3d182e5c	0.037153587
174	0xbbcec9f7	-0.006310697
175	0x3df2324d	0.11826
176	0xbcac06c0	-0.020999312
177	0xbcdaa341	-0.026689174
178	0xbcb8806b	-0.022522172
179	0x3cab2b78	0.020894751
180	0xbd23caa1	-0.039988164
181	0xbd1f657e	-0.03891515
182	0xbd1a3258	-0.037645668
183	0x3de6d26a	0.11270602
184	0x3b85c4f4	0.0040823165
185	0x3cebdf43	0.028792983
186	0xbc0f8961	-0.008760781
187	0xbd83857f	-0.06421947
188	0xbc8c1166	-0.01709814
189	0xbc410218	-0.011780284
190	0xbc09ff2d	-0.008422655
191	0xbdf86492	-0.12128557
192	0xbc5b4c84	-0.013384942
193	0x3d009c5e	0.031399123
194	0xbd3917d7	-0.04518875
195	0xbc738520	-0.014863282
196	0xbd45f4c3	-0.048329126
197	0xbdbd50ac	-0.092439026
198	0x3c39f50c	0.011349928
199	0x3aed8194	0.0018120282
200	0xbcdbfe66	-0.026854705
201	0xbbe71ea7	-0.0070532146
202	0x3ce6167d	0.028086895
203	0x3d3bd865	0.045860667
204	0x3cab88cf	0.020939259
205	0xbd9fe36d	-0.0780705
206	0xbddfcc33	-0.1092762
207	0x3b957426	0.004560965
208	0xbd7f22f1	-0.062289182
209	0xbb06517a	-0.002049534
210	0xbc42cb1f	-0.011889248
211	0xbd20e2c1	-0.03927875
212	0x3dff0428	0.124519646
213	0x3dc50bd7	0.09621399
214	0xbcb68be4	-0.022283502
215	0xbd0084ee	-0.03137677
216	0x3d2d4629	0.042303238
217	0xbd519908	-0.051171333
218	0x3ce194d1	0.027536782
219	0xbd19bb65	-0.03753223
220	0x3cd7c11d	0.0263372
221	0xbcd821df	-0.026383338
222	0x3e00a18e	0.12561628
223	0xbc93eb7c	-0.018056624
224	0xbc8748ee	-0.016514268
225	0xbce30c5d	-0.027715856
226	0x3c9b4ec7	0.018958462
227	0xbd33a02f	-0.043853935
228	0x3ba90ac0	0.005158752
229	0x3d0229a6	0.031778
230	0x3ccae976	0.024769526
231	0x3c676e90	0.014125481
232	0x3cba6975	0.022755364
233	0xbd0a69ec	-0.03379242
234	0xbd47d235	-0.048784453
235	0xbd931ecd	-0.07183609
236	0x3df707c6	0.120620295
237	0x3d827014	0.063690335
238	0x3d54d769	0.051963244
239	0xbc324af5	-0.010882129
240	0x3d0f7360	0.03502214
241	0xbc4cd91d	-0.012502936
242	0xbcea0dcf	-0.028571038
243	0x3c3fb4c4	0.011700813
244	0xba752988	-0.0009352197
245	0xbd9102ad	-0.070805885
246	0xbd6b516c	-0.057450697
247	0xbd0931a3	-0.033494603
248	0xbd69ed5f	-0.05711114
249	0x3d0d1ba6	0.034450196
250	0x3d064869	0.0327839
251	0x3cff8a10	0.031193763
252	0xbd111b29	-0.035426293
253	0xbcb60892	-0.022220884
254	0xbd0c25a4	-0.034215584
255	0xbd5d15aa	-0.05397574

encoder.layers.1.linear.bias f4 [16]
0	0x3e8b9109	0.2725909
1	0x3e89debc	0.26927745
2	0x3e6299fa	0.2212905
3	0x3e9fb52c	0.3119291
4	0x3ec8df2e	0.39232773
5	0x3ee47670	0.4462161
6	0x3eb38da6	0.35069007
7	0x3e9dbc09	0.30807522
8	0x3eaf8af9	0.34285715
9	0x3eb7f92d	0.35932294
10	0x3ea3c2ba	0.31984502
11	0x3eaabf8a	0.33349258
12	0x3e9a699d	0.30158702
13	0x3e835658	0.25651813
14	0x3ea61682	0.32439047
15	0x3eaacfd4	0.33361685

encoder.layers.1.linear.weight f4 [16, 16]
0	0x3e09c567	0.1345421
1	0x3e631358	0.22175348
2	0x3cad7689	0.021174686
3	0xbed9cb7e	-0.42538065
4	0x3f1811b0	0.5940199
5	0x3eab652d	0.33475628
6	0xbea25c35	-0.31710973
7	0x3f12294c	0.57094264
8	0x3d81a333	0.06329956
9	0x3f11d28a	0.5696188
10	0x3e7c0a45	0.24613293
11	0x3e6d3efa	0.23168555
12	0xbec5aca4	-0.38608277
13	0x3e037d41	0.1284075
14	0x3d02a18b	0.03189234
15	0xbc8cb541	-0.017176272
16	0x3d0ba9c4	0.034097448
17	0x3f26a666	0.65097654
18	0xbe2796d3	-0.16366129
19	0xbe25dac5	-0.16196735
20	0x3ebc116a	0.36732036
21	0x3e9af42c	0.30264413
22	0x3f1a9eae	0.60398376
23	0x3eaca0b2	0.3371635
24	0x3e3019b6	0.17197308
25	0xbe918b17	-0.2842643
26	0x3e9d22a3	0.30690488
27	0x3f11e34d	0.5698746
28	0x3d93bfd7	0.07214325
29	0x3e730c55	0.23735173
30	0x3e53d2fa	0.2068595
31	0x3ed6afc6	0.4193098
32	0x3ea83cc8	0.32858872
33	0x3dee1c60	0.11626506
34	0xbee9125d	-0.45521823
35	0xbe349897	-0.17636333
36	0x3f1b1266	0.6057495
37	0x3ee4da9b	0.44698033
38	0xbe3cefc8	-0.18450844
39	0x3ee125a7	0.4397404
40	0x3e9e05cd	0.308638
41	0x3f0b44f7	0.54402107
42	0x3e67b1ae	0.22626373
43	0xbe301d03	-0.17198567
44	0x3e1f2ded	0.15544863
45	0x3ec5f60b	0.38664278
46	0x3e9a67c7	0.301573
47	0x3f10b3f7	0.56524605
48	0x3e20696f	0.1566522
49	0x3f15416a	0.5830294
50	0x3eedc41b	0.4643868
51	0x3ea91620	0.33024693
52	0xbe22cb49	-0.1589786
53	0x3eb89b27	0.36055872
54	0x3ce326ed	0.027728522
55	0x3d3d596a	0.04622785
56	0xbee6bc7f	-0.45065686
57	0x3e054937	0.1301621
58	0xbf168909	-0.5880285
59	0x3e59e86e	0.21280071
60	0xbe8e6192	-0.27808815
61	0x3f021824	0.50818086
62	0x3d857412	0.06516279
63	0x3ed86d8b	0.42271075
64	0xbe3a9177	-0.18219553
65	0x3f187d48	0.59566164
66	0x3ef08222	0.46974283
67	0xbe4e8e5b	-0.20171492
68	0x3f1cba40	0.61221695
69	0xbdca9be2	-0.098930135
70	0x3db10902	0.08644296
71	0xbee37271	-0.4442325
72	0xbec90de8	-0.39268422
73	0xbde228af	-0.11042916
74	0x3e942f2a	0.28942233
75	0x3e013442	0.12617591
76	0x3eb6a0eb	0.35669646
77	0xbd6c9faf	-0.057769474
78	0xbd7f5c1f	-0.062343713
79	0x3e631f8d	0.22180004
80	0x3d89da68	0.06731111
81	0xbdf53721	-0.11973406
82	0xbe971690	-0.295094
83	0x3e8ed92a	0.27900058
84	0x3e5f4489	0.21803488
85	0xbec8b8e7	-0.3920357
86	0x3eacacab	0.33725485
87	0xbe8cad47	-0.2747595
88	0xbe91c18d	-0.2846798
89	0x3e952cb5	0.2913567
90	0x3e1e274c	0.15444678
91	0x3e5e3f8b	0.21703927
92	0x3e0a7d51	0.13524367
93	0xbe6afe37	-0.22948538
94	0x3ddfb95a	0.10924025
95	0xbe388eea	-0.18023267
96	0x3f1a369c	0.6023958
97	0x3ebe40cc	0.3715881
98	0xbe3010aa	-0.17193857
99	0x3df04449	0.11731774
100	0xbe4515e3	-0.1924663
101	0xbe336d13	-0.17522077
102	0xbdfb171c	-0.12260267
103	0x3bc3ce7b	0.005975542
104	0xbea34ab2	-0.31892926
105	0x3ec0a754	0.3762766
106	0xbed2d15b	-0.4117535
107	0xbdc83cfe	-0.09777258
108	0xbe1c75d2	-0.1527932
109	0x3e1f55ca	0.1556007
110	0x3eb4e46e	0.35330528
111	0x3f275b4d	0.6537369
112	0x3e7abf45	0.24487026
113	0x3e8b005f	0.2714872
114	0x3eace9b7	0.3377206
115	0x3e9a2e60	0.30113506
116	0xbead650d	-0.33866158
117	0x3ef714b4	0.48257983
118	0xbd809541	-0.06278468
119	0xbe915a93	-0.28389415
120	0x3eb78e56	0.3585078
121	0xbdb9b71d	-0.09068129
122	0xbd725adf	-0.059168693
123	0xbdb0a121	-0.08624483
124	0x3e894e0a	0.26817352
125	0x3e8c7585	0.2743341
126	0xbe7091ba	-0.2349309
127	0x3eb26b34	0.34847414
128	0x3e8b87ff	0.27252194
129	0xbee175ed	-0.44035283
130	0xbea2678e	-0.3171963
131	0x3ecf8983	0.405346
132	0x3e68087b	0.22659485
133	0x3ed9cdd1	0.42539838
134	0x3ed84e35	0.42247167
135	0x3f067927	0.52528614
136	0xbeb5284d	-0.3538231
137	0x3e7478b0	0.23874164
138	0x3ecba3d6	0.39773434
139	0xbef26988	-0.4734614
140	0xbd95aec7	-0.07308727
141	0x3f105017	0.5637221
142	0x3e8bfa18	0.27339244
143	0xbe84d8fb	-0.25946793
144	0xbf1c2c81	-0.6100541
145	0x3e2defaf	0.16985963
146	0x3dc1dad1	0.09465564
147	0x3de77aab	0.11302694
148	0xbcbb5324	-0.022866793
149	0xbe48eb92	-0.19621113
150	0x3f0ab432	0.54181206
151	0xbe62e0e8	-0.22156107
152	0x3ebc9cef	0.3683848
153	0x3e9faafa	0.31185132
154	0x3f1ab93e	0.6043891
155	0xbdd74a3c	-0.10512206
156	0x3e5f89d7	0.21829925
157	0x3e8a5c1f	0.27023408
158	0x3c898e09	0.01679136
159	0xbe6220fe	-0.22082898
160	0xbefec05e	-0.4975614
161	0x3e9cbc00	0.30612183
162	0xbe93a1cc	-0.2883438
163	0xbc33a47c	-0.010964509
164	0xbec32283	-0.38112268
165	0xbd5dda64	-0.05416335
166	0x3f0186a7	0.5059609
167	0x3ea78244	0.32716572
168	0x3edc1e81	0.42992023
169	0x3f01434b	0.50493306
170	0x3ebebb30	0.37252188
171	0x3ebf18ae	0.37323517
172	0xbbb571a3	-0.005537228
173	0xbe449d2d	-0.19200583
174	0x3dafa687	0.085766844
175	0x3e200254	0.15625888
176	0x3e179ec8	0.14806664
177	0xbe8d36e7	-0.2758095
178	0x3e648638	0.22316825
179	0xbe4a1e09	-0.1973802
180	0x3e824c9f	0.25449082
181	0xbde817eb	-0.11332687
182	0xbe7c49b9	-0.24637498
183	0x3ec25a1c	0.37959373
184	0x3f0fd416	0.5618299
185	0x3e984353	0.29738864
186	0xbe48caf5	-0.19608672
187	0x3f03717e	0.5134505
188	0xbe33713e	-0.17523667
189	0x3f178c01	0.59198004
190	0xbec66fd1	-0.38757184
191	0x3d089e50	0.033354104
192	0x3e652102	0.22375873
193	0xbeda9376	-0.4269063
194	0x3ebde729	0.37090424
195	0x3eea5b8e	0.45772976
196	0xbd54a09e	-0.05191099
197	0x3ea21745	0.31658378
198	0x3e87a24f	0.2649102
199	0xbec843ae	-0.39114136
200	0x3ee43a3f	0.44575688
201	0x3f096a7d	0.53678113
202	0x3f16ff1c	0.58983016
203	0xbef2072d	-0.472711
204	0x3ec0c13a	0.3764742
205	0x3ef217f9	0.47283915
206	0x3dacd1cf	0.08438455
207	0xbcdbfff5	-0.026855448
208	0x3e2ddf68	0.16979754
209	0x3d9fd4e6	0.07804279
210	0x3d9e8d3e	0.077417836
211	0xbd93db7c	-0.07219598
212	0x3f125cf1	0.5717307
213	0x3eb3ccd0	0.35117197
214	0x3f16589f	0.58728975
215	0xbe2947e3	-0.16531329
216	0x3dd7fce4	0.10546282
217	0xbd0ac57f	-0.033879753
218	0xbe6c1f36	-0.23058781
219	0x3f08e4b4	0.53473973
220	0x3ef5a770	0.47979307
221	0x3e246765	0.16055067
222	0xbed672a8	-0.4188435
223	0xbe3d703a	-0.18499842
224	0x3df09dd6	0.11748855
225	0x3eb3ee03	0.35142526
226	0x3f13cfbb	0.57738847
227	0x3df81b9f	0.12114643
228	0x3ca0830e	0.019593742
229	0x3f027ca3	0.5097143
230	0xbe723ab8	-0.23655212
231	0xbe8a77d4	-0.27044547
232	0xbe96e816	-0.29473943
233	0xbdaae9f1	-0.08345402
234	0xbdc5f01a	-0.09664936
235	0xbd44f153	-0.048081707
236	0xbd71b132	-0.059006877
237	0x3f15f92a	0.5858332
238	0x3d1c281d	0.038124193
239	0xbe5cbc4d	-0.21556206
240	0xbea96aa7	-0.33089182
241	0xbe9c9da4	-0.3058902
242	0xbe88d81a	-0.26727372
243	0x3efa9222	0.48939615
244	0x3dd0cfcf	0.10195886
245	0xbd40b69a	-0.047049142
246	0x3f0ddbe2	0.5541364
247	0xbb61ee63	-0.0034474365
248	0xbc286775	-0.010278572
249	0x3eb263ee	0.34841865
250	0xbe74496d	-0.23856135
251	0x3eac789c	0.33685768
252	0xbe8978a5	-0.26849857
253	0xbc3e14b5	-0.011601617
254	0x3effc674	0.49956095
255	0x3f091780	0.53551483
