logs/nc/2020_1_18/5/model.pth (torch_old, 132087 bytes, 13 tensors)

encoder.layers.0.conv.att f4 [1, 1, 32]
00000000: 27b6 c8bb 69a9 d6b8 4144 2a3c d1c0 30bb
00000010: e480 86ba 57ae 4b3a f17c 83b9 7c8e daba
00000020: b2d5 6fb6 ee26 6fba 0e29 d0bb a1e3 f539
00000030: 81e1 b2ba 8d40 77b9 1276 b13b 0664 5eb8
00000040: 1a23 b7bb 405b 70b9 4c43 5d3c 0cc8 afb9
00000050: d601 77ba f753 813d a9e5 5db9 fd37 e3ba
00000060: a414 d1b5 6f25 3aba afe0 703b cbeb 153d
00000070: 8608 c5b8 8297 80b9 d349 1b3d 7669 8cba
-0.00612523 -0.0001023587 0.01039225 -0.0026970396 -0.0010261801 0.0007769814 -0.00025079356 -0.0016674544
-3.5738162e-06 -0.00091229274 -0.0063525504 0.00046899638 -0.0013647528 -0.00023579803 0.0054156864 -5.302208e-05
-0.005588901 -0.00022922177 0.013504814 -0.00033527648 -0.0009422576 0.06314843 -0.00021161757 -0.0017335411
-1.5577721e-06 -0.0007100915 0.0036755016 0.036601823 -9.3952796e-05 -0.00024526945 0.0379122 -0.0010712582

encoder.layers.0.conv.bias f4 [16]
00000000: d8ca 32bd b1a3 01bc 1a21 7c3c a707 acbc
00000010: d9df 3eba 8f74 a13d 1f6b 41bc 63dc 063d
00000020: 10f8 20b9 6ac1 25bb 29f6 d43e 528c 743d
00000030: 41ab 46bb 7a84 44bc 1c55 2a3e 9a5c f1ba
-0.043650478 -0.007912562 0.015388751 -0.020999743 -0.00072812807 0.0788356 -0.011805325 0.03292502
-0.000153512 -0.0025292286 0.41594055 0.059704132 -0.0030314478 -0.0119944755 0.16634029 -0.0018414438

encoder.layers.0.conv.linear.weight f4 [16, 1000]
00000000: a7aa 86b7 294a 9536 b7dd a036 a6b0 23b6
00000010: 2cb3 6cb6 0571 3c37 1457 3db7 9ee9 18b7
00000020: 033e 3db5 d198 00b7 4b04 c235 96a5 01b8
00000030: 4cd1 e8b5 c692 4b35 56e0 17b4 c282 bc36
00000040: 9441 a636 b8f2 4136 0411 fd36 3d80 2237
00000050: 403c eab5 03ca 8d37 25a1 00b7 9ef8 68b5
00000060: d6c1 b7b5 0d62 2c36 364f 24b6 5840 44b6
00000070: b5f0 7937 6c7c 04b4 01f7 a5b4 6a88 5336
00000080: 7324 21b7 b5a9 e937 f9c8 7d37 87b7 bbb6
00000090: 75c4 7cb7 ef44 2036 d7a5 2536 eb91 d333
000000a0: 70c2 4437 d367 2b36 7f83 cd36 d697 b9b5
000000b0: e5de cdb6 2060 a436 d2c6 1eb6 acb9 6bb6
000000c0: 1958 9136 7437 5237 b794 a8b5 21c1 adb5
000000d0: eaee 7834 08be ec36 2c43 2a36 ce48 5c36
000000e0: 8e9d 61b6 6486 8637 e1a2 13b5 778a 0136
000000f0: 91da 9bb7 a7e5 1237 cf68 d535 cf0c 4a37
00000100: 88b6 0037 c459 4635 2047 1eb7 0655 1037
00000110: 6271 52b7 f789 4836 940b 4436 fba0 2335
00000120: bf36 89b6 dabc ca34 6a42 0236 b3e0 b736
00000130: 9ff7 bcb7 7802 74b6 0ce3 9037 3b75 9936
00000140: 1103 6cb7 b5ba 45b4 39c8 de35 ea0c 16b5
00000150: edf5 9037 7aaa 3037 2598 05b6 28be 9ab6
00000160: 256e c835 25ea 0136 5365 eab5 7ce3 b6b7
00000170: 4fbe 8b36 00cf 55b7 5cda 3335 25ba c337
00000180: db22 33b5 d371 0ab7 fac3 7636 d8bf ac37
00000190: e57e 1c37 9e0c 8a37 e423 6a36 bbc2 35b7
000001a0: 81ca f6b4 12c2 d2b3 5ec1 df36 5a5e 5c36
000001b0: e9d0 eeb6 8e22 0236 28d4 2237 ae41 53b7
000001c0: 2e40 1fb6 1619 8135 8e07 f834 0fa4 1d36
000001d0: ccf7 0eb7 e8c1 fbb4 a679 5236 0c66 afb5
000001e0: 39ba 0637 635a 7335 1632 28b6 dcb8 9ab5
000001f0: 0401 6137 39d2 ab36 1cbb 9634 d2b2 1137
00000200: 60c8 a5b7 8ae7 abb6 afcb c9b3 278c 72b5
00000210: 932b e5b5 8c57 98b5 e667 1f37 7785 0637
00000220: 9866 9bb5 31b1 1737 6fe8 fb36 ee2c 65b7
00000230: 59ab a9b6 b1dd 5537 d0f9 0b34 0ad6 a8b4
00000240: 12b0 9b37 ef13 0d36 c0a6 1737 44ec 3136
00000250: 665c 1bb3 0c13 f234 bb73 36b7 6bd3 fbb3
00000260: 8c7f 18b5 43eb 20b5 8185 1736 7e04 68b6
00000270: b63d deb5 ff54 9fb6 cd55 cbb6 58e0 61b5
00000280: e486 74b3 99f1 43b4 63ce a4b6 4715 e0b5
00000290: 438c 3f34 2d8d 9eb7 6e93 0436 ba02 0436
000002a0: c706 60b7 e169 0bb7 7861 62b7 d6fa 8237
000002b0: d46a 0f35 ee35 deb6 b8f1 d3b5 6b97 92b7
000002c0: 1b45 4cb6 9784 52b6 092b 1fb6 616f 9ab6
000002d0: 8c84 78b7 e0df a6b5 280c d537 a236 b135
000002e0: d84e 2db6 24ec 4034 be81 6a37 ef7b 9636
000002f0: 93d0 0836 dd62 3437 48d6 92b6 10bd b736
00000300: 4b95 c3b4 8d70 1f37 bf9b 03b6 5bf1 07b6
00000310: db9f 53b6 4bb3 80b6 387c 4b37 24db deb6
00000320: 00ea 00b6 0214 d1b6 de0e 2337 2b60 aa35
00000330: 7110 19b6 7aeb b435 b15b 2fb7 9e43 e636
00000340: f457 33b7 e7a5 f935 6dd6 73b5 af77 46b7
00000350: 0921 9ab6 e89a 1ab5 b50a 42b7 fd0e a7b7
00000360: 9408 c9b6 acfe fdb6 7dd7 5637 9b6d 8737
00000370: 0cec 7136 3d5d 0837 2a58 8f36 7552 9637
00000380: 72f9 11b6 39b6 07b7 7349 f4b5 82bd af36
00000390: da4a dab4 56d0 18b6 a0fb 7737 e9ad 34b7
000003a0: 071d b0b6 8da8 b7b6 26c4 e8b6 55af 2737
000003b0: abaf 8137 cf0f e135 5b5f 0738 f077 89b5
000003c0: ac7c 3cb6 1cbc 12b6 eb48 a735 d3ee 85b6
000003d0: e97d 0537 5664 ed37 bc88 86b7 d7aa ca36
000003e0: 5a0c 0236 5774 76b5 7388 42b6 861d 1a37
000003f0: 973b 36b5 a1f7 6d34 08d7 e136 9845 8235
-1.6053511e-05 4.4491794e-06 4.7941826e-06 -2.4391716e-06 -3.5271032e-06 1.1231988e-05 -1.1285552e-05 -9.114299e-06
-7.0498226e-07 -7.664975e-06 1.4455376e-06 -3.091021e-05 -1.734626e-06 7.5836977e-07 -1.4144584e-07 5.618059e-06
4.95482e-06 2.8900522e-06 7.5419684e-06 9.68581e-06 -1.7451894e-06 1.6902579e-05 -7.666914e-06 -8.678852e-07
-1.3690976e-06 2.568707e-06 -2.4484011e-06 -2.924373e-06 1.48976005e-05 -1.2338722e-07 -3.0913364e-07 3.1520854e-06
-9.604834e-06 2.785479e-05 1.5126768e-05 -5.5943997e-06 -1.5066112e-05 2.3881983e-06 2.4683447e-06 9.8519955e-08
1.1727781e-05 2.554142e-06 6.1247842e-06 -1.3827764e-06 -6.1354244e-06 4.8987713e-06 -2.3659563e-06 -3.5125804e-06
4.3315927e-06 1.2529887e-05 -1.2560257e-06 -1.2945712e-06 2.3183716e-07 7.0554706e-06 2.5371073e-06 3.2824933e-06
-3.3619322e-06 1.6036625e-05 -5.499879e-07 1.9303095e-06 -1.8579218e-05 8.755748e-06 1.590024e-06 1.20431205e-05
7.671893e-06 7.3891374e-07 -9.434094e-06 8.602865e-06 -1.2543374e-05 2.9882628e-06 2.9213015e-06 6.095649e-07
-4.0892915e-06 3.776284e-07 1.9410168e-06 5.4799834e-06 -2.2526654e-05 -3.636027e-06 1.7271865e-05 4.5734027e-06
-1.406741e-05 -1.8414978e-07 1.6598561e-06 -5.5898147e-07 1.7280656e-05 1.053011e-05 -1.9907104e-06 -4.6116947e-06
1.4933217e-06 1.9358788e-06 -1.7463848e-06 -2.1802021e-05 4.1646776e-06 -1.2743985e-05 6.700045e-07 2.3332492e-05
-6.673342e-07 -8.251943e-06 3.677093e-06 2.0593332e-05 9.3278695e-06 1.6456757e-05 3.4889608e-06 -1.083378e-05
-4.5968412e-07 -9.814188e-08 6.668429e-06 3.2837474e-06 -7.117273e-06 1.9391623e-06 9.705349e-06 -1.2591872e-05
-2.3730204e-06 9.61855e-07 4.6199096e-07 2.3490318e-06 -8.521554e-06 -4.689348e-07 3.1363247e-06 -1.3068216e-06
8.030381e-06 9.0656084e-07 -2.5063105e-06 -1.1527695e-06 1.34112815e-05 5.1206703e-06 2.8075817e-07 8.684308e-06
-1.976284e-05 -5.123152e-06 -9.396842e-08 -9.0355974e-07 -1.7074511e-06 -1.1350362e-06 9.501329e-06 8.018097e-06
-1.1578259e-06 9.041557e-06 7.5074418e-06 -1.3659925e-05 -5.05654e-06 1.2747406e-05 1.3036265e-07 -3.1448172e-07
1.8559429e-05 2.102224e-06 9.039126e-06 2.651258e-06 -3.6172786e-08 4.508987e-07 -1.0874991e-05 -1.1726555e-07
-5.681002e-07 -5.9946996e-07 2.2578463e-06 -3.4573309e-06 -1.6558249e-06 -4.748464e-06 -6.05986e-06 -8.4145495e-07
-5.693336e-08 -1.8248683e-07 -4.9116074e-06 -1.6695493e-06 1.7839288e-07 -1.8900808e-05 1.9755348e-06 1.967112e-06
-1.3353018e-05 -8.3096975e-06 -1.3493343e-05 1.5614012e-05 5.3427107e-07 -6.622394e-06 -1.5791074e-06 -1.7475066e-05
-3.0438594e-06 -3.1369616e-06 -2.3717896e-06 -4.602524e-06 -1.4812813e-05 -1.243312e-06 2.539724e-05 1.3203428e-06
-2.5824902e-06 1.7967301e-07 1.3977695e-05 4.484776e-06 2.0386985e-06 1.07518545e-05 -4.3760847e-06 5.4758348e-06
-3.6430205e-07 9.503344e-06 -1.9611177e-06 -2.0257055e-06 -3.1534498e-06 -3.8355697e-06 1.2128665e-05 -6.641627e-06
-1.9209692e-06 -6.2310146e-06 9.719019e-06 1.2693976e-06 -2.2808347e-06 1.3479578e-06 -1.0452161e-05 6.862406e-06
-1.068971e-05 1.860023e-06 -9.0836585e-07 -1.1829586e-05 -4.5934034e-06 -5.759489e-07 -1.1565794e-05 -1.991493e-05
-5.9912654e-06 -7.5696353e-06 1.2805566e-05 1.6144293e-05 3.6049196e-06 8.12794e-06 4.2719957e-06 1.791979e-05
-2.175188e-06 -8.089054e-06 -1.8200793e-06 5.237468e-06 -4.0660126e-07 -2.2771032e-06 1.4780933e-05 -1.0769328e-05
-5.248588e-06 -5.473447e-06 -6.9369735e-06 9.994798e-06 1.54598e-05 1.6768407e-06 3.2275315e-05 -1.0242202e-06
-2.8086752e-06 -2.186519e-06 1.2463692e-06 -3.9915117e-06 7.9567335e-06 2.8299324e-05 -1.6037717e-05 6.0399575e-06
1.93787e-06 -9.181144e-07 -2.8987677e-06 9.185989e-06 -6.7887e-07 2.2162432e-07 6.7305555e-06 9.706009e-07

encoder.layers.0.conv.linear.bias f4 [16]
00000000: dba5 07bd 9e59 f3bb 8249 493d 1f0a 80bc
00000010: 1cbb cdbb 39b4 da3b a69b 57bc 5d2e bfbd
00000020: f2f0 91b9 588e 86bb caf4 a1be ed5b ab3c
00000030: 41e7 90bb 3bac 78bc fa32 923e 7079 5abb
-0.033117156 -0.0074264547 0.04914237 -0.015629826 -0.0062784087 0.0066743162 -0.013159668 -0.09335015
-0.00027836073 -0.004106324 -0.31632072 0.020917857 -0.004422099 -0.015177782 0.28554517 -0.0033336543

encoder.layers.0.conv_e.weight f4 [1000, 16]
00000000: 8835 1fb4 0321 4829 aec4 7aa9 15c9 10bb
00000010: 99fc 90a9 23a0 75a9 f79a a2bb c657 c828
00000020: 87c6 152a d5fb 23bc f600 852a c1b1 76a9
00000030: 8be1 6ca9 60a2 62bc ed06 26bc 0c32 ffb3
00000040: 19e3 dbb3 4771 8e2a fc4c 6e29 077d 4e3b
00000050: 4330 6f2a b982 5a28 c2df 063c 58ed 4baa
00000060: 4bd5 6a2a 6c3c ab3b 800c 4d29 8f5c 4529
00000070: e51d 14aa 6b97 6e3b 016b 973b 320f ddb4
00000080: a16f 8ab2 3577 632a 339f 5a28 5063 31ba
00000090: 705f 3baa ae5d 62a9 e302 8b3a a68a 6729
000000a0: 540d 85aa ed81 eeba cc8e e6a9 ff11 0429
000000b0: 63ce 9829 31f2 ecbb 9a71 2aba f335 23b2
000000c0: 158a 37b2 e6cc 87a9 0bbb 8f2a 0254 583b
000000d0: 22c6 5eaa b94f 83a9 6a25 0b3c 302d 4229
000000e0: 0171 24aa c7e6 9b3b 3b52 852a 093a daaa
000000f0: 2023 2929 7981 563b 0adc 603c 5cb0 7c33
00000100: 5e8a 5434 0754 eb29 f40b e229 64a4 7aba
00000110: 2146 fea8 4943 c4a8 720a 27bb 7ac0 2baa
00000120: f18b 542a ab40 1abc 2a35 422a 68d1 bfa8
00000130: d0b2 5b2a 98b0 50bc 5ccb 8bba 59f2 69b4
00000140: 0ed8 f2b3 7cfb 572a c038 01a9 07ee 01b8
00000150: e9bc 5aa9 1176 2ca9 ba9e cb39 b699 daa9
00000160: f49e 2629 4ddf a4ba 5642 06aa d5eb c429
00000170: 0925 9b29 7b81 eabb 0f69 d33a 2faa 03b4
00000180: 067d 37b3 7808 482a 89d5 5fa9 48e9 b0bb
00000190: 644c 3e2a 7376 2f2a eebb 6bbc e887 d0a9
000001a0: 6d23 4b2a 420f 73bc af99 0a2a 5017 192a
000001b0: 99d3 312a 2760 56bc c921 57bc fdcc b5b4
000001c0: 58dc 3732 b949 eb29 02cd bf29 f9e2 ddbb
000001d0: ed0d 4ea9 af68 ed29 406d 2fbc 3ab1 a1a9
000001e0: 702f 1baa 7a17 72bc 1203 2f2a 81d3 e3a9
000001f0: 559d f228 06fb 73bc 14ec a2bc f52c 60b4
00000200: 1b73 5a34 f7ff 03aa 09a0 0faa 0725 413b
00000210: d85f 882a a336 96a9 a5a2 ab3b 11ab 5caa
00000220: 7536 87aa 71e9 0e3b a9b3 98aa 7aa9 07aa
00000230: 9b4e 1c29 98bf 53ba 2434 103c 2c62 4933
00000240: 0436 5033 113c bd29 b3c5 9c29 e760 25bb
00000250: 4589 6b29 bb4d 16aa 682c 743a a460 8d29
00000260: 06d1 6f29 ab44 65bb a721 75aa 9717 b6a9
00000270: a04b a7aa ff7e d03a c1c2 bd3a 5754 c533
00000280: 97ff 75b4 0877 cb29 aebc 7daa 48c6 0aba
00000290: 74bc 25aa ba45 c829 2826 5bbb bc7a 8929
000002a0: fa39 902a b6dd fdbb b459 112a 374a 6ca8
000002b0: 99d4 8329 be77 36bc 1daf abba 7a92 25b4
000002c0: 2774 0ab3 6515 95a9 cd6b 36a9 49d0 3abb
000002d0: bee6 3aaa 7894 8aaa c8bd 29bc 9e6f c5a8
000002e0: d765 a9a8 3479 01bc 9fa9 8e29 f86c 00aa
000002f0: c2c5 fb29 3beb 56bc c28c 1dbc 6146 9734
00000300: 0fef 00b4 a46d 3e2a 042f 78a9 0cdf 5b3a
00000310: 526f 8aaa 8404 072a a4d2 9d3b b704 e8a9
00000320: 9049 6ba9 2320 d4bb 708a 93a9 de29 ca29
00000330: a6b6 d629 b75a bdbb da26 6d3a 8434 3bb3
00000340: 9e15 b233 5ab3 f228 2d7c 8929 5126 44bb
00000350: d20f 8728 29d0 64aa d904 d6ba 72c9 282a
00000360: 966f 8d29 5954 82bb 968a 70a9 7152 232a
00000370: 9c1f 74aa 4aff 0cbc ad59 b6ba 893c b4b3
00000380: e435 b3b3 51b8 d1a9 3a69 9529 6855 a6ba
00000390: e205 1629 2a48 58a7 9f93 9aba a286 6ba7
000003a0: 621a 9e29 55c6 793a ed10 43a8 8562 88a8
000003b0: 3cc8 c525 f273 8dba 7a0b bfb9 a883 11b3
000003c0: 9d5a 1a34 3c8d 9ea9 b8cc 93a7 26c9 48bb
000003d0: 16c0 80aa fb42 b0a9 3941 c5bb bb1c 9e2a
000003e0: 09ff 4d29 5e9f bfbb 0f44 4faa 500b 13a9
000003f0: 563a 712a 6bae b1ba 66d4 d6bb 4e55 a734
-1.4827503e-07 4.4437554e-14 -5.5681744e-14 -0.002209251 -6.438703e-14 -5.4539825e-14 -0.004962321 2.2242526e-14
1.3302736e-13 -0.010008772 2.3626213e-13 -5.477715e-14 -5.2598154e-14 -0.0138326585 -0.010133487 -1.1883466e-07
-1.0239291e-07 2.530287e-13 5.291339e-14 0.0031507628 2.1244208e-13 1.2129777e-14 0.008232059 -1.8112367e-13
2.0857376e-13 0.0052257087 4.5529986e-14 4.382307e-14 -1.3155412e-13 0.003640617 0.00462091 -4.1175514e-07
-1.6116077e-08 2.0203008e-13 1.2135952e-14 -0.0006766813 -1.6642048e-13 -5.0263335e-14 0.0010605719 5.1412562e-14
-2.3634794e-13 -0.001819668 -1.0238823e-13 2.9325497e-14 6.7859584e-14 -0.00723102 -0.00065019133 -9.500115e-09
-1.0683398e-08 -6.0307485e-14 2.553169e-13 0.0033009057 -1.9786302e-13 -5.831398e-14 0.008492807 4.3115847e-14
-1.4605332e-13 0.0047577354 2.3682605e-13 -3.876485e-13 3.7556004e-14 0.003273098 0.013724336 5.883372e-08
1.9794376e-07 1.0450673e-13 1.003849e-13 -0.0009561239 -2.8230078e-14 -2.1789552e-14 -0.0025488404 -1.525463e-13
1.8877934e-13 -0.009414832 1.7249106e-13 -2.1296075e-14 1.9513145e-13 -0.012737416 -0.0010665464 -2.1787982e-07
-1.1308303e-07 1.9183087e-13 -2.8692977e-14 -3.0977677e-05 -4.8569577e-14 -3.829408e-14 0.00038837438 -9.7078094e-14
3.6997274e-14 -0.0012578756 -1.1924606e-13 8.745059e-14 6.889807e-14 -0.0071565486 0.0016129332 -1.2262238e-07
-4.2721716e-08 1.7766507e-13 -4.970116e-14 -0.005398903 1.6901893e-13 1.5584218e-13 -0.014388068 -9.2606315e-14
1.8042313e-13 -0.014835181 1.2310182e-13 1.3597218e-13 1.5794171e-13 -0.013084448 -0.013130614 -3.3863026e-07
1.0702102e-08 1.0448885e-13 8.517667e-14 -0.006771442 -4.5753267e-14 1.0543074e-13 -0.0107072 -7.18058e-14
-1.3783224e-13 -0.014776105 1.5544188e-13 -1.0117515e-13 2.6935629e-14 -0.014891392 -0.019887961 -2.0877981e-07
2.0344707e-07 -1.1723943e-13 -1.2756475e-13 0.0029471533 2.4224958e-13 -6.670816e-14 0.0052378946 -1.9599276e-13
-2.4018604e-13 0.0021806622 -2.7125288e-13 -1.2049208e-13 3.4707138e-14 -0.0008077561 0.008801494 4.6888246e-08
4.84779e-08 8.403706e-14 6.962087e-14 -0.002523476 5.2299544e-14 -1.3349644e-13 0.00093144784 6.278422e-14
5.324996e-14 -0.0034983556 -2.1772047e-13 -8.086516e-14 -2.9717635e-13 0.0015906988 0.0014477597 9.188869e-08
-2.2910386e-07 9.0356596e-14 -2.2536375e-13 -0.00052938284 -1.4720327e-13 8.89388e-14 -0.003343949 6.105313e-14
2.5619768e-13 -0.0077473773 1.2909709e-13 -1.31167245e-14 5.8544485e-14 -0.011136947 -0.0013098452 -1.542011e-07
-3.223627e-08 -6.6206406e-14 -4.050562e-14 -0.0028505495 -1.6600173e-13 -2.4616745e-13 -0.010360189 -2.19198e-14
-1.8806935e-14 -0.007902432 6.3354913e-14 -1.140649e-13 1.1180945e-13 -0.013117607 -0.009616079 2.817715e-07
-1.2007898e-07 1.6913429e-13 -5.510784e-14 0.00083874236 -2.4590968e-13 1.1991975e-13 0.00481637 -1.03036876e-13
-5.2244287e-14 -0.0064735576 -6.5521265e-14 8.977865e-14 9.5351935e-14 -0.0057786363 0.0009046622 -4.3587093e-08
8.292703e-08 2.6945179e-14 6.105563e-14 -0.0029930065 1.4994872e-14 -2.0322688e-13 -0.0016328349 1.4991288e-13
6.281015e-14 -0.00397734 -5.341091e-14 1.4505911e-13 -2.168252e-13 -0.0086057875 -0.0013912224 -8.3929145e-08
-8.34514e-08 -9.313438e-14 6.635183e-14 -0.0012690248 3.3311793e-14 -3.0015142e-15 -0.0011793262 -3.2685786e-15
7.021186e-14 0.000952815 -1.0828345e-14 -1.514176e-14 3.4309737e-16 -0.0010792001 -0.0003643891 -3.3880184e-08
1.4375333e-07 -7.04111e-14 -4.1022653e-15 -0.0030637472 -2.2870654e-13 -7.8275894e-14 -0.006019738 2.8086374e-13
4.5740352e-14 -0.0058478555 -1.8408906e-13 -3.265037e-14 2.1425339e-13 -0.0013556009 -0.0065560816 3.116824e-07

encoder.layers.0.conv_e.bias f4 [16]
00000000: 71b1 71b6 f618 41bb 5603 99ba 4b21 7c3d
00000010: cca0 01b8 e131 10bc 38d1 df3e 1f93 5dbc
00000020: cbd0 a7bc 4ecd 013f 9e3b 08bc e05f 9cbc
00000030: 1134 5bb8 b7ac fd3e eb52 8f3e b91c 7436
-3.6015083e-06 -0.002946434 -0.0011673968 0.06155519 -3.090575e-05 -0.008800955 0.4371431 -0.013523846
-0.020485302 0.50703895 -0.008314995 -0.019088686 -5.226216e-05 0.49545833 0.2799295 3.6375552e-06

decoder.scale f4 [2]
00000000: e4fb 2b3f 2bdc ba3e
0.6718123 0.364961

decoder.point f4 [2, 16]
00000000: bd3d c63b 25b0 9fbd 4e9f 21bd 2f47 dabd
00000010: b35d 6abd c42a 8cbe 5fcc d13d 4ae4 f63b
00000020: 60c5 973c a772 d6bb 2217 63be 8ee6 c6be
00000030: 2723 3abd 9f68 87bc e80a 223d 202a 28bd
00000040: d9f3 863e 9bcb 853c c129 fb3d 981d e23d
00000050: d344 993d 6449 46be d2f3 9dbe 38cf ac3d
00000060: aafc 543e 7368 a3b9 37f0 f3bd 7578 0bbe
00000070: 5512 5ebe ba82 623e 2f3c 323d 314f 613d
0.0060498402 -0.07797269 -0.039458565 -0.106581084 -0.057218265 -0.27376378 0.10244059 0.0075345384
0.018526733 -0.0065444293 -0.22176793 -0.38847774 -0.04544368 -0.01652938 0.039561182 -0.0410558
0.26357916 0.016332438 0.12263823 0.11040801 0.0748383 -0.19363934 -0.30850083 0.08437961
0.20799509 -0.00031167603 -0.11911052 -0.1362017 -0.2168668 0.2212018 0.043514427 0.055007163

decoder.tangent f4 [2, 16]
00000000: 3783 5f3c 1d2c a1bd cc4d f73d 2669 78bd
00000010: 9982 d63b a4cc ae3e bdce 83bc 8283 eb3d
00000020: d109 fb3c fe74 6fb9 08ef 913e e976 903e
00000030: 2120 ee3b 2bb2 4038 86cd 20bd 3c83 0839
00000040: a0e7 033e 3254 313a b4d2 95bd 6ae1 c43c
00000050: 3ca0 7f3c 0031 afbe c115 ce3d eddd c83c
00000060: 4a5e f43d 9a6b c939 1bf3 eebd 1ae1 a2be
00000070: e7ff 0fbd cce4 dd3d ca8e 97bd f49b 203c
0.013642124 -0.07869742 0.120753855 -0.060647152 0.00654633 0.34140503 -0.016089791 0.114996925
0.03064433 -0.00022836399 0.2850268 0.2821572 0.0072670137 4.59423e-05 -0.039258502 0.0001301886
0.12881327 0.000676456 -0.07315579 0.024033267 0.015602168 -0.34217072 0.10062743 0.024519885
0.11932047 0.00038417877 -0.116674624 -0.31812364 -0.035156157 0.10834655 -0.07400282 0.009802807

decoder.cls.weight f4 [16, 2]
00000000: 1832 e236 0414 7fb7 e214 9caa a73e f4aa
00000010: 5f59 692a 7703 f3ab ef2e d9bd 7125 d33d
00000020: b058 bf2a 21ab c92a 6510 abac 8c37 2f2c
00000030: 802b c7be a92f c23e 2da2 2aac 1418 69aa
00000040: 3241 f32b 5d6f 8f2c b20f ccbe 41b0 d03e
00000050: 4219 c02b 9b20 b5ab b7f9 56ac 563b 392b
00000060: 9832 8e2a 6f84 22ab 93f3 dcbe 4a7b d63e
00000070: 5b3c c6be a43a c33e ce51 ff36 ddcb 3ab7
6.7411565e-06 -1.5203845e-05 -2.7725657e-13 -4.338658e-13 2.0725564e-13 -1.726715e-12 -0.10604655 0.10309876
3.3989955e-13 3.5823517e-13 -4.8619325e-12 2.489983e-12 -0.38900375 0.37926987 -2.4248479e-12 -2.0702911e-13
1.7284284e-12 4.0766683e-12 -0.39855725 0.4075947 1.3649431e-12 -1.2869873e-12 -3.0549849e-12 6.580755e-13
2.5259374e-13 -5.773775e-13 -0.43154582 0.41890937 -0.38717923 0.38130677 7.6091155e-06 -1.113393e-05

decoder.cls.bias f4 [2]
00000000: 0286 523d 0286 52bd
0.05139733 -0.05139733

decoder.w_e.weight f4 [1, 16]
00000000: 4406 9334 d9d2 a1ab 46b3 6729 7509 873d
00000010: 5f89 48aa 35bb 60a8 e825 a7bd 2679 90a9
00000020: 528e 5a2b d71b dcbd bf83 28ab b744 19ab
00000030: d25c 512b 5f72 b4bd 1b34 103e 09f7 9cb5
2.7385443e-07 -1.149826e-12 5.14478e-14 0.06593601 -1.7811229e-13 -1.2475092e-14 -0.08161527 -6.4159005e-14
7.764667e-13 -0.107474975 -5.9868424e-13 -5.445188e-13 7.438053e-13 -0.08810877 0.14082377 -1.1694802e-06

decoder.w_h.weight f4 [1, 16]
00000000: c1b8 1b29 5fb7 892f f0b2 d03e df9e 12ad
00000010: e514 e3b8 f422 1f3f fe98 2d2f 222a 7a3c
00000020: 6980 a32b 4f87 e82c 0ad9 0f3e 73c7 843f
00000030: 6496 cbab c47b 0a2d 6238 f83d b31d 0cad
3.4577162e-14 2.5050448e-10 0.40761518 -8.334416e-12 -0.000108280954 0.6216271 1.5788612e-10 0.015268834
1.1617488e-12 6.608859e-12 0.14047638 1.0373367 -1.4465759e-12 7.871873e-12 0.12120129 -7.964673e-12
