logs/lp/2020_1_7/1/model.pth (torch_old, 192758 bytes, 16 tensors)

encoder.layers.0.hy_linear.bias f4 [16]
000000 ab 81 37 3e 60 00 c5 3c d8 6a 0e bd 74 46 95 3d
       0.17920558 0.02404803 -0.034769863 0.072888285
000010 32 0b 64 bf 8c 8a a3 3b 42 0d 98 3c 1d b1 2c 3d
       -0.8907958 0.0049908813 0.01856101 0.042161096
000020 b8 c6 c6 bb b8 63 a8 bd 39 34 0d be 7f 76 c3 3c
       -0.0060661696 -0.08222145 -0.13789453 0.023860214
000030 52 ad f0 3d e5 70 41 3c b7 23 a2 3c 20 bd 19 bd
       0.11751808 0.011806701 0.01979242 -0.03753388

encoder.layers.0.hy_linear.weight f4 [16, 1433]
000000 9d 56 21 3d db d0 17 bc fb a2 74 3c e0 9c 29 bd
       0.03938924 -0.009266104 0.014931436 -0.041409373
000010 83 00 b0 3d 2d 68 0d 3d 64 bc 22 3d 39 7e 49 3c
       0.085938476 0.034523178 0.039730445 0.01229816
000020 af d4 de bc d9 14 65 bd e6 44 e6 3c da 65 d3 3b
       -0.027201025 -0.055928085 0.028109025 0.0064513506
000030 00 af f1 3c 09 cd 24 bd 02 1f c1 3c 6b 5b 8b 3b
       0.029502392 -0.0402346 0.023574356 0.004252841
000040 89 10 b9 3c ca f3 f2 3b 6a f0 04 bc 25 95 7d bd
       0.022590892 0.007414316 -0.00811396 -0.061909813
000050 73 74 24 3b 4b 41 3e bd 01 18 ad bc 7d 6d 8c bd
       0.0025093823 -0.046448987 -0.02112961 -0.06856821
000060 a0 cd 11 3d b9 58 f1 3d 68 5d be 3c 4a e6 81 3d
       0.03559649 0.11784501 0.023237899 0.06342752
000070 6e 67 31 3c c9 02 81 bd 88 e5 99 3c 06 1e bf 3c
       0.010827882 -0.06299359 0.018786207 0.023329746
000080 ea a2 23 bd 86 41 d8 bb 62 e1 1e bd 03 84 22 3d
       -0.03995029 -0.006599608 -0.03878916 0.039676677
000090 c3 43 7b 3c 18 56 29 3c 8c e4 27 bd 00 09 16 bd
       0.01533598 0.010335468 -0.040989444 -0.036629677
0000a0 b5 e5 f7 3d b9 1c 18 3d da 16 0f bd e0 49 41 3d
       0.1210436 0.037136767 -0.034933902 0.047189593
0000b0 b1 2f 42 3d 8d 73 13 3d c9 a5 12 bd ed 93 88 3c
       0.047408763 0.03599887 -0.035802636 0.016672099
0000c0 2c 06 78 ba 3b 5b 97 bc 81 8f 77 3c bb ea f4 3d
       -0.0009461369 -0.01847612 0.015109898 0.11958834
0000d0 0d fd cc 3c 57 9e 1f bd 6e 6b e0 3d 19 16 56 3a
       0.025023008 -0.038969364 0.109579906 0.0008166745
0000e0 2c cc 92 bd 54 64 bd bd e7 97 b8 3c 8d 68 3f bd
       -0.07167849 -0.09247652 0.02253337 -0.046730567
0000f0 85 58 06 3d f7 86 4e 3b 57 f1 1c bd 36 cd d6 bc
       0.032799263 0.003151355 -0.038316097 -0.0262209
000100 11 88 06 bc 1b 11 35 3d ec de b1 bd 63 b3 6d bc
       -0.008211152 0.044205766 -0.08685097 -0.014508101
000110 47 69 67 bc 8d e6 7e bb 71 12 e5 bc 52 a2 96 3d
       -0.014124221 -0.0038894743 -0.027962895 0.07355179
000120 af fe 9c bd 05 1f a2 bd 74 b2 d8 3c 63 f6 03 bd
       -0.076657645 -0.07916073 0.02645228 -0.032217395
000130 76 e9 9f 3c 41 c4 08 be d0 c9 e7 3d 59 d6 0c 3b
       0.019520503 -0.13356115 0.113177896 0.0021490066
000140 fb 1e 34 bc 7a df ec 3d 9a f7 b5 3d a8 b3 d2 bb
       -0.010993714 0.11566062 0.08885117 -0.006430108
000150 d3 a2 a8 bb 22 69 f2 bd 6d 03 d8 3d 41 f5 2a 3d
       -0.0051463633 -0.11836459 0.105475284 0.0417378
000160 d5 4c 30 bd 23 5e 0e bd 43 96 08 bd a1 89 7a 3d
       -0.043042023 -0.034757745 -0.033346426 0.06116641
000170 e9 0c 66 bd 0a 2c c6 3d c2 b1 85 3d a1 58 fa 3c
       -0.056164656 0.096763685 0.06528045 0.03055984
000180 bc 0a 9b 3c 31 91 dc bc fd 43 3f bc 7c 71 13 bd
       0.018926017 -0.026924701 -0.0116739245 -0.0359969
000190 39 bb ce ba c1 e1 03 bd 3f 31 4b bd 41 4f 87 bd
       -0.001577235 -0.032197718 -0.04960751 -0.06606913
0001a0 91 b5 ad ba 7a 51 ce 3c 43 04 3b 3d 87 65 0c bd
       -0.0013252964 0.025185335 0.04565836 -0.03427651
0001b0 04 4f f9 3c c4 1c 70 3d e6 c7 dd bd b3 bc 85 bd
       0.030433185 0.058621183 -0.10829143 -0.06530132
0001c0 4d 28 0a 3d ea 17 a0 3b 28 fb 3b bd ae 20 38 bc
       0.03372984 0.0048856633 -0.04589382 -0.01123826
0001d0 b7 10 4d bd 82 f3 c1 bb 34 0f ab 3d 36 c1 5f 3d
       -0.05006477 -0.005918921 0.08352509 0.05462762
0001e0 c9 d5 2a 3d ec eb 92 3d f8 01 2f 3d a1 45 55 3c
       0.041707788 0.07173905 0.042726487 0.013017089
0001f0 cc 49 03 3d 26 e4 8f bd d2 fb 8e 3d 1c 1c 00 3e
       0.0320528 -0.07025938 0.06981625 0.12510723
000200 fb 3b 1d bd 17 2e 24 3d dc 96 c5 bd ec ff 8f bd
       -0.03838728 0.040083017 -0.09647915 -0.07031235
000210 15 fd 13 3c 33 97 38 bc 25 b5 82 bb 9a 3f 1d bc
       0.009032507 -0.011266517 -0.0039888793 -0.009597683
000220 9f 02 56 bd 34 19 b7 3c ba ac 46 bd f0 e9 ed 3b
       -0.052248593 0.022350885 -0.04850457 0.0072605535
000230 90 f2 d4 bc 09 0b 94 3d 18 9e ac 3c c6 b5 cb 3b
       -0.025994569 0.07228667 0.021071479 0.0062167374
000240 a7 d9 b5 bd ec 92 8a bc d4 0c 95 bc 25 4d 0f 3d
       -0.088794045 -0.016915761 -0.018194593 0.03498568
000250 87 46 87 bc 87 a5 82 bd 5b 07 ed 3c dd b6 d6 bc
       -0.016513122 -0.06379228 0.028934171 -0.026210243
000260 8c 6a 95 3d e0 4e 5f bd 8e 6c a3 3c 30 8e ef bc
       0.07295713 -0.05451858 0.019949224 -0.029242605
000270 f8 51 e8 3b 2a 9d 79 bd 6f a6 1a bd 71 45 f5 bc
       0.0070898496 -0.0609409 -0.03775638 -0.029940339
000280 c2 17 af bd f0 3b 48 bc 21 dc 24 bd 93 1c 85 3c
       -0.08549453 -0.012221321 -0.040248994 0.016248977
000290 ac 29 f2 3c e6 e9 46 bc 72 c0 a7 3c 7b 80 4e 3d
       0.029560886 -0.012140727 0.020477507 0.050415497
0002a0 64 f9 49 3b ca c7 c1 bc 48 53 f1 3c b3 9e 01 bd
       0.0030818814 -0.023654837 0.029458657 -0.031645488
0002b0 fc a5 c7 bb 79 f6 06 bc 78 9d 49 3d 34 ec aa bd
       -0.006092785 -0.008237475 0.04922244 -0.083458334
0002c0 92 8e 52 ba a6 63 10 bc 19 70 df 3c ac 5e 40 bd
       -0.0008032109 -0.008812821 0.027275132 -0.046965286
0002d0 87 7a 28 bd 22 f8 58 3b 8c f0 64 3b 65 20 f4 b9
       -0.041132476 0.0033106883 0.0034933416 -0.00046563442
0002e0 6f 37 17 bc 60 8e 2a 3d 31 1d 4b bd b0 49 9f 3d
       -0.009229525 0.041639686 -0.049588386 0.07777727
0002f0 b6 54 52 bc 27 09 00 bc 3d 23 75 bc 54 ad 5b bd
       -0.0128375795 -0.007814682 -0.014962015 -0.053632095
000300 9f a1 a5 3c 9d c7 74 bc c0 5b 28 bc fc e1 02 3c
       0.020218669 -0.01494017 -0.010275781 0.007988449
000310 8e a9 44 bc b7 4b e9 3d 2e 8c 83 bb 05 7b af 3c
       -0.012003316 0.113913946 -0.0040145135 0.021420965
000320 38 19 f4 3c 9a 74 0c bc d9 3e 10 3d 36 f3 85 3c
       0.029797181 -0.008572722 0.035216186 0.016351324
000330 bd d5 3d 3d 5f 65 a1 3d d5 1c 02 3c d4 8e b8 bc
       0.046346415 0.07880663 0.007941444 -0.022529043
000340 2b b8 6a bd c9 53 10 bc 28 0a 37 3d 78 53 33 3d
       -0.057304543 -0.008809038 0.04468742 0.043780774
000350 59 7d 90 bd a1 32 b6 bd b3 d4 6f bc 3f 59 a4 bc
       -0.07055158 -0.088963754 -0.014638114 -0.020062087
000360 32 42 c2 bc 78 af 0e be 2f 1c 27 bd c1 97 ff bc
       -0.023713205 -0.13934124 -0.040798362 -0.031200292
000370 ea 84 88 ba 28 35 db 3c 39 86 18 3c 0d 11 21 3c
       -0.0010415588 0.026758745 0.009309345 0.009830725
000380 63 81 12 3d 49 a4 77 3c c9 4e 73 3d de b2 85 bd
       0.035767924 0.015114852 0.059401307 -0.06528257
000390 23 2e 85 3d dd 42 99 bd 36 21 8c bd 8d 10 a5 3d
       0.065029405 -0.07483456 -0.06842272 0.080597974
0003a0 cc e5 32 bd 39 ef 75 3c 0b d5 e6 3d 24 d3 69 bd
       -0.043676183 0.015010648 0.112711035 -0.057086125
0003b0 da be 78 3d 27 91 48 bd aa 5b a8 3c 1f 34 a6 3d
       0.060728885 -0.048966553 0.020551521 0.0811541
0003c0 e8 06 12 bd 02 00 33 3d b7 a0 7a 3d 0e 43 06 3d
       -0.035651118 0.04370118 0.061188426 0.032778792
0003d0 84 55 4c 3c d7 74 9a 3d c9 79 ae bc e3 a2 2e bd
       0.01247156 0.07541817 -0.021298306 -0.04263581
0003e0 1f 22 bb 3d 22 0e be 3c a7 28 03 bd bf db 2e bd
       0.091373675 0.023200098 -0.03202119 -0.042690035
0003f0 84 29 10 bd 1b 7f a1 bc 8c e7 55 bd 40 85 ea bc
       -0.035195842 -0.019713929 -0.052222773 -0.028627992

encoder.layers.0.conv.att f4 [1, 1, 32]
000000 1e 0c f7 3b 6a 13 94 bc 6c 7e e4 b8 e3 87 73 bc
       0.0075392863 -0.018075664 -0.00010895435 -0.014863941
000010 f1 4c 91 39 58 04 4e ba 9a fd 03 3d 6c da 15 bc
       0.0002771388 -0.00078589236 0.032224275 -0.009146314
000020 dd 17 a7 bc 51 cb 79 9e 45 8f 48 3c 51 32 5d 39
       -0.020397121 -1.3223995e-20 0.012241189 0.00021094947
000030 08 07 45 bb 04 81 e3 bb 79 4a 6c bb 50 cd 85 ba
       -0.0030064005 -0.00694287 -0.0036055131 -0.0010208283
000040 78 16 57 ba e3 fb 5a 3b 99 62 5f b9 45 05 f0 bb
       -0.0008204947 0.0033414296 -0.00021303668 -0.007324847
000050 a8 73 c3 38 be 45 bc 3a 71 22 1a 3d 08 d8 c5 bb
       9.319867e-05 0.0014364047 0.037630502 -0.006037716
000060 32 74 8f bc c4 08 40 1f 6d d4 f3 3a 02 97 d2 38
       -0.01751146 4.0664832e-20 0.0018602737 0.00010041708
000070 63 23 14 3b ce cb 86 3b 0e ef 29 3c ad fd a8 bb
       0.00226041 0.004113651 0.0103719365 -0.0051571936

encoder.layers.0.conv.bias f4 [16]
000000 4a a3 4a 3d cf 44 6a 3d fb 6a 8d bb 54 9b e9 3d
       0.04947213 0.057194527 -0.0043157316 0.114065796
000010 3a 98 0a b9 78 79 a2 3d 16 da 2c be cd 87 c5 3d
       -0.00013217414 0.079333246 -0.16880068 0.096450426
000020 1b 4e 02 3d fa d9 47 a9 ce 59 93 3d 68 9b 23 b9
       0.03181277 -4.437594e-14 0.07194863 -0.00015602785
000030 b7 67 05 3d ed eb 1d 3d 57 e9 54 3d 07 b2 cf 3d
       0.032569613 0.038555074 0.051980343 0.10141378

encoder.layers.0.conv.linear.weight f4 [16, 16]
000000 ea 8e 5c be 2c 2c 27 be b9 17 04 bd 15 8a 0f be
       -0.21538892 -0.16325444 -0.032249186 -0.14017518
000010 12 a8 3b bc ac f7 80 3d 8d 76 c3 be 6e 7e 2a 3e
       -0.011453645 0.0629724 -0.38176385 0.16649792
000020 e5 5e 5b 3e 29 12 32 3e eb d6 20 be e4 e9 06 3e
       0.21422918 0.1738974 -0.15706985 0.1317516
000030 70 28 c6 be be 92 d2 3e e2 e5 b1 be 8c b2 9a 3e
       -0.38702726 0.4112758 -0.347457 0.30214345
000040 f7 c7 e7 3e d2 d7 f5 3e 1d f4 bd bd 77 9c 6b 3e
       0.4526975 0.4801622 -0.092750765 0.23008905
000050 6f 14 ea 3d f8 e8 78 be b9 c6 30 3e 3a 65 36 be
       0.11429679 -0.2430762 0.17263307 -0.17812052
000060 3f d0 3d 3e da 65 22 3e 6b 9a 44 3d 28 eb 4c 3e
       0.18536471 0.15859166 0.047998827 0.2001158
000070 b8 46 fb 3d 21 e0 5a bc ee 86 bc 3e 0f 74 ff 3c
       0.12269348 -0.013359101 0.36821693 0.03118327
000080 73 34 93 37 02 22 a8 36 17 a4 d6 b6 9d 6a 22 37
       1.754819e-05 5.010749e-06 -6.3967996e-06 9.680775e-06
000090 d2 2f 8f b8 db 54 b1 b5 d0 32 b9 36 ed 87 a8 36
       -6.8276786e-05 -1.3212224e-06 5.519345e-06 5.022614e-06
0000a0 b4 3d 60 b4 14 87 09 b7 19 29 40 b7 7c 46 7e 36
       -2.0884073e-07 -8.197287e-06 -1.1453661e-05 3.7889977e-06
0000b0 44 96 3a 37 a7 9b 4a 35 bc 9d 16 36 a8 cb 67 b6
       1.112145e-05 7.547737e-07 2.2443555e-06 -3.4540226e-06
0000c0 2f 29 5d be 56 6b 75 3d be e3 94 3e aa 1a 40 be
       -0.21597742 0.059916817 0.29080003 -0.18760172
0000d0 d0 ff 57 be a2 0d c9 be 49 63 80 3d 12 7a 09 bf
       -0.21093678 -0.39268214 0.06268937 -0.5370189
0000e0 55 60 17 3e 30 6b d4 3e 2e bb f9 3e 11 e6 2c 3e
       0.14782842 0.41488028 0.4877562 0.16884638
0000f0 d3 92 bb bc 9b a1 fa bd 64 22 26 3e 31 0e 3e 3d
       -0.02289716 -0.12237855 0.16224056 0.046400253
000100 26 26 8b 37 b0 9b bc b6 22 26 d2 36 7e 71 54 b7
       1.6587855e-05 -5.620961e-06 6.262927e-06 -1.2662609e-05
000110 be 1f 34 37 0a e7 c8 34 4a d2 03 b7 ed 30 d6 b6
       1.0736227e-05 3.7421006e-07 -7.85717e-06 -6.3833927e-06
000120 2f bd df 35 60 4b 21 37 6a 33 49 37 1d c9 29 b6
       1.6669854e-06 9.613897e-06 1.1992504e-05 -2.5300026e-06
000130 f9 18 40 b7 6c 8d 90 35 15 c4 4a b6 8d c2 cb 36
       -1.1449906e-05 1.0769995e-06 -3.021448e-06 6.07252e-06
000140 1d ba e3 3d 38 1c 54 3e d4 b2 17 be 78 06 d9 3d
       0.11119483 0.2071389 -0.14814311 0.10596937
000150 21 b7 ec 3c 18 33 02 be e6 b7 2a be 44 f2 97 3c
       0.028895916 -0.12714803 -0.16671714 0.018548138
000160 57 e7 ce 3e 85 e7 e6 3e 52 d3 82 bd ba c6 9d 3e
       0.40410873 0.4509851 -0.063879624 0.3081568
000170 e3 55 79 be a3 bb ad 3e 12 98 e6 bc 9c d9 d3 3e
       -0.2434917 0.33932218 -0.028148685 0.4137696
000180 03 c8 41 bd 8d f4 ec bb 41 1c c3 bc b6 5d e7 3c
       -0.047309887 -0.007231301 -0.023817183 0.028242927
000190 ed de 1c 3e 32 2a fd 3b 11 0b 59 3b 89 58 2c 3c
       0.15319414 0.0077259773 0.0033118168 0.010519155
0001a0 15 96 80 bc de c6 9e bb 89 48 b1 3c 42 e2 15 3d
       -0.015696565 -0.004845484 0.021641033 0.03659273
0001b0 67 ff 0b bc 69 aa a0 bc 3b 66 54 ba 20 93 5a bc
       -0.008544779 -0.019612508 -0.0008102392 -0.013340741
0001c0 fd 51 ca be 67 ba d1 bd 6c e3 28 3e 80 81 8d be
       -0.39515677 -0.102406316 0.16493005 -0.27637863
0001d0 d2 27 50 be 55 2a 41 be 0c 56 a1 be 83 f7 09 be
       -0.2032769 -0.18863805 -0.3151096 -0.13473324
0001e0 89 56 85 3e 89 b9 b0 3e f1 f8 ec 3d 39 77 23 3e
       0.26042584 0.34516552 0.11570919 0.15963449
0001f0 b0 71 89 be dc d6 20 3e a5 9a 42 be e7 83 87 3e
       -0.2684455 0.15706962 -0.19004305 0.2646782
000200 f0 98 23 3d 1e a2 44 3e 4f 73 a8 3e 82 e2 3c be
       0.039940774 0.19202468 0.32900473 -0.18445781
000210 3d 92 82 bd d4 29 f7 be 80 d8 10 bd 77 6f d5 be
       -0.06375549 -0.482741 -0.03536272 -0.41686603
000220 0b e9 46 3e 40 37 53 3e 8e 2a aa 3e 77 99 66 3e
       0.19424836 0.20626545 0.33235592 0.2251948
000230 60 70 2d 3d 39 c1 75 be a1 88 85 3e 9d 52 50 bd
       0.042343497 -0.2399949 0.26080802 -0.050860036
000240 8a d2 25 a0 41 7a c0 1d bd ec 1d 9f 3a 39 7a 1f
       -1.4045705e-19 5.0948384e-21 -3.344187e-20 5.2986896e-20
000250 3f d8 8a 20 3c 19 03 1f 37 59 1f 9d f9 9b 81 9f
       2.352121e-19 2.7761202e-20 -2.1089598e-21 -5.489166e-20
000260 3d 1c 4f 20 ce 11 05 20 a9 e8 09 21 22 59 64 1e
       1.7542925e-19 1.1271429e-19 4.672533e-19 1.2088652e-20
000270 9a 81 84 1e 4d 52 31 9f a4 57 d4 9d fb dc a0 9f
       1.4029646e-20 -3.7549286e-20 -5.620655e-21 -6.812822e-20
000280 bf 7a 1d 3e f8 62 a0 3d 1e c3 de be fe 63 96 3e
       0.15378855 0.07831377 -0.43508238 0.29373163
000290 73 52 83 3e a0 03 57 3e 87 43 8a bc ac 94 85 3e
       0.2564884 0.20997477 -0.016877903 0.2608999
0002a0 88 cf c6 3d f4 d6 ac 3d 52 c3 ae be f6 48 b3 3d
       0.09707552 0.084394366 -0.34133393 0.087541506
0002b0 c4 22 31 be 56 db eb 3e db c4 22 be 9c 1a 99 3e
       -0.17298418 0.46065778 -0.15895407 0.29903114
0002c0 80 9c 93 b7 18 df b4 b6 c5 06 d2 36 53 fb 23 b7
       -1.7596642e-05 -5.3903896e-06 6.259276e-06 -9.774073e-06
0002d0 43 df 8c 38 75 62 30 35 b5 e3 d6 b6 ca f0 6b b6
       6.717306e-05 6.5708383e-07 -6.4042056e-06 -3.5157886e-06
0002e0 21 a7 4c b5 46 84 a7 34 55 2d 1a 37 ba 43 08 b6
       -7.6239127e-07 3.1202416e-07 9.18967e-06 -2.0305001e-06
0002f0 13 8d 30 b7 49 cb 6b b5 07 cb 1b b6 c4 46 2b 36
       -1.0523264e-05 -8.784014e-07 -2.3214977e-06 2.5522177e-06
000300 8c 57 8b be 23 27 60 be 68 1c f2 3d 65 90 7e be
       -0.2721523 -0.2188993 0.11821824 -0.2485977
000310 02 9d 53 be 14 a6 33 3c b6 8d ce be 27 22 c2 3d
       -0.20665362 0.010964889 -0.40342492 0.0947917
000320 d8 e3 23 3e 99 e9 06 3e 64 e8 a1 bd df d1 e4 3d
       0.16004884 0.13175048 -0.07905653 0.11172842
000330 98 30 a0 be c3 83 83 3e 87 cb a5 be 7f 0a 47 3e
       -0.31287074 0.25686464 -0.32381842 0.19437598
000340 b6 1f 65 3e 97 5b b3 3e 40 14 dc bd 43 7f 1a 3e
       0.22375378 0.35030815 -0.1074605 0.15087609
000350 45 44 87 3d 3d 1d 4c be 8d f4 c5 bd 85 ba 04 bd
       0.06604818 -0.19933029 -0.09665785 -0.03240444
000360 1d 0c dd 3e bb 08 e5 3e 1e 5d a4 bd 48 d0 c3 3e
       0.43173304 0.44733223 -0.08025573 0.38244843
000370 3b a1 4d be 7d 52 8d 3e 9d 5a a2 3d b8 bf c9 3e
       -0.20081036 0.27601996 0.07927439 0.39404082
000380 a0 b8 7f 3e ab 2a dc 3d 5a 7e f1 be 47 57 bd 3e
       0.24972773 0.10750326 -0.4716671 0.3698065
000390 10 07 6c 3e 54 35 7a 3e 46 ad 3e 3e 8c d4 64 3e
       0.23049569 0.24434406 0.18620786 0.22346705
0003a0 8d 6e 44 bd eb b1 ec bc c4 58 99 be 98 ae 46 bd
       -0.047956992 -0.028893432 -0.29950535 -0.04850635
0003b0 3f f5 ee 3c 1f cc 8d 3e 9d 01 05 3c 96 a4 ed 3d
       0.029169677 0.27694795 0.00811806 0.11603658
0003c0 44 17 b9 3e 0c 6f c3 3e 49 77 c0 bc c7 2a 3b 3e
       0.36150563 0.3817066 -0.02349438 0.18278037
0003d0 85 5d 76 3e 2a ef 8e be 89 51 29 3e 4a 69 85 be
       0.24059112 -0.27916843 0.1653501 -0.26056892
0003e0 f7 d1 56 3e ad 7f a6 3e 76 ac eb 3d 54 4f 54 3e
       0.20978533 0.32519284 0.11507504 0.20733386
0003f0 e4 08 a8 3d bb fb 5e bb 33 0d a3 3e ae f9 15 3e
       0.08204821 -0.0034024555 0.31846008 0.14646026

encoder.layers.0.conv.linear.bias f4 [16]
000000 73 03 d1 3d b4 9d 41 3d 42 e0 6a 3a 1a 25 ca bd
       0.10205736 0.047269538 0.00089598086 -0.09870358
000010 7c 23 9f ba 7d d5 77 3d ea 4b 28 be 6e 64 be bc
       -0.0012141312 0.060506333 -0.16435209 -0.023241248
000020 20 41 ab 3d c5 76 82 20 56 ef 1d 3e 25 96 64 ba
       0.08362031 2.2101452e-19 0.1542333 -0.0008719883
000030 e9 98 f4 3c c3 2c 9c 3d d8 e4 03 3d c1 b2 a3 3d
       0.02985807 0.07625725 0.032200664 0.07993079

encoder.layers.0.conv_e.weight f4 [1433, 16]
000000 95 50 e5 27 ce 65 10 a7 59 7c aa 87 1f dd fb 07
       6.3647635e-15 -2.0039203e-15 -2.5651842e-34 3.7896246e-34
000010 bd 80 8b 07 46 2e 93 08 54 a2 fa 07 85 c2 e5 a3
       2.099006e-34 8.8581195e-34 3.7711227e-34 -2.4910612e-17
000020 95 d0 22 07 e1 db a5 08 5b 56 34 08 a2 dc 7e 88
       1.2248822e-34 9.98227e-34 5.426829e-34 -7.6694697e-34
000030 60 d1 0b 88 a4 e5 ba 3c 89 e8 0f 93 9d 2c 93 b8
       -4.207491e-34 0.02281458 -1.8163786e-27 -7.017816e-05
000040 4c 1c 39 29 e8 ac e2 29 de 1a a1 08 07 3f 4b 88
       4.1102796e-14 1.00664106e-13 9.6961515e-34 -6.116218e-34
000050 0a 88 6b 88 55 d7 be 08 7c 05 d4 08 2a 02 c1 23
       -7.0877653e-34 1.1485833e-33 1.2760575e-33 2.0926018e-17
000060 c8 ae 69 08 11 d1 ac 88 ef 3d 80 08 eb 82 7b 08
       7.032134e-34 -1.0401025e-33 7.71828e-34 7.568646e-34
000070 b0 64 5d 08 05 41 3f 3d 81 2f ee 93 9f be 8e 38
       6.6623126e-34 0.046692867 -6.012649e-27 6.8065936e-05
000080 bf 4d f0 a9 4b 0e 39 2b 92 6d d7 88 d6 50 a4 88
       -1.0671628e-13 6.574504e-13 -1.2965602e-33 -9.889395e-34
000090 73 a6 ed 88 cb 83 8e 08 54 a6 18 89 03 d1 a6 a3
       -1.4303051e-33 8.5772985e-34 -1.8374542e-33 -1.8086276e-17
0000a0 8b a6 e3 08 f2 93 29 08 a6 ca ac 08 a3 c8 c9 08
       1.370122e-33 5.1030496e-34 1.0399516e-33 1.2144417e-33
0000b0 07 62 cf 88 75 8a 07 bd c6 0f 9c 94 a7 0d 82 38
       -1.2481405e-33 -0.033091027 -1.5758196e-26 6.201426e-05
0000c0 f1 f6 ad 29 7a ff be a9 9f ce 12 89 1a 27 8b 88
       7.725581e-14 -8.482013e-14 -1.7671264e-33 -8.374951e-34
0000d0 0a 41 87 88 23 03 a1 86 e7 ad 94 88 de 46 67 a3
       -8.140308e-34 -6.056608e-35 -8.94831e-34 -1.2537542e-17
0000e0 86 87 0d 08 8b 19 f1 08 08 7d e3 88 9d c0 d5 87
       4.258995e-34 1.4510665e-33 -1.369146e-33 -3.2161886e-34
0000f0 93 f8 f3 08 40 39 90 3b 44 e8 f0 93 a7 6d dd b7
       1.468347e-33 0.004401356 -6.081355e-27 -2.6396314e-05
000100 ff 7a 8f 2a 6b 20 21 2a 78 04 af 89 b1 04 18 8a
       2.5487248e-13 1.431092e-13 -4.213392e-33 -7.319416e-33
000110 3e 79 10 08 d2 61 7e 89 28 9b bf 08 02 59 c6 24
       4.3475943e-34 -3.0620133e-33 1.1531871e-33 8.60196e-17
000120 d4 73 d2 88 96 38 9f 07 0d dc dd 88 67 ac d9 89
       -1.2666146e-33 2.395692e-34 -1.3352687e-33 -5.2402976e-33
000130 35 8e c2 09 69 54 83 3e b4 a9 73 14 13 89 a3 b6
       4.6837532e-33 0.25650337 1.2301833e-26 -4.873736e-06
000140 52 e8 7a a8 53 61 17 a8 3a 42 7d 08 d3 1e 3c 88
       -1.3928164e-14 -8.403288e-15 7.6212267e-34 -5.6610426e-34
000150 6b 35 2b 06 2e 4e 30 08 10 e3 69 88 9e 90 22 23
       3.220077e-35 5.3054973e-34 -7.03828e-34 8.8126615e-18
000160 1a 8b 32 88 a8 66 71 08 d5 72 e5 07 ec 96 9d 87
       -5.372844e-34 7.264397e-34 3.4523583e-34 -2.3711438e-34
000170 1c cc a2 08 46 c3 fd 3c c4 7a b7 92 fa 79 0a b8
       9.798006e-34 0.030976903 -1.1579188e-27 -3.3015363e-05
000180 e9 18 34 a9 10 6a 2b aa cb a4 81 08 df 28 34 88
       -3.9989635e-14 -1.5224649e-13 7.802648e-34 -5.4214823e-34
000190 89 89 83 88 d5 42 10 89 db 9d 7c 89 d2 c8 19 24
       -7.91661e-34 -1.7364794e-33 -3.040762e-33 3.3346688e-17
0001a0 bf 48 8b 88 f3 5c 1f 89 ef ff 13 09 5c f6 80 08
       -8.382861e-34 -1.9182633e-33 1.781482e-33 7.761639e-34
0001b0 3d c4 c0 88 9a 8e ba 3d 5e 88 40 13 1f e2 f2 b8
       -1.1601715e-33 0.0910923 2.4301041e-27 -0.000115815776
0001c0 0e a6 99 27 6d 3d a7 2a 7f f9 0b 88 90 4c c6 08
       4.2646068e-15 2.9707782e-13 -4.212207e-34 1.1934691e-33
0001d0 a7 59 6a 06 32 b3 dd 88 61 a2 ba 08 84 30 17 a2
       4.4076375e-35 -1.3343082e-33 1.1232643e-33 -2.049e-18
0001e0 12 f7 c8 88 94 f8 ed 08 0b 56 5b 88 bd a8 08 07
       -1.2095148e-33 1.4322359e-33 -6.600406e-34 1.028109e-34
0001f0 73 d7 a0 88 3b ba 0c 3d 43 3b 9a 12 62 af 81 38
       -9.680302e-34 0.03435729 9.7333755e-28 6.183867e-05
000200 8c f5 67 a9 7e 91 82 aa 6d 20 2d 87 dd 06 cd 08
       -5.1505282e-14 -2.3193594e-13 -1.3024603e-34 1.2339602e-33
000210 0c b1 86 88 ec c4 62 87 1f 27 1c 09 20 9b 3e a4
       -8.106455e-34 -1.706022e-34 1.8796212e-33 -4.133108e-17
000220 ee 19 35 88 9c db b1 88 65 4e b4 86 50 e2 b3 87
       -5.4498186e-34 -1.070443e-33 -6.7823665e-35 -2.706594e-34
000230 19 43 5d 08 19 97 9e 3a 87 cb 95 93 57 23 a1 b8
       6.658364e-34 0.0012099474 -3.781358e-27 -7.683661e-05
000240 b3 9c 5f 29 2e fc 9d 29 bf 20 bb 87 bc d9 ab 87
       4.9651862e-14 7.015947e-14 -2.815588e-34 -2.5857193e-34
000250 db e7 42 07 0e 8a 19 08 4a 94 14 07 5e 1a 45 24
       1.4663074e-34 4.6204045e-34 1.1177861e-34 4.27399e-17
000260 47 6a 03 87 69 c9 5d 08 6c d4 38 88 c7 c5 a0 88
       -9.886577e-35 6.6741525e-34 -5.5620187e-34 -9.676147e-34
000270 e9 0c 79 88 eb e6 35 3b 92 91 2b 93 c5 48 9e 37
       -7.494589e-34 0.0027756046 -2.1655006e-27 1.8868954e-05
000280 20 6e e0 a5 a7 48 33 2a 8c ee 0b 88 21 8a 8d 08
       -3.893243e-16 1.59236e-13 -4.21092e-34 8.518603e-34
000290 49 69 2c 08 3b 62 8b 06 7c 44 74 87 a9 6e 0b 24
       5.188313e-34 5.2430325e-35 -1.8376646e-34 3.0234553e-17
0002a0 61 46 2e 08 60 62 d9 07 b2 0c 63 88 47 6a f1 87
       5.244395e-34 3.270835e-34 -6.832525e-34 -3.6324114e-34
0002b0 00 8e 20 88 8d d1 0a 3d 1a d6 91 13 2a dd 14 b8
       -4.831517e-34 0.03389125 3.6814266e-27 -3.5491925e-05
0002c0 a9 97 e1 26 49 53 de 28 2d d2 95 07 ff 38 58 87
       1.5653619e-15 2.468307e-14 2.2542558e-34 -1.6266784e-34
0002d0 ce 9b a2 87 d5 28 dd 86 97 01 fe 06 8f 9d 2f 24
       -2.4466625e-34 -8.319096e-35 9.5546517e-35 3.8080533e-17
0002e0 ca 89 23 87 ab ae a5 08 fd d8 20 08 ae 71 4a 08
       -1.230325e-34 9.9716405e-34 4.8403317e-34 6.0920794e-34
0002f0 6c 66 76 88 ac 2c e6 ba ba 1a 96 92 57 ce 07 38
       -7.414833e-34 -0.0017560921 -9.472919e-28 3.2378677e-05
000300 32 89 60 a9 b7 c0 32 2a eb 41 66 06 1f c5 69 08
       -4.985699e-14 1.5876437e-13 4.330662e-35 7.03476e-34
000310 42 ec 3b 86 09 45 1c 88 16 4e bb 08 6e b8 ad a3
       -3.5344366e-35 -4.7025693e-34 1.1273011e-33 -1.8834807e-17
000320 de 3d 50 88 65 f9 42 88 72 45 4f 08 90 3e f4 08
       -6.266545e-34 -5.8672913e-34 6.237343e-34 1.4699924e-33
000330 42 da 59 08 e9 d5 78 bd 24 13 e5 13 20 11 8b 36
       6.5557623e-34 -0.060750876 5.78266e-27 4.1445164e-06
000340 a7 96 bc 28 6a d8 c5 28 43 4a 4f 08 f1 71 8d 08
       2.0937528e-14 2.1965248e-14 6.237909e-34 8.512916e-34
000350 e8 4c 43 88 a5 7b 01 88 b8 e7 c5 87 4d 2f f5 23
       -5.877108e-34 -3.896487e-34 -2.9777458e-34 2.6582986e-17
000360 12 a1 04 88 d5 9c 63 08 ae 4c b6 88 68 b2 cb 07
       -3.9911642e-34 6.8494683e-34 -1.0971754e-33 3.0648903e-34
000370 fd 9d a8 07 90 d7 0c bd 5e 63 0f 94 e2 1a a1 38
       2.5370688e-34 -0.034385264 -7.239252e-27 7.6820856e-05
000380 44 2a 71 a7 f0 6e d8 29 8c 52 5c 06 f4 44 17 08
       -3.346838e-15 9.6115715e-14 4.1438047e-35 4.5520964e-34
000390 7c 84 78 08 1d 48 12 88 ae 1b 8b 08 03 8b 1c 24
       7.478552e-34 -4.4020046e-34 8.372266e-34 3.3944855e-17
0003a0 8a 2d a8 87 65 9d ae 88 1b 9c 9e 08 19 62 a0 08
       -2.5304596e-34 -1.0509247e-33 9.545979e-34 9.652712e-34
0003b0 d4 ff 8e 88 5e 4b b0 ba 87 0b 07 93 12 5b 0b 38
       -8.606459e-34 -0.0013450196 -1.7045079e-27 3.3225e-05
0003c0 18 03 88 28 4a 2e 1a 2a 3d 22 43 88 3e fd 0f 08
       1.5100375e-14 1.3694007e-13 -5.8720925e-34 4.333018e-34
0003d0 4c fc fd 87 59 74 57 07 61 8a 58 87 6a a7 3f 24
       -3.8215496e-34 1.6208994e-34 -1.62907e-34 4.1558328e-17
0003e0 86 82 da 07 5b 76 a7 08 48 b9 8e 87 1f 6b 9d 08
       3.287771e-34 1.0078772e-33 -2.1474684e-34 9.474278e-34
0003f0 cb 2d 78 84 b5 65 6a ba 37 ee 15 92 24 f3 be b5
       -2.9173287e-36 -0.0008941547 -4.7309732e-28 -1.4226866e-06

encoder.layers.0.conv_e.bias f4 [16]
000000 72 59 6d bd ae e1 a8 bb b5 b4 03 bc 76 dd 9f bc
       -0.05794663 -0.0051538562 -0.008038689 -0.01951478
000010 55 42 12 bc 4a c5 a5 bc c3 1e fb bc e8 bb c0 bb
       -0.008926948 -0.020235676 -0.030654317 -0.005881775
000020 13 8f 7e bc 06 db a1 bc f4 c5 76 bc 5e c9 d0 bc
       -0.015537041 -0.019757759 -0.015061844 -0.025486644
000030 2c f5 80 bc c8 0d 38 3d 90 7e 8e b9 41 05 6d be
       -0.015741907 0.044935018 -0.00027178647 -0.23146535

encoder.layers.1.hy_linear.bias f4 [16]
000000 c7 5b 3d bf be 57 16 3f e1 03 47 3e 9f 09 91 3c
       -0.73968166 0.58727634 0.19435073 0.017704783
000010 f7 d4 f3 3d be 67 34 3e 19 2c 86 3d 84 de 3d bf
       0.11905854 0.176177 0.0655138 -0.74167657
000020 72 bb 82 3e e2 6a 91 bf 57 b7 5b 3f b3 7a 70 bd
       0.25533634 -1.1360743 0.8582663 -0.058710765
000030 c0 ba 0a bf 0d c3 8c be 9e e6 b6 3d 40 b8 4b 3e
       -0.5419121 -0.27492562 0.089307055 0.19894505

encoder.layers.1.hy_linear.weight f4 [16, 16]
000000 db 50 5a 3c ca 48 41 3e 6a 72 dc 13 79 78 7e 3e
       0.0133249415 0.18875423 5.564863e-27 0.24850644
000010 9c dd 87 0b ea 62 40 3e 98 7e ba bd d0 a1 56 3e
       5.233355e-32 0.18787733 -0.09106177 0.20960164
000020 5c a6 24 3e d3 22 64 87 33 b2 48 bd c8 4a 40 17
       0.16079086 -1.7163047e-34 -0.04899807 6.2132933e-25
000030 62 30 90 bd ab fb 30 3e 02 a2 27 be 24 55 83 3e
       -0.07040478 0.17283504 -0.16370395 0.25650895
000040 fc ae 8a 3e 5f 21 a6 3d 56 34 1f 1b 9e e0 57 be
       0.27086627 0.08111834 1.3169082e-22 -0.21081778
000050 b3 d2 c3 0a 62 c0 1b bc 0d 6a b5 bc b1 66 c7 bd
       1.8857073e-32 -0.009506317 -0.022145296 -0.09736384
000060 2c d6 8c be 8e 51 4a 0b e9 9d 97 3e 78 be 2b 9b
       -0.2750715 3.896514e-32 0.29612663 -1.4206332e-22
000070 99 a2 d1 3d 67 34 bf 3c e8 ff 86 3e d3 6b 15 be
       0.10236091 0.023340417 0.26367116 -0.14591913
000080 08 a2 ae 3e 4e 84 00 be 05 9f e4 99 29 01 88 3d
       0.34107995 -0.1255047 -2.3638875e-23 0.06640846
000090 89 43 d0 09 b0 1a 4d 3d 57 3a 97 3c 7c af a2 3e
       5.013769e-33 0.05007428 0.018460436 0.3177451
0000a0 29 6b f3 3d 98 7e 11 08 54 19 32 3c b8 cb 8c 14
       0.118856736 4.378316e-34 0.0108702965 1.421674e-26
0000b0 96 47 9d 3e f9 8d 9c 3d e0 35 14 be 7f 74 12 be
       0.30718678 0.07644267 -0.14473677 -0.14302252
0000c0 57 18 89 be 4b e5 70 3e 06 13 7d 8f 54 0e 62 3e
       -0.26776382 0.23524968 -1.2477527e-29 0.22075778
0000d0 d1 7d 96 09 33 dd 3e be fa 00 88 3d d9 c3 41 be
       3.6229504e-33 -0.18639068 0.06640811 -0.18922366
0000e0 dc 87 5b 3e 92 bf 28 0a cf 64 74 be 24 22 56 8f
       0.21438545 8.124936e-33 -0.2386658 -1.055759e-29
0000f0 cd 36 7b be a3 e4 11 be 8d c6 80 be 9c 97 1f 3e
       -0.24532624 -0.14247374 -0.25151482 0.15585178
000100 85 6b 2d be 89 3d be 3e 10 23 81 1c 85 90 a3 bd
       -0.16935547 0.37156323 8.545567e-22 -0.07986549
000110 34 0b 56 0a 2e 50 66 3d 66 82 df bc 8b 07 3f be
       1.0305832e-32 0.05622881 -0.027283859 -0.18655221
000120 80 c2 2f 3e 2a 47 07 89 e3 6e 2d 3d 20 d9 12 17
       0.1716404 -1.6283495e-33 0.042342078 4.7449195e-25
000130 b1 7c 35 bd bf 3a 71 3e 56 a1 23 3e 63 e9 26 3e
       -0.044308368 0.23557566 0.15979514 0.16299967
000140 bc 14 a1 3d 83 fd 3f be 8d d8 eb 2c b4 bf 2f 3e
       0.07865283 -0.18749051 6.7031437e-12 0.17162973
000150 8d 9c b3 0b a4 81 22 be 81 e6 bc 3c 21 04 c7 3d
       6.9183843e-32 -0.15869766 0.023059132 0.097175844
000160 46 50 88 3d 84 00 03 88 a0 74 7d be 94 c9 00 8c
       0.06655936 -3.9421985e-34 -0.2475152 -9.921422e-32
000170 81 36 45 3e e2 b2 44 be f6 93 28 be 11 b2 3e be
       0.19259073 -0.19208863 -0.16462693 -0.18622614
000180 de 3b 38 3e bd 58 97 be 65 85 b9 24 a2 d1 15 3e
       0.17991588 -0.2955989 8.045694e-17 0.1463075
000190 0a ae 29 09 f3 05 c8 3c af f2 c3 bd fa 4d 7d 3e
       2.0424468e-33 0.0244169 -0.095677726 0.24736777
0001a0 3d c7 f2 3c 7f d5 8f 8a 65 22 1d be 46 44 1d 15
       0.02963602 -1.3850707e-32 -0.15345152 3.1759756e-26
0001b0 0d f6 78 3e 3e 2f 54 bd 7c 9c 5d be 9e 0a 20 be
       0.24312611 -0.051802866 -0.21641725 -0.1562905
0001c0 db 53 b5 bc 15 30 4c be 45 8b 4e 95 ab 3e be be
       -0.022134712 -0.19940217 -4.1711233e-26 -0.37157187
0001d0 ed 79 45 8a c9 05 ec bd f1 78 3d 3e dd 6b 5c bd
       -9.508137e-33 -0.11524541 0.18503167 -0.053813804
0001e0 b1 0f 8d be ce e3 8c 0a 4c 57 b0 3d d1 1e 70 16
       -0.27551034 1.35672e-32 0.086104006 1.939677e-25
0001f0 32 a0 3c bc 0f 9a e3 bd 24 b0 c7 3d 11 57 ae be
       -0.011512803 -0.11113369 0.09750393 -0.340508
000200 ff 63 b4 be ef f7 00 3e 78 3f b0 98 a9 62 fb 3d
       -0.3523254 0.12594579 -4.555902e-24 0.12274677
000210 f8 2c 08 8a b4 06 a7 be f3 ae 82 3d 4d ef 4f be
       -6.5566195e-33 -0.32622302 0.06381025 -0.2030613
000220 db 70 f3 3d 36 b6 4f 8b e8 5c 47 be a1 b1 35 1b
       0.1188676 -4.000383e-32 -0.19469035 1.5029364e-22
000230 64 12 86 be 6d 53 49 be bf 52 89 bd 92 15 28 3d
       -0.26185906 -0.1966073 -0.06705236 0.041036196
000240 de 8e b3 3b 0d 4a 56 be 16 c6 cc 0f c4 d2 94 be
       0.0054796776 -0.20926686 2.0192253e-29 -0.2906705
000250 0a 49 17 0a 0d da bb 3b a8 fb 64 3d b0 57 cc bd
       7.284123e-33 0.005732781 0.05590406 -0.099776626
000260 08 2e db be 18 5b c0 89 cd 89 14 3e 3d 41 f7 0c
       -0.42808557 -4.6307983e-33 0.14505692 3.809564e-31
000270 46 55 0e be ec b0 37 be 96 ad cf 3d f9 e8 0a be
       -0.13899717 -0.17938584 0.10140531 -0.13565435
000280 c1 7f b0 3d 17 f0 6a be 7d 6f 10 a9 b4 92 54 be
       0.08618117 -0.2294315 -3.2071124e-14 -0.20759088
000290 b0 a4 ba 0a 31 de 98 be d9 11 31 3e e2 bb d0 bc
       1.7973097e-32 -0.2985702 0.17291965 -0.025480215
0002a0 13 b4 0b bd c5 84 61 0a a5 79 c7 bd 86 2a 08 2c
       -0.03410728 1.0858327e-32 -0.09739999 1.9350368e-12
0002b0 da 0a 05 3e 5d 19 44 be 63 84 da bc 7b ae 95 be
       0.12992421 -0.191503 -0.026674455 -0.2923468
0002c0 14 aa 4d 3d c9 ee 4b 3e e8 eb 6b 1c e7 a2 2f be
       0.050211027 0.19915308 7.805988e-22 -0.17151986
0002d0 07 1f aa 8a a5 63 37 3e 25 a0 ca bd ec 05 3f be
       -1.6382076e-32 0.17909105 -0.098938264 -0.18654603
0002e0 1f 0d cc bd 74 45 88 09 25 a7 5c 3e a1 e4 cb 13
       -0.0996344 3.2806122e-33 0.21548136 5.146985e-27
0002f0 93 89 1c be e3 47 3a 3e 86 a2 70 3e cc 9b 4f 3e
       -0.15286855 0.18191485 0.23499498 0.20274276
000300 a5 a4 fc bc 8a 79 3d be 4a 78 97 13 1b 12 9b 3e
       -0.030840227 -0.18503395 3.8236373e-27 0.3028725
000310 37 c7 9d 8a ab 8a 18 be 7f 5f d1 3a 0a 48 7f 3e
       -1.5193486e-32 -0.14896648 0.0015973895 0.24929824
000320 bc f1 05 3e cf ea 3c 0b b3 cd 95 be 59 59 11 10
       0.13080496 3.6384133e-32 -0.292585 2.866504e-29
000330 80 d6 af 3d 84 99 41 be c4 32 ab be 26 54 d3 bd
       0.085858345 -0.18906218 -0.3343717 -0.103187844
000340 92 e9 81 3e 14 61 a1 bb 33 dc b6 9e d6 81 24 3e
       0.25373513 -0.0049249027 -1.9361072e-20 0.16065153
000350 e7 36 30 0a 58 c9 61 3e 8c 8c 2c bc 6f 54 82 3e
       8.484418e-33 0.22049463 -0.010531556 0.25455043
000360 af 26 48 3e 47 01 42 0a 79 07 cc bc 08 07 4c 2a
       0.19546007 9.3410005e-33 -0.024905907 1.8121279e-13
000370 43 d6 57 3e ae 40 4a 3e dd 50 01 be d7 d8 bc 3d
       0.21077828 0.19751236 -0.12628503 0.092210464
000380 17 6b 2a 3e 3b 22 a7 3d 0b ea ed 24 00 86 98 3d
       0.16642414 0.08160826 1.0317885e-16 0.074474335
000390 5a 1a 01 8a 85 6a b1 3e 2f 71 85 be b9 18 13 3e
       -6.21608e-33 0.3465158 -0.26062915 0.143649
0003a0 b2 e1 12 3e e8 73 ba 08 34 b2 5b 3e 32 91 83 a9
       0.14343908 1.1221717e-33 0.21454698 -5.842756e-14
0003b0 eb 82 24 3d 07 83 a6 3e 97 8f b5 3d 19 20 80 3e
       0.040163916 0.3252184 0.08865278 0.2502449
0003c0 7a ed ad 3e aa 45 b6 bd 4e 54 d8 94 c4 ae 47 be
       0.33970243 -0.08900006 -2.1843679e-26 -0.19500262
0003d0 ac 35 ea 87 b9 88 39 3e 82 c3 a4 ba bb da d5 3d
       -3.5239952e-34 0.18118562 -0.0012570473 0.1044211
0003e0 03 07 6d be 9e 45 ac 0a 91 1a 8e 3e ad 35 1f 18
       -0.23147206 1.6589185e-32 0.27754644 2.0577368e-24
0003f0 a8 0a 98 3e 5d 78 b3 3d c6 66 fe 3d 20 ea 3e be
       0.2969563 0.08763192 0.12421946 -0.18643999

encoder.layers.1.conv.att f4 [1, 1, 32]
000000 e0 53 30 bc ba 21 04 3c cf 47 24 3c 15 60 f7 bc
       -0.010762185 0.008064682 0.010026886 -0.030197183
000010 b6 8e 10 ba b3 4a 32 3c a7 0d 0e bb 10 ec 33 bd
       -0.00055144296 0.0108820675 -0.0021675618 -0.0439263
000020 89 fd d5 3a c6 ca 9a bc da b1 af bc 1e 84 48 3c
       0.001632617 -0.018895518 -0.02144711 0.01223853
000030 ab 64 10 3d 6a e5 05 bc 19 96 e8 bc 51 cb 0d bc
       0.035252254 -0.008172372 -0.028391885 -0.008654431
000040 f7 41 a2 bb 51 92 08 be 20 f3 33 bd 55 a5 58 bd
       -0.0049517113 -0.13337065 -0.043933034 -0.052892048
000050 85 83 e2 bb ee d3 04 be 08 6c d5 bd 06 e9 91 3e
       -0.006912651 -0.1297147 -0.10420996 0.28498095
000060 f3 1c 7a bd 04 0c b1 3e 9c 82 ea 3d c8 fa 6d bd
       -0.061062764 0.3457948 0.11450693 -0.05810049
000070 20 59 33 be 39 4b 54 3e 91 e3 28 3d 55 1f fb 3d
       -0.17514467 0.2073182 0.04123265 0.122618355

encoder.layers.1.conv.bias f4 [16]
000000 12 c4 94 3e 2c 68 7c bf 97 22 ad 3d 7a bb ab 3d
       0.2905584 -0.98596454 0.08453863 0.08385368
000010 50 4f b2 bc b5 22 7b bf 0e 92 86 3e b7 cb 93 3d
       -0.021766335 -0.98099834 0.26283306 0.0721659
000020 15 7e 0d 3d f8 e7 e9 3d 5d bb c9 3d 52 c3 ad 3d
       0.03454407 0.11421198 0.0985019 0.0848452
000030 be e5 bd 3d 3a 6c 9c 3d 74 c0 91 3d b7 1f 8d 3e
       0.092723355 0.0763783 0.07116786 0.2756326

encoder.layers.1.conv.linear.weight f4 [16, 16]
000000 d9 41 0e 3d ec 30 7b 3e d5 8b 60 3e d4 fa 3a bc
       0.034730766 0.24530381 0.21928342 -0.011412341
000010 aa 91 36 3e ec ae c0 bd 67 00 46 bd 4e 50 bd bd
       0.17829004 -0.09408364 -0.048340227 -0.092438325
000020 f4 db fa bd 07 88 9e be 6c 86 00 3d cc 42 70 3c
       -0.12248984 -0.30963156 0.031378195 0.014664363
000030 2d 7a 70 be b6 85 6e 3e e2 80 1f 3e bd 17 ab 3d
       -0.23484106 0.23293194 0.15576509 0.08354137
000040 fe b6 45 3e 35 21 ca be 58 6e 9f be 4a 9a 8f 3e
       0.19308087 -0.3947846 -0.31138873 0.280474
000050 8b 7b 6e be 98 7f 11 3d 2c 1d 19 be d1 1d a8 3e
       -0.23289315 0.035522074 -0.14952534 0.32835248
000060 3c 3b 68 3e 31 2b 03 3f 22 d6 98 be e8 a9 af bd
       0.22678846 0.5123778 -0.2985087 -0.08577329
000070 e8 42 ab 3e 68 27 1b be 41 f0 c0 be ba 57 cc be
       0.33449483 -0.15151751 -0.376833 -0.3991068
000080 fd 77 71 3d 91 1a 67 be ac 65 2d 3e bf 26 16 3e
       0.05895232 -0.22568728 0.16933316 0.14663218
000090 a0 d6 2d be 39 46 9f 3e 5f 71 4c 3e a2 5f 1d be
       -0.16976404 0.31108263 0.19965123 -0.15368512
0000a0 13 08 c8 3d 02 aa 98 be cb 76 5e 3e 1c 5a 97 be
       0.09767165 -0.29817206 0.21725003 -0.29560935
0000b0 11 7f a6 3e e8 05 fa 3d 26 bf 4b bd 0e 23 0c be
       0.3251882 0.12208158 -0.04974284 -0.13685247
0000c0 3d f4 81 bd be c8 a6 3d 56 ed 63 be 91 6c 39 3e
       -0.06345413 0.08143757 -0.22258505 0.18107821
0000d0 84 12 d0 3d c8 32 ef bd 74 3d 74 be b3 0e 47 be
       0.101597816 -0.11679608 -0.23851568 -0.19439201
0000e0 18 f8 22 3e 78 ed f7 bc 74 d4 cb bd b9 6c 3a 3e
       0.15914953 -0.030264601 -0.099526316 0.18205537
0000f0 cf e4 46 be cf 6c 60 be 7f 04 4d bb f7 78 fa bd
       -0.19423221 -0.21916507 -0.0031283197 -0.122301035
000100 9b e4 4d 3b 15 d8 cb bc 30 8e 66 bc 77 d6 9b 3b
       0.0031416777 -0.02488331 -0.014071986 0.004755791
000110 45 5d be bb 91 09 e4 bb 1a 64 e7 bb e2 ee 1c 3c
       -0.0058094584 -0.006959148 -0.0070614936 0.0095784385
000120 72 f3 d4 3c 1c f1 87 3c 64 37 ba bb 41 6d 0f bb
       0.02599499 0.016594462 -0.0056828726 -0.0021885189
000130 53 f6 e4 3b 69 77 bf bc 9b 1c 91 bc 7d 68 9a bc
       0.006987372 -0.023372369 -0.017713835 -0.018848652
000140 4a 84 3f 3e cc 2e c3 be ec a9 96 be 32 e6 89 3e
       0.18702808 -0.3812164 -0.29426515 0.26933438
000150 06 40 68 be a1 ac 16 3d 7a 5e 15 be 11 3b a3 3e
       -0.22680673 0.036785726 -0.14586821 0.31881002
000160 70 b3 59 3e a6 e3 fc 3e 96 b8 90 be c9 35 ae bd
       0.21259856 0.49392432 -0.28265828 -0.085063525
000170 fb d4 a7 3e 43 97 0b be 3d 95 b0 be 34 bd c2 be
       0.3277968 -0.1363192 -0.3448886 -0.38034976
000180 1b d4 88 3d a6 bd cc bb b7 88 fb 3d 39 d7 c6 3c
       0.06681081 -0.006248194 0.12281936 0.024272548
000190 21 6c 30 3e 14 ff 86 bd 1d b4 c3 bd 08 a5 8d be
       0.17228748 -0.06591621 -0.09555838 -0.2766497
0001a0 b8 e7 6b bd f0 84 86 be 49 e8 2a bd 78 8a 4a 3c
       -0.05759403 -0.26273298 -0.04172543 0.012362115
0001b0 d0 25 02 be dc 1a 80 3d 48 35 87 3e e9 23 ab 3d
       -0.12709737 0.06255123 0.26407838 0.08356459
0001c0 da c8 c8 be 1d da 00 3e 6f 93 53 bd 74 6d 48 bd
       -0.39215738 0.12583204 -0.051654276 -0.048932508
0001d0 89 22 c6 bb 77 76 d2 3d f4 24 97 bd 4e 29 43 3e
       -0.0060465974 0.102765016 -0.07380095 0.19058725
0001e0 83 c7 0e 3e d2 f1 d7 bb 4b 56 aa 3e ee 27 02 3c
       0.13943295 -0.0065901065 0.3326896 0.00794409
0001f0 f2 dc eb bd 73 02 87 be f9 e4 58 be 23 33 be 3c
       -0.11516751 -0.26369056 -0.21181096 0.023217743
000200 8c 3a 8c 3d eb 2b 83 bd 0f c4 90 bd 72 09 09 3d
       0.068471044 -0.06404861 -0.07068645 0.033456273
000210 83 3f 17 3d bb 48 b4 bc 63 e3 4f bd 20 51 1b bd
       0.036925804 -0.022007337 -0.050753962 -0.037919164
000220 cb ec a7 3c ff 11 27 bd f3 6a c8 bd f0 d9 97 bc
       0.020498654 -0.040788647 -0.09786024 -0.018536538
000230 04 09 f1 bb 06 69 75 3b 74 ea 28 3d 6c 33 3b 3d
       -0.007355811 0.0037446632 0.041239217 0.045703337
000240 56 dc b5 be 67 a8 c3 3e b4 ff 42 3e b3 ce c2 be
       -0.35519665 0.38214418 0.19042856 -0.38048324
000250 5f cb 40 be 6d 51 ac 3c fc b9 8c 3d 23 31 7c 3e
       -0.1882758 0.02103492 0.06871411 0.24628119
000260 18 db 82 be cf fc f5 3d a7 70 93 3e a4 03 2e bc
       -0.2555778 0.1201111 0.28796884 -0.010620985
000270 32 57 3d be f8 37 6d bd d4 0e 1b 3c e3 7a b9 3e
       -0.18490294 -0.057914704 0.0094639845 0.36226568
000280 e3 ee 6d be 0d e7 78 3e 54 0f 4d be 55 67 86 bd
       -0.2323566 0.24306889 -0.20025378 -0.06562678
000290 b9 af 6b 3d c2 a5 78 be cf f9 83 be 54 bb 3b 3d
       0.05754063 -0.24281982 -0.25776526 0.045832947
0002a0 28 06 ad bc a5 ac 50 3e a1 ab 84 bd f9 c4 74 3e
       -0.0211211 0.20378359 -0.06478048 0.23903264
0002b0 2f ea 99 be 8e e6 81 be 89 4d 5a bc 88 c9 c9 3d
       -0.3006148 -0.25371212 -0.01332415 0.09852892
0002c0 67 28 93 3d b6 5a 3f 3e 2e c7 5c 3d e3 ae 45 be
       0.071854405 0.18686947 0.05390089 -0.19304995
0002d0 b9 10 87 3c d2 31 19 be 70 9b 03 bd 0e 41 99 bd
       0.016487466 -0.14960411 -0.03213066 -0.07483111
0002e0 3d 1a 81 be 84 4b 88 3d 9b d1 f7 bd 77 ad b5 3d
       -0.2521533 0.066550285 -0.12100526 0.088709764
0002f0 8a 53 46 be 18 f7 c7 3d 15 61 98 3e 16 5d ec 3d
       -0.19367805 0.09763926 0.29761568 0.11541192
000300 e0 bd 62 3e 40 40 14 bd 8c aa 68 3e 59 b0 f8 bd
       0.22142744 -0.036194086 0.22721308 -0.12143011
000310 00 42 50 be e7 b9 e3 3c a9 f9 28 3e 57 35 77 be
       -0.20337677 0.027798606 0.16501488 -0.24141441
000320 25 d4 53 be e5 4a 4a bd cb 81 3f be ab 65 6e bd
       -0.20686395 -0.04938783 -0.18701856 -0.058202427
000330 25 e8 2f 3d 56 96 9f 3e 02 65 6e 3e e6 d8 ce 3d
       0.042946 0.31169385 0.23280719 0.10099964
000340 36 97 62 be 1e e8 81 3d 6c 74 60 3e 68 34 d4 bd
       -0.22127995 0.06343101 0.21919411 -0.10361558
000350 84 32 b7 be b8 bf 99 3e ca f2 8e 3e 8f a9 c0 3d
       -0.35780728 0.30029082 0.27919608 0.09407341
000360 15 cc bd bd 56 49 a6 bd 63 2d c5 3e 3c 5c 9a be
       -0.09267441 -0.081194565 0.3851119 -0.30148494
000370 17 e6 23 3e 36 b4 2c 3d 21 22 3f bd fb b9 1e 3e
       0.16005741 0.04216405 -0.046663407 0.15500633
000380 0b a5 13 be 39 ea 32 bd ea ef 21 be d3 64 90 3e
       -0.14418428 -0.043680403 -0.15814176 0.28201923
000390 eb 89 0a 3d 56 ca 02 3c 43 60 e5 bd b8 00 e6 bd
       0.033822935 0.007982811 -0.11200001 -0.11230606
0003a0 e9 b8 92 3e cc b5 c3 bd ed 1f 2b 3e 78 d3 3f 3c
       0.286567 -0.095561594 0.16711397 0.011708133
0003b0 52 ea 67 3d 95 3e 75 be d4 eb 40 be ea 8c 4e be
       0.05661995 -0.23949654 -0.18839961 -0.20170942
0003c0 2a 0e 1f be 40 72 00 3e 1d a2 5e 3e 96 3a 53 be
       -0.15532747 0.12543583 0.21741529 -0.20627818
0003d0 f9 cc a2 3d dd be 55 bd 70 37 86 bd c6 5c bb bd
       0.07949252 -0.052183975 -0.065535426 -0.091485545
0003e0 1b e5 71 be 2b 3e 94 bd 6e f5 59 3e c4 8f 11 3c
       -0.23622553 -0.0723842 0.2128503 0.008884374
0003f0 44 05 6a be fa aa 2e 3d f5 0f 7e 3e 9c ed a1 3e
       -0.22853571 0.042643525 0.24810775 0.31626594

encoder.layers.1.conv.linear.bias f4 [16]
000000 4e e6 0f 3e f2 e4 74 bf 8f d2 65 bd fc 0f 42 3d
       0.14052698 -0.9566184 -0.056109007 0.047378525
000010 ef 90 6d 3d fc 17 60 bf eb 06 3b 3e 42 cf 1a 3e
       0.057999548 -0.875366 0.18264358 0.15118125
000020 14 45 b3 3d 03 f5 79 bd ba 3e c7 3d f0 e2 7c be
       0.0875341 -0.061024677 0.09728761 -0.24695945
000030 0a 03 95 be 4d ef 99 bc 46 f5 85 3e 6c 0e 41 3e
       -0.2910388 -0.018790865 0.2616369 0.18853158

encoder.layers.1.conv_e.weight f4 [16, 16]
000000 84 cc 99 b8 08 05 96 09 5e 71 3a 09 57 37 e7 87
       -7.3337025e-05 3.6115918e-33 2.244224e-33 -3.4789543e-34
000010 f4 07 eb 07 f7 18 1c 89 41 db f2 b0 22 94 96 09
       3.5363544e-34 -1.8789555e-33 -1.7670133e-09 3.625049e-33
000020 57 e2 57 8a 84 2f 7c 29 d7 81 1e 0a 30 8e 67 89
       -1.0394443e-32 5.5996454e-14 7.6318434e-33 -2.787247e-33
000030 ab 4d c7 88 6b 5e de 09 2c a9 07 9c 21 32 84 b9
       -1.19951365e-33 5.3533346e-33 -4.4886403e-22 -0.0002521435
000040 8f 0d 75 ab 97 72 8e 89 3c a2 cb 08 81 cf 0b 09
       -8.70603e-13 -3.4293016e-33 1.2255759e-33 1.6829084e-33
000050 51 68 c7 87 aa 68 28 09 b3 a8 d9 2b bc 38 32 8a
       -3.0003504e-34 2.0271477e-33 1.5465601e-12 -8.581059e-33
000060 8a 22 fb 88 d3 af 60 ac 15 6c 43 09 ed 91 ca 07
       -1.5114633e-33 -3.1929917e-12 2.3523091e-33 3.047935e-34
000070 27 07 66 89 c8 c2 e1 89 ee 33 32 08 c7 b0 14 2c
       -2.7688606e-33 -5.434995e-33 5.362597e-34 2.1130196e-12
000080 fc 31 d1 08 2a 99 7a 99 90 df 1b a2 d5 40 00 09
       1.2590481e-33 -1.2955628e-23 -2.112477e-18 1.5437923e-33
000090 25 31 f6 a7 8f cc 22 2b 7a 8d cc 07 de 19 5e 8d
       -6.8332e-15 5.7837844e-13 3.077766e-34 -6.844017e-31
0000a0 c2 3c 74 8e db 30 da 0c 36 76 a6 35 a1 2a b2 8a
       -3.0104576e-30 3.3617622e-31 1.2402368e-06 -1.7156812e-32
0000b0 66 cd 51 1d ee 56 8f 0a 50 9a 99 09 fa dc 46 90
       2.7767108e-21 1.3803098e-32 3.6978525e-33 -3.921885e-29
0000c0 68 bd 0a 8a 83 d3 2a 97 16 be 44 17 ab 2e f6 88
       -6.680082e-33 -5.519693e-25 6.357094e-25 -1.4816558e-33
0000d0 14 e5 83 9f 71 41 82 21 35 78 61 89 c2 06 26 8c
       -5.5859636e-20 8.826465e-19 -2.713991e-33 -1.2790208e-31
0000e0 74 e6 c5 8c 3b 25 c0 8a 98 e7 24 32 cf ac 08 09
       -3.0491355e-31 -1.8502932e-32 9.598715e-09 1.6451659e-33
0000f0 a3 68 00 96 d2 49 21 8a 93 f2 83 09 e9 da 4c 0f
       -1.0372775e-25 -7.765752e-33 3.176522e-33 1.0100137e-29
000100 f9 2d 21 0a d3 02 c9 97 7f 51 aa 17 78 a4 bc 09
       7.7605145e-33 -1.2990033e-24 1.1006565e-24 4.541402e-33
000110 bb 59 77 9c 70 87 4b 22 3a 13 8c 0a 58 db 37 0c
       -8.184142e-22 2.758333e-18 1.3488742e-32 1.4163814e-31
000120 f9 9f 9f 8e 8e 1a 0a 0b 23 fe 96 30 92 a7 52 89
       -3.9350574e-30 2.659781e-32 1.0986166e-09 -2.5356622e-33
000130 5f 8c 19 97 be ef b9 8a f0 ca b8 89 8b 91 c1 8e
       -4.961414e-25 -1.7905033e-32 -4.448723e-33 -4.7718326e-30
000140 7c f6 d8 06 3e 4d 84 1d ab 0e 59 1f 28 71 86 89
       8.1612346e-35 3.5019976e-21 4.596367e-20 -3.236574e-33
000150 bb 50 3f a5 0e 21 95 ac ce 0d 71 8b 2d b8 12 8e
       -1.6593962e-16 -4.2385045e-12 -4.6425297e-32 -1.8084567e-30
000160 7a 2d e6 90 13 17 fc 0a 61 9a 01 36 29 72 54 08
       -9.078907e-29 2.4275397e-32 1.9312358e-06 6.3930624e-34
000170 1d ea c0 9e 57 82 01 09 dd 7a b6 88 fa 07 bd 92
       -2.0425618e-20 1.5589096e-33 -1.0982612e-33 -1.1929543e-27
000180 34 56 4b 0a d9 c1 9d 99 ef 6b 43 1a 72 52 94 87
       9.7903075e-33 -1.6311714e-23 4.0412243e-23 -2.2317022e-34
000190 0d aa bb 21 d3 8f 89 a4 27 99 09 8a b7 64 4d 8b
       1.2716625e-18 -5.965793e-17 -6.625115e-33 -3.9557333e-32
0001a0 42 b4 a7 0d d5 bd 5b 8c 98 a2 95 33 5b e2 76 88
       1.0335565e-30 -1.6928272e-31 6.967929e-08 -7.429401e-34
0001b0 65 19 73 19 a6 e9 9a 8a 35 4d da 09 ea 75 b6 0f
       1.2567934e-23 -1.491755e-32 5.2554196e-33 1.7992004e-29
0001c0 9d 9d 32 b9 d3 44 9d 88 d4 f6 79 08 f9 b3 fe 09
       -0.00017034118 -9.465274e-34 7.5220857e-34 6.131752e-33
0001d0 9f aa e3 08 41 93 5d 09 4d d3 6a b7 15 fe 3d 97
       1.3702178e-33 2.6671146e-33 -1.3996684e-05 -6.138989e-25
0001e0 b7 b5 24 8a 4a 84 00 32 a5 c0 e8 89 5f d7 d6 89
       -7.9304895e-33 7.48066e-09 -5.603313e-33 -5.172116e-33
0001f0 77 24 b5 08 93 c1 95 08 1d cb a7 a5 a5 c3 12 b9
       1.0902114e-33 9.01312e-34 -2.9107517e-16 -0.00013996528
000200 69 97 f6 8a 07 16 df 97 7a c2 47 1c fc 4c 2d 89
       -2.3745892e-32 -1.4416598e-24 6.609493e-22 -2.0860315e-33
000210 7d d6 2f a1 81 c8 e8 a3 df 84 94 0a 11 c5 8a 0d
       -5.957618e-19 -2.5238407e-17 1.4301862e-32 8.552349e-31
000220 9f e1 3b 0c 18 e6 97 8b c2 c1 1e b3 2d 41 5d 0a
       1.4473851e-31 -5.850929e-32 -3.6963463e-08 1.0653021e-32
000230 25 b8 6d 19 1a 34 7e 89 21 13 f4 89 74 23 11 8f
       1.22898005e-23 -3.0598636e-33 -5.8758852e-33 -7.15588e-30
000240 1b 4f a3 07 87 c4 c3 98 93 af a4 9a e9 66 80 09
       2.4572008e-34 -5.060476e-24 -6.8112466e-23 3.0911655e-33
000250 cc 07 27 21 d3 16 7f 21 6f 16 d2 09 3d e0 14 8e
       5.659212e-19 8.642757e-19 5.0576757e-33 -1.8350375e-30
000260 a2 eb 6d 0f 8b c7 44 8a ed 4f c6 32 0a 33 cd 89
       1.17303834e-29 -9.4745866e-33 2.308658e-08 -4.939995e-33
000270 d6 c8 f2 19 5f 71 fb 8a c5 6d 39 09 4b 2a 52 10
       2.510333e-23 -2.4213066e-32 2.2320178e-33 4.144778e-29
000280 11 1f b4 08 14 1c a1 95 a1 5d 0a 1a 78 a7 af 08
       1.084066e-33 -6.507168e-26 2.8613364e-23 1.0571801e-33
000290 2d 0a 2c 9d 08 ef 91 21 65 bd 1b 0a e3 c1 8a 8a
       -2.2769271e-21 9.888853e-19 7.4986e-33 -1.3361849e-32
0002a0 a9 d6 0d 8e bb e9 83 0a 0d 37 f7 b1 31 cc c8 08
       -1.7482947e-30 1.2702761e-32 -7.1949047e-09 1.2085067e-33
0002b0 ae 71 b5 16 be 1c 12 8a a7 15 45 89 cf e9 a1 0b
       2.931387e-25 -7.03505e-33 -2.3723193e-33 6.236674e-32
0002c0 78 df fe 09 65 07 54 1d ee 88 94 9f 4a 26 09 89
       6.1358425e-33 2.806179e-21 -6.290697e-20 -1.6508779e-33
0002d0 ea 11 97 a4 83 ac 09 29 c9 b0 a4 0a ed b0 59 0e
       -6.551616e-17 3.056974e-14 1.5859125e-32 2.6832502e-30
0002e0 f6 32 85 8f 50 37 98 0c 21 79 3f 34 fa 34 0c 09
       -1.3134442e-29 2.3452598e-31 1.7832328e-07 1.6876796e-33
0002f0 19 69 3c 1a bd 07 08 8b 86 c5 68 88 57 e2 e1 0f
       3.8962386e-23 -2.619847e-32 -7.004715e-34 2.2273896e-29
000300 43 13 e3 09 48 6b 2c a1 6d 0e a4 a1 a6 67 8e 09
       5.4666376e-33 -5.841785e-19 -1.1116891e-18 3.4282727e-33
000310 59 e7 63 aa bc 02 5f 2f 4e 37 a0 0a f4 e1 8b 8f
       -2.0241915e-13 2.0282703e-10 1.5428243e-32 -1.3793492e-29
000320 0f 0f 81 92 1e 9e 1b 0c 59 76 dc 35 52 86 1e 0a
       -8.144757e-28 1.1988347e-31 1.6425721e-06 7.632686e-33
000330 dd 4a 16 1f 5a 26 ef 08 88 65 b5 88 a8 ee 77 93
       3.182566e-20 1.4393306e-33 -1.0917411e-33 -3.129345e-27
000340 74 85 d3 be 84 01 78 91 dc fb 74 1e 73 a6 34 b8
       -0.41312754 -1.9564217e-28 1.2969336e-20 -4.3070362e-05
000350 06 11 65 90 ae 82 b1 93 02 24 be be aa cb fc b7
       -4.51754e-29 -4.480994e-27 -0.37136847 -3.013558e-05
000360 d1 aa a1 38 53 de 54 be 64 88 4c af e3 6a 87 b7
       7.708895e-05 -0.20787935 -1.8602148e-10 -1.6143027e-05
000370 73 d2 59 18 5c 90 73 37 5a d2 99 ba a0 72 d4 be
       2.8152842e-24 1.451754e-05 -0.0011735663 -0.41493702
000380 5d 39 62 31 69 01 e0 0d 49 2f 9d 89 42 cc 9a 08
       3.2919936e-09 1.3805405e-30 -3.7840842e-33 9.316559e-34
000390 95 1a 59 09 35 9c 32 14 cb cc e8 22 eb 39 b6 93
       2.6132924e-33 9.01751e-27 6.310056e-18 -4.600037e-27
0003a0 ac 36 01 08 b3 49 0e 23 af 61 51 89 77 42 cf 08
       3.888379e-34 7.713442e-18 -2.520339e-33 1.2473985e-33
0003b0 f8 b2 5e 07 49 43 53 89 3b 8f 69 94 70 f6 9e 32
       1.6754018e-34 -2.5429838e-33 -1.1791741e-26 1.8505688e-08
0003c0 7f 0d 17 bd 1e c8 b1 89 0e 56 95 09 05 9b 7c 89
       -0.036878105 -4.279939e-33 3.595137e-33 -3.0406286e-33
0003d0 c3 39 92 89 0d 7c a9 87 00 49 8e bc 02 ed 38 07
       -3.520254e-33 -2.5501204e-34 -0.017368793 1.3912272e-34
0003e0 2f 4b ab 09 19 6a c9 bc 3c 4f d9 85 6a 17 3c 0a
       4.1237455e-33 -0.024586724 -2.0435688e-35 9.0562744e-33
0003f0 2d 43 c7 87 29 f8 a7 09 d5 09 6a 87 59 61 3c bd
       -2.9981674e-34 4.0437156e-33 -1.7607093e-34 -0.045991275

encoder.layers.1.conv_e.bias f4 [16]
000000 c7 e5 3e 3d b7 20 f6 af 7d 8b 2b bb d1 fa 3d bb
       0.04660585 -4.4770385e-10 -0.002617567 -0.002898861
000010 4b ac de bb 18 a5 08 b7 10 ce 2c 3d a0 cf 7e bb
       -0.0067954413 -8.144671e-06 0.042188704 -0.0038881078
000020 4f d0 33 bd c3 33 c8 3c 17 3b 3c bb 0f de df bb
       -0.04389983 0.024438744 -0.0028721744 -0.0068318914
000030 e4 04 8c bb a0 58 d3 bc b4 5f 25 bc cc 23 43 3d
       -0.004273044 -0.025799096 -0.010093618 0.04764156
