logs/nc/2020_1_18/6/model.pth (torch_old, 132087 bytes, 13 tensors)

encoder.layers.0.conv.att f4 [1, 1, 32]
00000000: 0ab5 7d3a f6e5 e2b8 8e2e 743c 3b4e a6b6
00000010: f2ea 93b8 78fa ed39 9a1a bab8 b73d 62b9
00000020: ab03 ae34 e2e7 fbb7 4331 b4ba fb8d 9ab9
00000030: 32ed 7938 e811 37b9 f006 073e 8d95 eabc
00000040: 3b5d 803a bd1d 7337 3d1b 983c 12f8 b3b8
00000050: cb66 05b8 ce20 173e 555e 73b9 a028 ad3a
00000060: 2706 90b4 4c2b 4638 4d06 103e 6464 193e
00000070: fdec a636 3492 6cb9 e026 123e 8e06 d4bc
0.0009678161 -0.00010819353 0.014903678 -4.9562927e-06 -7.053268e-05 0.00045390776 -8.874126e-05 -0.0002157603
3.2412694e-07 -3.002951e-05 -0.0013747591 -0.00029478953 5.958713e-05 -0.0001745891 0.1318624 -0.028635764
0.000979341 1.4490853e-05 0.018567676 -8.581592e-05 -3.1805404e-05 0.14758608 -0.00023209427 0.001321096
-2.6826567e-07 4.7247202e-05 0.14064904 0.14979702 4.9747746e-06 -0.00022561179 0.14272642 -0.025882032

encoder.layers.0.conv.bias f4 [16]
00000000: bd9c f0bc 9947 1bba 461a b7bd 33c6 b7bb
00000010: aa13 40bb 93cd a43d 82d2 82ba 7641 d33b
00000020: de25 9ab7 e36e 39b8 eb04 0e3e 6d82 853d
00000030: bd21 32bb 1506 5cbb d220 0e3e d977 5c3e
-0.029371614 -0.00059234496 -0.08940558 -0.005608344 -0.0029308596 0.08047023 -0.0009980949 0.0064470125
-1.8375864e-05 -4.421071e-05 0.13869064 0.06519017 -0.0027180754 -0.003357296 0.13879707 0.21530093

encoder.layers.0.conv.linear.weight f4 [16, 1000]
00000000: a989 ab37 96c6 8f35 9a68 cab4 ca4c b3b6
00000010: 5337 a4b6 50c0 75b7 dd88 3435 a3d9 0d37
00000020: 5e44 2536 8ea3 8736 e14d 5837 d4b9 ffb6
00000030: 1c2e 2235 2b7b 29b7 af01 5537 517f 38b6
00000040: e82a 15b6 ea9d 1837 8322 2e36 e81e b236
00000050: 5550 88b6 2ff8 4e37 41f5 cfb6 2dec 4736
00000060: 970e cfb6 e852 1636 74e8 b135 9d79 2bb6
00000070: 7e2d 18b7 3311 99b5 1b75 a1b6 c994 42b6
00000080: 5cf1 a0b6 b183 3736 6006 3fb7 3e72 09b7
00000090: 143e b837 91ce 5c36 fadc a2b6 d201 07b6
000000a0: 25ad 31b7 e650 b834 2158 2bb7 5e4a 94b5
000000b0: 3457 91b6 ca5f 5637 a46e 44b5 9c36 b733
000000c0: 348d 8e34 6e67 85b7 811e 21b6 1157 0936
000000d0: 1695 4f36 faeb 1435 fe1d 3835 1614 4a36
000000e0: 0521 a536 6539 60b7 25d7 d9b6 0c6f 6036
000000f0: 5898 b736 d964 0737 1162 d6b6 52c5 85b7
00000100: d683 59b7 8f6b 1236 3d16 b7b5 1cad 15b6
00000110: 3b70 2a37 8d3e 0ab6 1ae1 2e37 a956 14b7
00000120: 3e0c b234 2c7f 7a35 9b9d 8736 9ca8 3935
00000130: 224e 51b7 a296 e535 a098 48b6 6ea2 a2b4
00000140: 1e68 8ab6 3127 f4b4 6dc0 5736 9ccb 2f36
00000150: e71e 42b7 87f6 f4b5 883b 85b6 0e04 4db6
00000160: 3983 0db7 d33f d236 4285 ea35 e8ad ca37
00000170: 4deb 3635 91e0 1437 7f6e 5cb7 25cc 43b7
00000180: 7a76 40b6 b1c5 f3b5 25dd 7cb7 a53a 2537
00000190: 9220 1337 4626 1ab6 dc14 d3b5 5d30 f236
000001a0: ad90 e936 6b44 55b6 ae3c b136 ddb4 0fb6
000001b0: 9e32 68b6 550c 44b7 36e2 2eb6 7f5e 3537
000001c0: 7fb8 9c33 a33c 1036 3040 fcb4 9f51 9036
000001d0: d6bf efb6 ab59 a5b4 ea3b b9b6 0ff8 50b6
000001e0: d762 e4b5 e571 a936 a39e c8b6 33ba 32b4
000001f0: 1808 0db5 b972 4336 e9aa 38b6 55df f1b6
00000200: 446b 2b37 d595 16b6 e21d 9135 1f91 ad32
00000210: 4429 75b7 84d1 3ab6 02c7 21b7 d206 03b7
00000220: ff1c 5cb6 e824 70b7 aa75 bf35 d31f b936
00000230: 2ad8 df36 3bda 59b6 1c98 11b6 70dd 7236
00000240: 9570 c4b5 572b 39b5 642a 52b6 5d2a 9634
00000250: 5ee6 2eb6 a2d2 3eb5 f555 95b6 226b 9036
00000260: b40f dcb5 af16 1936 8557 f636 7e75 1bb7
00000270: 21d6 fcb5 1ef6 01b7 7788 e2b6 d9a3 1bb6
00000280: 0d60 02b5 b1f0 ee36 dbd7 16b7 8282 1437
00000290: 48c2 6536 b48c 9d37 e83c a3b2 5386 c9b6
000002a0: df82 b936 a276 3d35 f456 8a36 5eb8 2db6
000002b0: 28d7 dc36 14cb 41b6 49b0 6636 6fdf 5f37
000002c0: 5883 72b6 8d3a bc36 b14d a335 12fb 5737
000002d0: 0529 3837 4984 aeb5 f271 99b7 d436 6bb6
000002e0: 50e2 a335 0bdd 6135 8441 0c36 a943 8f36
000002f0: 05fc c436 4891 4a36 5774 01b7 772e 0ab6
00000300: b82d 27b6 bad2 10b7 6298 9636 6673 c9b5
00000310: 232d 8d36 7df7 25b7 71d2 c6b6 bb66 92b6
00000320: d004 7fb6 0154 14b6 9904 30b7 c776 64b4
00000330: 1843 c2b6 eab9 aeb6 b3ba ff35 1e41 a8b6
00000340: b765 7e36 d652 c2b5 2515 7736 f7bc 37b7
00000350: 8856 7036 24cc 5534 bd73 f936 aa36 8a37
00000360: b2f5 1c38 3e4e ccb6 86d8 6137 ff1e f6b6
00000370: d359 a636 8473 b6b6 aa79 36b5 6328 56b7
00000380: d414 53b5 5933 b235 c6c9 17b4 dc02 bbb6
00000390: 9084 3c31 5036 51b6 33d3 38b7 1a32 cdb6
000003a0: f27a d436 dd0c 95b6 a856 1536 7554 87b6
000003b0: 9a94 0bb7 7150 9b36 39a6 bdb7 449b 8536
000003c0: 7aa5 3237 a706 a0b5 125b f236 c5fd 1a36
000003d0: 623a 7b35 66cd bbb7 11e9 5137 d6e6 b234
000003e0: 09f6 8e36 b960 fa36 327f 3235 7e0c 1a36
000003f0: 809b af36 eb81 abb5 6a27 0ab7 5660 b033
2.0448892e-05 1.0712126e-06 -3.770154e-07 -5.343555e-06 -4.8940215e-06 -1.4647914e-05 6.725439e-07 8.454927e-06
2.462671e-06 4.042354e-06 1.2892736e-05 -7.6212254e-06 6.04168e-07 -1.0101862e-05 1.2696181e-05 -2.7492244e-06
-2.2227705e-06 9.096673e-06 2.594811e-06 5.3084113e-06 -4.0624677e-06 1.2336342e-05 -6.197632e-06 2.9790783e-06
-6.170779e-06 2.24e-06 1.325518e-06 -2.5551774e-06 -9.070498e-06 -1.1404394e-06 -4.811807e-06 -2.8994857e-06
-4.7964695e-06 2.734578e-06 -1.1385971e-05 -8.192435e-06 2.1963417e-05 3.2902792e-06 -4.8537013e-06 -2.0117627e-06
-1.05903355e-05 3.4331532e-07 -1.0212913e-05 -1.1048503e-06 -4.3314885e-06 1.2777697e-05 -7.3176693e-07 8.531535e-08
2.65523e-07 -1.5902999e-05 -2.4008625e-06 2.046527e-06 3.0932183e-06 5.547769e-07 6.8588986e-07 3.0112037e-06
4.921227e-06 -1.3364804e-05 -6.49215e-06 3.3443239e-06 5.47156e-06 8.0701075e-06 -6.3891134e-06 -1.594672e-05
-1.2964903e-05 2.1818303e-06 -1.3641035e-06 -2.2303493e-06 1.015892e-05 -2.0600012e-06 1.0423619e-05 -8.841665e-06
3.316399e-07 9.3317317e-07 4.041661e-06 6.916323e-07 -1.24755625e-05 1.710567e-06 -2.9891162e-06 -3.0293035e-07
-4.1248413e-06 -4.5477057e-07 3.2149503e-06 2.6195548e-06 -1.1570496e-05 -1.8251166e-06 -3.970639e-06 -3.054974e-06
-8.434808e-06 6.265918e-06 1.7473142e-06 2.4161258e-05 6.814269e-07 8.873773e-06 -1.3138749e-05 -1.1670437e-05
-2.8679192e-06 -1.8162447e-06 -1.507186e-05 9.848421e-06 8.769466e-06 -2.2970066e-06 -1.5726796e-06 7.2177922e-06
6.9607836e-06 -3.1779298e-06 5.282075e-06 -2.1413937e-06 -3.4600157e-06 -1.1685382e-05 -2.6059693e-06 1.0810442e-05
7.297876e-08 2.1492967e-06 -4.698536e-07 4.3010364e-06 -7.1450877e-06 -3.0798887e-07 -5.5204046e-06 -3.1138804e-06
-1.701609e-06 5.0498516e-06 -5.978932e-06 -1.664528e-07 -5.253837e-07 2.9124042e-06 -2.751762e-06 -7.208359e-06
1.0217369e-05 -2.2438956e-06 1.0812039e-06 2.0205844e-08 -1.4612746e-05 -2.7838114e-06 -9.642683e-06 -7.809796e-06
-3.2799433e-06 -1.4313708e-05 1.4264854e-06 5.5171345e-06 6.6710827e-06 -3.2462547e-06 -2.1695223e-06 3.6189704e-06
-1.4635904e-06 -6.898094e-07 -3.1317113e-06 2.79705e-07 -2.6062112e-06 -7.1087027e-07 -4.4505528e-06 4.3040063e-06
-1.6395848e-06 2.281198e-06 7.34156e-06 -9.266076e-06 -1.8837783e-06 -7.746303e-06 -6.7512115e-06 -2.3192172e-06
-4.8568546e-07 7.120973e-06 -8.9909545e-06 8.851874e-06 3.4236746e-06 1.8781378e-05 -1.9003394e-08 -6.005904e-06
5.528665e-06 7.058062e-07 4.122843e-06 -2.5886325e-06 6.5815584e-06 -2.8877448e-06 3.4375282e-06 1.3343858e-05
-3.6137262e-06 5.609653e-06 1.2167058e-06 1.28734555e-05 1.0976805e-05 -1.300251e-06 -1.8292081e-05 -3.5049643e-06
1.2210312e-06 8.414069e-07 2.089976e-06 4.269609e-06 5.870594e-06 3.018491e-06 -7.716087e-06 -2.0590649e-06
-2.491155e-06 -8.632132e-06 4.488088e-06 -1.5009252e-06 4.207382e-06 -9.892389e-06 -5.9253584e-06 -4.3630985e-06
-3.8000762e-06 -2.2102615e-06 -1.0491488e-05 -2.1277366e-07 -5.7894613e-06 -5.2072473e-06 1.9053317e-06 -5.014371e-06
3.7908155e-06 -1.4478235e-06 3.6818176e-06 -1.0951647e-05 3.5813155e-06 1.9911437e-07 7.434252e-06 1.6476337e-05
3.742212e-05 -6.0887824e-06 1.3461458e-05 -7.3349797e-06 4.9576424e-06 -5.4374705e-06 -6.797733e-07 -1.2764797e-05
-7.8633934e-07 1.3276978e-06 -1.4136376e-07 -5.573367e-06 2.7432954e-09 -3.117504e-06 -1.1016428e-05 -6.1153087e-06
6.332405e-06 -4.4420435e-06 2.225317e-06 -4.0331456e-06 -8.319645e-06 4.6287246e-06 -2.260796e-05 3.981784e-06
1.0648155e-05 -1.1922865e-06 7.222764e-06 2.3095502e-06 9.3589745e-07 -2.2387783e-05 1.2511636e-05 3.332304e-07
4.260572e-06 7.4618406e-06 6.649526e-07 2.295506e-06 5.233509e-06 -1.2778304e-06 -8.234618e-06 8.213162e-08

encoder.layers.0.conv.linear.bias f4 [16]
00000000: 5145 b9bc ef9e 23ba 1647 bbbd 2833 78bb
00000010: 8033 b5bc 96a0 093d ffa2 d2ba 0e75 babd
00000020: e855 09b8 ca65 5bb7 e081 a0bc 3b0a 143d
00000030: 7920 8dbb 58bd 25bb 0aca a43e 1872 f5be
-0.02261606 -0.00062416395 -0.09144418 -0.0037872288 -0.022119284 0.033600412 -0.0016070305 -0.09104358
-3.274335e-05 -1.3077117e-05 -0.01959318 0.03614257 -0.0043068496 -0.002528986 0.32185394 -0.4793861

encoder.layers.0.conv_e.weight f4 [1000, 16]
00000000: ed6c 9ea5 381d cd9d bbea 399b d9f2 3fbb
00000010: 81c6 8430 3eed 3b9d 754e fdbb e279 9e9c
00000020: b447 e19d 3f90 23bc 8706 171e 7ad1 1c1e
00000030: 8ad8 01ab 2bb5 0abc c254 12bc 62e2 d435
00000040: 48e2 94a6 a31a 099e 7100 509d 72d0 8f3b
00000050: 9112 1fb1 0a0d 859d 91e4 823b b66f 079e
00000060: ed2d ea9d fe4f c73a c139 459d 62e8 081e
00000070: 9b0b 93a9 8035 673b 93be 8e3b 369c 1335
00000080: 7910 d6a4 7ead 159d 6a01 2c9e d6ca 013a
00000090: 1bba 0e31 ac96 399d 1a17 97bb 177d a99d
000000a0: 9319 3c1e ab46 9dbb 45e7 4c9d c193 911d
000000b0: e164 45ab d541 26bb 22e1 d5b9 13d3 bfb6
000000c0: 32f6 d425 2b28 cb1d a7f1 a91c d5e2 5d3b
000000d0: 0ccd 3ab1 6061 449e ef32 c53a 5466 4a1d
000000e0: c921 811d eae2 f8b9 921b 581d bc11 6b9d
000000f0: a8b5 782a ee94 333b 4106 143b 0db8 7735
00000100: b505 51a4 45de 819d 29a1 5a1c e078 82bb
00000110: 6ab7 8fb0 62f7 4b9e 8074 03bc 23c8 141e
00000120: 309c ca1c 60db 27bc 8022 5c1e b1a7 b91d
00000130: b965 67aa c702 ccbb 95c1 16bc aebb 9935
00000140: dd22 7925 0683 011c 6955 0c1d 08de 1bbb
00000150: 0a0b 8b2f f233 e11d 3461 84bb b2f5 0c9e
00000160: cdbf b59d bea9 cbbb d2e6 059e 96b1 a59d
00000170: 4860 52a9 fd91 7dbb 7b9d 8ebb c4b5 6436
00000180: 68d7 34a6 b5c8 d39d df9c 121d 8d35 b5bb
00000190: 021b c6b0 71f4 269e 9d14 86bc ba29 619e
000001a0: d724 949d 6005 6dbc 7b54 d09c b206 9c1d
000001b0: 2449 0f2b a7dd 19bc 910c 68bc 06c1 8c37
000001c0: a2a0 67a6 45ab 3f1d 4175 781d 2e65 a2bb
000001d0: 371a 61b1 8261 cf9d fe9c 65bc b266 819d
000001e0: 33de f19c e659 22bc d016 ac1d 0074 819d
000001f0: d965 872a 9da9 38bc c4ca 72bc f6e9 0636
00000200: 492b b5a4 5607 e21d a3d3 0b9e f569 dd3a
00000210: 04b1 68b1 6b83 db1d 77af 35b9 f6ef f31c
00000220: 1e55 bd1d 6227 03bb a7c6 261e f5bf 741e
00000230: 2c6f 282c 351c f03a 8ce6 463a 8380 08b5
00000240: 82aa 15a5 18d1 821d dc47 651d bf01 98b8
00000250: 0436 0cb1 6292 2f1d 509d a2bb 01c4 081d
00000260: 515b ab9d ed65 83bb c576 1c1e 39d9 1f1e
00000270: ab69 bba8 3efa eeb8 63d1 eaba e54f dcb4
00000280: 11d9 50a3 be32 989d c4cc 0c9e ceda e8bb
00000290: 57ac 90b1 e34e e69d 1985 14bc a5f5 0e9e
000002a0: 334f ee9d 9bfe 25bc 5afd f79d d4eb 279e
000002b0: 104b 9d2b 358e 0dbc 7669 1bbc 7dcb 5836
000002c0: de15 1424 7d5b 601d 3c7f 8a1d 693f 0bbb
000002d0: e799 0ab1 6d20 461e 2b04 33bc bfdf 071e
000002e0: e1f9 249e f4c1 34bc 103c a59d 4360 041e
000002f0: 13f5 942a a3e2 edbb b7ce 2ebc e800 fc36
00000300: c2ed 8a25 2ee7 239e 0c60 091e 5044 37bb
00000310: 1128 1131 34eb e69c 21c7 67bb 714c 439e
00000320: 8aed 9c1d 009f 5ebb c155 e29c 3350 b29d
00000330: 00dc fa2a 14bb c8ba 0d00 c2ba cbc9 3a36
00000340: 70ba eaa4 59c1 d01c 4645 e49c 3126 c2ba
00000350: d6c8 55b1 74d2 131e 0310 5fbb a787 0e1c
00000360: 1230 349e 3ab8 6bbb 3866 ba1c bbd6 791d
00000370: be6a 312a 8fea d4bb d135 8cbb f0c9 5636
00000380: e367 a125 1a3f f59c f30a 849d c08a 863b
00000390: b473 b2b0 a284 bb9c c67b e439 3938 939d
000003a0: 5e57 d21d 4f07 fb39 1b50 441d ed52 0e9d
000003b0: a1af e9aa 173a 79bb 30e4 a03a 58c4 48b6
000003c0: 4a20 2026 36ad ae1d dce2 5f1d 51e1 d939
000003d0: 7244 5eb0 ea14 831d c908 a3b9 0301 221e
000003e0: fb1e d09d 8371 deb9 57c9 0f9e 8249 b11d
000003f0: 8551 c22a 025b 70bb cc45 89bb 5e87 ff36
-2.7482442e-16 -5.429326e-21 -1.5378687e-22 -0.0029289036 9.660682e-10 -2.4871895e-21 -0.0077303 -1.0487069e-21
-5.9631143e-21 -0.009983121 7.995223e-21 8.30189e-21 -4.6130515e-13 -0.008466045 -0.008931341 1.5861117e-06
-1.0330897e-15 -7.258228e-21 -2.7528799e-21 0.0043888623 -2.31481e-09 -3.521829e-21 0.0039945324 -7.169942e-21
-6.198677e-21 0.0015206335 -2.610259e-21 7.247836e-21 -6.5301246e-14 0.0035279691 0.0043562143 5.4989084e-07
-9.283561e-17 -1.980968e-21 -9.105897e-21 0.00049511844 2.0769508e-09 -2.4562442e-21 -0.004610908 -4.4863267e-21
9.957926e-21 -0.004799684 -2.7118739e-21 3.8533954e-21 -7.0128457e-13 -0.0025368829 -0.00040794263 -5.716816e-06
3.6942966e-16 5.3775185e-21 1.1245948e-21 0.0033857126 -2.7183118e-09 -1.039629e-20 0.0015045087 2.678738e-21
3.418095e-21 -0.0004747131 2.8601615e-21 -3.111116e-21 2.208985e-13 0.0027402001 0.0022586735 9.22825e-07
-4.5324485e-17 -3.4375837e-21 7.2338444e-22 -0.0039816946 -1.0456749e-09 -1.0797888e-20 -0.008023381 7.876442e-21
1.3407612e-21 -0.010245174 1.16538375e-20 4.914248e-21 -2.0552214e-13 -0.006225917 -0.009201427 1.145401e-06
2.160912e-16 4.2851863e-22 1.8573002e-21 -0.0023783464 2.5291796e-10 5.9610714e-21 -0.004039908 -7.462347e-21
-4.810862e-21 -0.006215303 -7.088694e-21 -4.3858756e-21 -4.6712878e-14 -0.0038691752 -0.004352269 3.408045e-06
-6.2741975e-16 -5.605876e-21 1.940404e-21 -0.0055300654 -1.4414072e-09 -8.838516e-21 -0.016367251 -1.192003e-20
-3.9213365e-21 -0.0144666135 -1.3786123e-21 4.129978e-21 5.090531e-13 -0.009391225 -0.014163152 1.6779184e-05
-8.036192e-16 2.5367184e-21 3.2883146e-21 -0.004955909 -3.275671e-09 -5.4893264e-21 -0.014014481 -3.42522e-21
-1.6005479e-21 -0.009909129 4.555161e-21 -3.4265957e-21 2.4051488e-13 -0.011270908 -0.014818851 2.010374e-06
-7.8569565e-17 5.9829287e-21 -7.402364e-21 0.001689254 -3.3861065e-09 5.81047e-21 -0.00017326871 1.614242e-21
5.0115893e-21 -0.0020012488 8.829047e-21 1.2956948e-20 2.3935949e-12 0.0018318953 0.0007587455 -5.085096e-07
-1.298146e-16 3.462691e-21 3.0345048e-21 -7.24825e-05 -2.0403386e-09 2.3236735e-21 -0.004962601 1.8100782e-21
-4.5357742e-21 -0.0040099532 8.283132e-21 8.4623105e-21 -2.0806997e-14 -0.000113953356 -0.0017915185 -4.1036324e-07
-1.1321668e-17 -4.028653e-21 -7.453883e-21 -0.0071061617 -4.2105444e-09 -6.096206e-21 -0.009064936 -7.5682155e-21
-6.3079966e-21 -0.010131503 -6.5642315e-21 -8.8896745e-21 1.1176355e-12 -0.008639862 -0.009485593 3.2304954e-06
3.2110907e-17 2.9693451e-21 3.6659853e-21 -0.0021247512 -2.0169126e-09 1.0488738e-20 -0.010926287 7.19311e-21
-8.7337615e-21 -0.01103257 -4.373724e-21 7.007928e-21 2.6460136e-13 -0.007259683 -0.010669402 7.5102907e-06
2.4100295e-16 -8.676955e-21 7.272582e-21 -0.0027964301 2.1123052e-09 -1.5280922e-21 -0.0035366493 -1.0339022e-20
4.1538466e-21 -0.0033969283 -1.4977592e-21 -4.719913e-21 4.4561577e-13 -0.0015314543 -0.001480104 2.7833619e-06
-1.0179716e-16 1.3814265e-21 -1.5105681e-21 -0.0014812407 -3.1109741e-09 7.825636e-21 -0.0034036643 4.7159185e-22
-9.539061e-21 -0.0035967962 1.233487e-21 3.3065889e-21 1.5757792e-13 -0.006497688 -0.0042788764 3.2006028e-06
2.7999444e-16 -1.6229051e-21 -3.495143e-21 0.0041058958 -1.2984089e-09 -1.2408907e-21 0.00043579767 -3.896871e-21
5.5676873e-21 0.00047879896 2.5981798e-21 -1.8836415e-21 -4.1510981e-13 -0.003802901 0.0012275036 -2.991661e-06
5.555491e-16 4.6236512e-21 2.9631088e-21 0.0004155734 -8.0860396e-10 3.4697036e-21 -0.00031096328 8.576418e-21
-5.5089175e-21 -0.00042427712 -7.611993e-21 4.6927515e-21 3.4517888e-13 -0.0036675339 -0.0041892286 7.615351e-06

encoder.layers.0.conv_e.bias f4 [16]
00000000: d6fc 50b8 f22b 71b8 db62 cab6 c1da 383e
00000010: 0ef4 9eb5 9ae4 46ba 1d39 f33e 7237 06bb
00000020: 5cac adbb c9b1 fd3e 0e4a 2eba c4d4 93bb
00000030: 2c6c 40b0 074b f73e 8f17 d03e 8c29 9bb9
-4.9826536e-05 -5.7499805e-05 -6.0315774e-06 0.18052198 -1.1842947e-06 -0.0007587165 0.4750451 -0.0020479825
-0.005300088 0.49549702 -0.0006648608 -0.0045114476 -7.0002915e-10 0.4829943 0.40642974 -0.0002959486

decoder.scale f4 [2]
00000000: 400d a43f 22c8 633f
1.2816544 0.88977253

decoder.point f4 [2, 16]
00000000: 5e5c 933d 413c 923b 57bb df3d ca95 d0ba
00000010: a903 e9bd 86aa 2cbe b70a ddbb b244 6f3d
00000020: 3cc0 e6ba dc62 aa3d fdcc 23be 8bf4 77be
00000030: f49f 97bc 8388 3f3d 356f b43e 3bce 703d
00000040: 9f9d e83c 8d0a 0abb 9d56 3e3e 2eda 7bbc
00000050: 1df5 343a 28e6 09be 23c9 2ebc a70a 123d
00000060: 854f 39bd 9870 eb39 73f3 d9bd 82cc b7bd
00000070: f630 703d a107 91bc b79d bf3e 43c1 c13d
0.07195352 0.004462749 0.10924404 -0.0015913781 -0.11377651 -0.16861925 -0.006745662 0.058415122
-0.0017604898 0.08319637 -0.15996166 -0.2421438 -0.018508889 0.046761047 0.35241094 0.058790427
0.028395472 -0.0021063418 0.18587728 -0.015371842 0.000690298 -0.13466704 -0.010668072 0.03565469
-0.04524185 0.00044906582 -0.106421374 -0.08974554 0.058640443 -0.017703833 0.37425014 0.0946069

decoder.tangent f4 [2, 16]
00000000: bb4b 913d 1088 083b 3b83 bf3d d053 aa3a
00000010: 5738 cbbd 5f73 b93e 9cfd a3bb 627a 55bd
00000020: 4a86 b0ba 3cd2 303e 062a bd3e 3514 a53e
00000030: b87f 8cbc f9fc 9bbc 1a10 acbe 680e b63d
00000040: f33a 8d3c eecb b73a 4655 96bd 29ba 6c3c
00000050: 469a 3bba 018e dbbe 7b18 7c3b 6468 0a3d
00000060: c503 393d 4470 37b9 f093 eabe 8cf3 0bbf
00000070: ab79 48bd 9d7c 043d 4d07 2d3e d292 97bd
0.070945226 0.0020833053 0.09351202 0.0012994949 -0.09922855 0.36220834 -0.005004598 -0.052118666
-0.0013467756 0.17267698 0.36946124 0.3224198 -0.017150745 -0.019041525 -0.33606035 0.088894665
0.017240023 0.0014022568 -0.07340483 0.014448681 -0.00071564724 -0.42881778 0.003846674 0.03379096
0.04516961 -0.00017494062 -0.45815992 -0.546685 -0.048944157 0.032345403 0.16897316 -0.074010506

decoder.cls.weight f4 [16, 2]
00000000: 9aaf fa2a 056e 262a 4858 019e 815a cc1e
00000010: 96a3 481e d1b6 591f f051 62be 5849 613e
00000020: cfb3 a233 46ef bf31 b971 8020 0bda 11a0
00000030: 99f0 c9be 4490 c73e 709c e39f fbd0 a51d
00000040: 731b 5e9f b646 49a0 11ba c4be 8b7b c63e
00000050: f42f 81a0 0b2c a61f 197c e11f 90d9 001f
00000060: 9cc5 5aad b1e4 e4ac d239 c5be cf1f c23e
00000070: f47c c9be 29f9 c83e a97a 37b9 8183 ca39
4.453077e-13 1.4781932e-13 -6.847459e-21 2.1636772e-20 1.0621741e-20 4.610276e-20 -0.22101569 0.22000635
7.57642e-08 5.586034e-09 2.17593e-19 -1.2354122e-19 -0.39441374 0.38977253 -9.6397044e-20 4.3891217e-21
-4.7033034e-20 -1.7048759e-19 -0.38423207 0.3876613 -2.1885183e-19 7.03766e-20 9.549651e-20 2.7285018e-20
-1.2435743e-11 -6.5055396e-12 -0.38520676 0.37914893 -0.39353144 0.39252594 -0.00017497934 0.0003862642

decoder.cls.bias f4 [2]
00000000: 4ce1 10bd 4ce1 103d
-0.03537111 0.03537111

decoder.w_e.weight f4 [1, 16]
00000000: c709 e023 91a6 ce1e 5f35 6b9d 95ec 573d
00000010: 9196 5133 0f7d 1b9c e1d6 84bd 9ded 549b
00000020: 588d 1b1f a82f febd 8908 4d9f ece4 399f
00000030: f569 43ab 8aee e3bd c1d1 bd3a 38bf 44b9
2.429027e-17 2.1879989e-20 -3.1129583e-21 0.052715857 4.8798544e-08 -5.144683e-22 -0.064862974 -1.7613006e-22
3.2939444e-20 -0.124114335 -4.34175e-20 -3.9364634e-20 -6.942496e-13 -0.11129482 0.0014482067 -0.00018763251

decoder.w_h.weight f4 [1, 16]
00000000: c268 911f 4213 4d23 b213 173d ded5 caa0
00000010: 82b7 2836 cfc3 753f 8059 cca2 bb08 743e
00000020: 6485 d31f fd3f 5c20 5adb 213f 908f 763f
00000030: a0ab 1021 7586 5922 f043 003e d05f 133d
6.1583196e-20 1.111715e-17 0.036884017 -3.4361657e-19 2.5140766e-06 0.96001905 -5.5389073e-18 0.23831455
8.958265e-20 1.8655897e-19 0.6322533 0.9631281 4.901624e-19 2.9480165e-18 0.12525916 0.035980046
