logs/lp/2020_5_19/2/model.pth (torch_old, 95759 bytes, 6 tensors)

encoder.layers.0.linear.bias f4 [16]
000000 34 52 e7 3c db 06 eb 3c e4 6e 32 3d 5c fc f5 3c
       0.02823744 0.028689792 0.043562785 0.03002756
000010 a6 41 f7 3c 9e 4d 32 3d e6 e4 fc 3c ad 24 e2 3c
       0.03018267 0.043531053 0.030870866 0.027605379
000020 1c 8a bd 3c 52 81 3c 3d 27 f1 16 3d 26 65 d4 3c
       0.023137145 0.046021767 0.036851075 0.025927138
000030 51 4c f6 3c d0 08 59 3d 12 f9 dd 3c 86 9f 09 3d
       0.030065687 0.05298692 0.027096305 0.0335994

encoder.layers.0.linear.weight f4 [16, 1433]
000000 88 a3 74 bd 64 c5 42 bd d3 a4 8d bc 88 61 81 3c
       -0.059726268 -0.047551528 -0.017290508 0.015793577
000010 92 30 a6 bd 1c 4a 94 bc 44 e4 37 bd 1a c9 ae 3b
       -0.08114733 -0.018101744 -0.044895425 0.005334032
000020 e9 cd 57 3d b4 09 86 3d ae d1 3d bd 0c c1 e5 ba
       0.052686606 0.065448195 -0.046342544 -0.0017528846
000030 b1 c8 44 bd bb 9b eb 3c c2 cf a4 bc 46 9f 95 bd
       -0.048042957 0.028760782 -0.020118598 -0.073057696
000040 d1 26 4a 3d d5 71 51 bd 62 1a 4e bd 0f ac 73 3c
       0.049353424 -0.05113395 -0.05031813 0.014872565
000050 5a 64 45 3c 07 15 b5 bd 0e e9 10 bd 98 93 a1 3d
       0.012047851 -0.08841901 -0.03537851 0.078894794
000060 2d e3 ce 3c 1c b6 89 bc 6a 23 27 3c 82 96 87 3c
       0.02525481 -0.01681047 0.010201314 0.01655126
000070 c4 cb e6 bc 18 3e bd bc 7a f2 7d bc 0c 60 1a 3c
       -0.028173335 -0.023100898 -0.015499705 0.009422313
000080 8e 21 1d bc a4 05 02 bb a9 af c9 bc 74 f9 98 bc
       -0.00959052 -0.0019839788 -0.024619894 -0.018673636
000090 87 37 ac 3c f5 7a a9 ba cd a8 da 3d bc 05 f9 ba
       0.021022571 -0.0012930321 0.106767274 -0.0018998901
0000a0 0d b0 c4 bd 11 dc 7f bd 2a 1d 9c 3c 39 ba 54 bd
       -0.096038915 -0.06246573 0.019056875 -0.05193541
0000b0 fe 17 17 bd 73 fe 21 bc eb 2a 3a bd 78 a9 2e bd
       -0.036888115 -0.009887326 -0.045451086 -0.042642087
0000c0 0a 3a 8d bc 6e b9 3a 3a 7f 23 51 bd 4c 5f 4f bd
       -0.01723959 0.0007122968 -0.051059242 -0.05062799
0000d0 ac 2c 09 3e 95 35 1b bd 40 cc 89 bd db 8c 22 bd
       0.13395947 -0.037892897 -0.06728411 -0.03968511
0000e0 68 99 48 3d 9e f4 2b 3a e1 be 25 bd 91 68 b2 3c
       0.048974425 0.0006559583 -0.04046524 0.021778377
0000f0 e6 c2 37 3c 1f 25 b0 bd 59 b1 68 3d 2f b7 91 3c
       0.011215901 -0.0860083 0.056809757 0.017787544
000100 52 45 b6 3d 5e c9 05 3d 14 4f 59 bc d6 51 fb 3c
       0.088999406 0.03266274 -0.013263483 0.03067867
000110 0f 6c 2c 3b 34 df a7 bc 15 e7 6b 3c 20 3b 8b 3b
       0.0026309525 -0.020492174 0.014398356 0.0042489916
000120 bc fb b2 3c 41 18 b1 3c c2 0c 8a bd f2 bd 1d bd
       0.021848552 0.02161801 -0.067407146 -0.038511224
000130 ab 59 47 3c 18 fb 1d 3d 7c d9 83 bd 25 f3 92 3c
       0.012167375 0.03856954 -0.06437966 0.017938206
000140 fd 13 cf bb f7 5c 84 bc ff 37 42 bd eb c9 ea bc
       -0.0063195215 -0.01615761 -0.047416683 -0.028660735
000150 9d d1 4b ba 0c 72 84 bd 23 46 80 bd a3 78 c2 bc
       -0.000777507 -0.06467065 -0.062633775 -0.023739165
000160 b9 3e b0 3c ff da 68 bd d2 98 67 3d 93 19 0a 3c
       0.021514283 -0.056849476 0.056542225 0.008428949
000170 6d 22 97 3b 22 b8 bb bd ca a3 11 bd 02 c3 9b 3b
       0.004612258 -0.0916598 -0.035556592 0.0047534714
000180 d7 ef 42 3c 62 ae 27 3d eb 17 ac bc 80 30 b0 3c
       0.011898003 0.04093779 -0.021007499 0.021507502
000190 22 26 99 3d f6 72 ad 3c 75 6f e9 3c ee 7f 79 3d
       0.074779764 0.021172982 0.02849553 0.06091302
0001a0 e9 bf b1 3d 38 ca bb bc f9 9a 13 bd ae cc 93 3c
       0.08679182 -0.022923574 -0.036036465 0.018041935
0001b0 c5 3b 7c bd 70 38 50 bc 12 49 a8 bc cc 65 73 3d
       -0.06158044 -0.012708768 -0.020542655 0.059423253
0001c0 ba 88 5c bc e9 04 2f bd d2 db 34 bc 4a 10 46 3d
       -0.0134603325 -0.042729292 -0.011038737 0.04835538
0001d0 e8 0d 4f 3b 1b fb 8d bc 71 03 19 bc 04 de b3 bc
       0.0031593982 -0.01733165 -0.009339199 -0.021956451
0001e0 3e 13 a8 bc 88 25 7d bd a9 96 99 bc c2 b9 33 3b
       -0.020516988 -0.06180337 -0.018748598 0.0027423953
0001f0 8f 18 50 3d 45 24 90 3d ae 91 6a bd 05 e3 1a 3d
       0.05080467 0.07038168 -0.057267837 0.03781416
000200 4a 2f fc 3d c3 04 13 3d 30 ed 2d 3b ef b5 8d 3d
       0.12313707 0.035893213 0.002653908 0.06919467
000210 fa 0f 8c 3c 71 fc 40 3d 6f e7 22 bc cc 05 1b 3e
       0.017097462 0.047115747 -0.009942873 0.1513893
000220 38 8d b0 3d fb a5 f6 bc 66 8e 24 3c 4e 31 db bc
       0.08620685 -0.030108443 0.010043716 -0.026756909
000230 55 d3 39 bc c3 63 93 bc 82 01 15 bd f3 28 1e 3d
       -0.011341889 -0.017991906 -0.03637839 0.03861327
000240 8d 92 65 3d 9f f8 de bb 8a 84 59 bc 6b 2a 4e bd
       0.056047965 -0.0068045403 -0.013276229 -0.05033342
000250 0c 9a 94 bc 33 8d 56 3d d6 f5 09 bd 02 ac 0e 3e
       -0.018139862 0.05238075 -0.033681713 0.13932803
000260 35 a5 b5 bb ef 28 83 3c 46 46 9a bd 75 13 0a bd
       -0.005543376 0.01601073 -0.07532935 -0.033709962
000270 48 99 1c 3d 45 10 17 3d 59 c6 28 bd eb 19 ee bb
       0.038232118 0.03688075 -0.041204784 -0.0072662733
000280 61 c2 00 3d 08 9b 11 bc e0 6a d4 3d 05 23 22 bd
       0.031435374 -0.00888706 0.10371947 -0.03958418
000290 dd 26 2c bc a2 86 15 3c e8 94 45 3d 72 db 83 3c
       -0.010507313 0.009126337 0.04823771 0.01609585
0002a0 88 77 1c be 92 1d 15 3d 5d f4 0f 3d ba 79 20 3d
       -0.15279973 0.036405154 0.035145152 0.039178587
0002b0 4e 2c b5 3d 38 ce 01 3d b0 db 4c bb 69 62 fb 3d
       0.08846341 0.031690806 -0.0031258874 0.122746296
0002c0 c2 2d c8 bc bb af e3 bc 22 f4 99 bc f6 ba ad 3c
       -0.024435882 -0.027793756 -0.01879317 0.021207314
0002d0 e9 71 1a bd 24 07 31 bd 79 e2 1d bd 5f 7c e2 3d
       -0.03770629 -0.0432197 -0.03854606 0.11058878
0002e0 2c 56 98 3a 17 12 ec 3c 5a bb 15 bc 9e db 82 bd
       0.0011622361 0.02881722 -0.009138906 -0.06389545
0002f0 55 b1 60 bc ae 88 49 bc ac b1 0a bc 1a fe e9 bd
       -0.013714154 -0.012300653 -0.008465212 -0.11425419
000300 77 ac 39 bc 70 3d 20 3d 74 c0 37 bd 92 e9 45 bc
       -0.011332623 0.03912109 -0.044861272 -0.012079613
000310 49 0c 4f bd 94 2a bc bd 6c 29 25 3c 97 01 23 bb
       -0.050548825 -0.09187809 0.0100806765 -0.0024872774
000320 7c 11 dc bc d1 2e 06 bc c2 0d 03 3d 56 df 22 3d
       -0.026863806 -0.008189873 0.031995542 0.03976377
000330 ba 98 9d 3c c6 49 99 bd 04 08 d5 bd 73 22 46 3b
       0.019237865 -0.07484774 -0.104019195 0.0030232936
000340 9b 78 7f bd 40 a0 ab ba 77 95 4c bc 2f 6c 1e bd
       -0.062370878 -0.0013094023 -0.012486807 -0.03867739
000350 fd 76 fa 3d ec 49 c1 3d 0d e0 95 bc 3a 46 01 bd
       0.122297265 0.094379276 -0.018295312 -0.031561114
000360 91 27 24 3d 97 7a 51 bd 69 07 e0 3c 76 06 18 bd
       0.040076796 -0.0511423 0.027347283 -0.037115537
000370 d8 de e2 3c 35 52 dd bc c3 af 01 3e 9d e9 c6 bc
       0.02769415 -0.027016738 0.12664704 -0.024281317
000380 c2 f2 66 bc cd c3 f2 bc 89 66 8c 3c 37 79 38 bd
       -0.014095964 -0.02963438 0.017138736 -0.045037474
000390 01 29 ed 3b 7a 9d f5 3c 12 a5 c7 3c bf f0 77 3c
       0.007237554 0.029982317 0.024370704 0.015133082
0003a0 6e d0 bb 3c 51 39 15 bd f4 46 43 bd 36 09 92 bd
       0.022926535 -0.036431614 -0.047675088 -0.07130663
0003b0 47 32 04 3e de 5d 81 3d 8a 19 50 3d f2 fe 2e bc
       0.12909804 0.06316732 0.050805606 -0.010680901
0003c0 5f 08 07 3d 5f 62 55 bc 63 b1 f9 bc 7b 95 80 3c
       0.032966968 -0.013023942 -0.030480092 0.015696278
0003d0 f4 2d bd 3b 2d 1d 8d bd 1e f9 5f bd e7 94 03 bd
       0.0057733003 -0.068903305 -0.054680936 -0.032124426
0003e0 13 1b 6b bd 18 e5 0a 3d 8c 65 0a 3d a5 35 04 3d
       -0.057398867 0.033909887 0.03378825 0.032277722
0003f0 a1 d8 07 bd f8 fd c4 bc 32 8f 0c bd 18 23 55 bd
       -0.033165578 -0.024046883 -0.03431625 -0.05203542

encoder.layers.1.linear.bias f4 [16]
000000 77 b5 8b 3e 46 f1 89 3e ea e9 62 3e 7f c9 9f 3e
       0.27286884 0.2694189 0.22159544 0.31208417
000010 f0 02 c9 3e 49 ac e4 3e ae 9f b3 3e 6c d7 9d 3e
       0.39260054 0.44662693 0.35082763 0.30828416
000020 a6 b9 af 3e 2d 01 b8 3e 9f de a3 3e e6 bf aa 3e
       0.34321326 0.35938397 0.32005784 0.33349532
000030 ab 83 9a 3e 93 62 83 3e ee 2a a6 3e 5d 04 ab 3e
       0.3017858 0.25661144 0.32454628 0.33401766

encoder.layers.1.linear.weight f4 [16, 16]
000000 5c 60 09 3e 06 1a 63 3e 05 45 ab 3c 7b 64 d9 be
       0.13415664 0.22177896 0.020906935 -0.42459473
000010 e0 fe 17 3f 7e 21 ab 3e 21 fe a1 be 76 1f 12 3f
       0.59373283 0.3342399 -0.31639197 0.57079256
000020 d5 31 82 3d a0 cf 11 3f 79 f5 7b 3e 36 04 6d 3e
       0.06357161 0.56957436 0.24605359 0.23146138
000030 10 79 c4 be 62 4b 03 3e b3 c3 01 3d 53 a8 91 bc
       -0.38373613 0.12821725 0.031680774 -0.017780459
000040 3b 2c 0a 3d f1 9f 26 3f 41 4e 27 be 26 e7 25 be
       0.033733588 0.650878 -0.16338445 -0.16201457
000050 fb 1e bc 3e 04 e6 9a 3e 06 a0 1a 3f 9b 73 ac 3e
       0.36742386 0.30253613 0.60400426 0.3368195
000060 6a 6b 30 3e dd 84 91 be 28 eb 9c 3e e3 f3 11 3f
       0.17228475 -0.2842168 0.3064816 0.57012767
000070 8f 1b 91 3d 63 93 72 3e 01 90 53 3e 79 a9 d6 3e
       0.070853345 0.23689036 0.20660402 0.41926172
000080 53 91 a8 3e 5d ee ed 3d 6f fa e7 be 78 4f 34 be
       0.32923374 0.1161773 -0.45308253 -0.1760844
000090 76 1b 1b 3f 8b c8 e4 3e c5 01 3d be 37 2b e1 3e
       0.6058878 0.44684252 -0.18457706 0.43978283
0000a0 97 f7 9d 3e a9 3f 0b 3f 94 02 68 3e 23 0c 30 be
       0.3085296 0.5439401 0.22657233 -0.1719213
0000b0 c4 25 1f 3e 99 2e c6 3e 57 26 9a 3e 7e 9e 10 3f
       0.1554175 0.38707426 0.30107376 0.5649184
0000c0 5c 51 20 3e dc 44 15 3f 70 9d ed 3e c4 14 a9 3e
       0.15656036 0.58308196 0.46409178 0.33023655
0000d0 c6 e9 21 be 0e 5a b8 3e e7 1f e3 3c b8 8f 37 3d
       -0.15811834 0.36006206 0.027725173 0.044814795
0000e0 7c 72 e7 be b2 bd 04 3e db 3a 16 bf 63 6e 5a 3e
       -0.45204532 0.12962988 -0.58683556 0.21331172
0000f0 c4 c9 90 be 0c ef 01 3f 9e dd 86 3d 9b 9e d8 3e
       -0.28278935 0.5075538 0.06585239 0.42308506
000100 de d4 37 be 0f 71 18 3f d4 78 f0 3e a6 96 4f be
       -0.17952296 0.59547514 0.46967185 -0.20272312
000110 49 aa 1c 3f aa 93 cf bd b3 93 b0 3d fc ed e2 be
       0.61197335 -0.101355866 0.086219214 -0.44322193
000120 ad 6a c8 be 34 a3 e1 bd 28 a2 94 3e ce 9e 00 3e
       -0.39143887 -0.11017457 0.29029965 0.12560579
000130 9a 95 b5 3e 05 33 72 bd c6 09 7e bd 0a 38 63 3e
       0.354657 -0.059130687 -0.06202104 0.22189346
000140 f5 c9 87 3d 77 07 f4 bd 23 da 96 be 26 86 8e 3e
       0.06630317 -0.11915486 -0.294633 0.27836722
000150 7a 2b 61 3e 31 f9 c8 be 2e 9f ac 3e a7 4c 8b be
       0.21989241 -0.39252618 0.33715194 -0.2720692
000160 01 6e 92 be 11 79 95 3e a7 ff 1d 3e 7e 17 60 3e
       -0.2859955 0.2919393 0.15429555 0.21883962
000170 77 60 08 3e 57 dd 6a be 08 31 dd 3d f7 aa 38 be
       0.13318048 -0.22935997 0.108003676 -0.18033968
000180 8a e9 19 3f 2b 27 be 3e 49 29 2e be 75 c6 ef 3d
       0.6012198 0.37139258 -0.17007937 0.117077745
000190 b1 64 45 be 6e d6 33 be 3a 95 fc bd 16 b5 c6 3b
       -0.19276692 -0.17562267 -0.1233315 0.0060640676
0001a0 36 ab a3 be 16 e0 c0 3e 61 36 d3 be 9c b1 c9 bd
       -0.3196656 0.37670964 -0.41252425 -0.098483294
0001b0 83 59 21 be d4 bd 1e 3e 33 8e b4 3e 7f 45 27 3f
       -0.15756802 0.15502101 0.3526474 0.6534042
0001c0 7d df 79 3e 52 d6 8a 3e aa d6 ac 3e 01 3f 9a 3e
       0.2440166 0.27116638 0.33757526 0.30126193
0001d0 69 1e ae be 0c 30 f7 3e 5f 68 7e bd a3 9b 92 be
       -0.34007576 0.48278844 -0.062111255 -0.28634366
0001e0 4f a1 b7 3e b0 d8 b8 bd 29 84 6e bd 4f 86 ad bd
       0.35865256 -0.09025705 -0.058231506 -0.08472883
0001f0 d8 f7 89 3e b4 83 8c 3e ba 65 70 be d6 f4 b2 3e
       0.26946902 0.27444232 -0.23476306 0.3495242
000200 ab 6a 8b 3e 3c 66 e1 be 1c 9c a2 be 72 49 cf 3e
       0.2722982 -0.4402331 -0.31759727 0.40485722
000210 ac e8 68 3e 95 2e da 3e bc 4c d8 3e db 80 06 3f
       0.22745007 0.42613664 0.42246044 0.5254037
000220 89 19 b4 be db 30 74 3e 6f 89 cb 3e 65 4c f0 be
       -0.35175732 0.23846762 0.3975329 -0.46933284
000230 8f 48 93 bd 68 3f 10 3f c6 d4 8b 3e 40 66 84 be
       -0.07191574 0.5634675 0.2731077 -0.2585926
000240 67 52 1c bf 3f d6 2d 3e 25 f2 c0 3d d1 8b e7 3d
       -0.61063236 0.1697626 0.094211854 0.11305965
000250 b0 10 c9 bc 30 4c 49 be 33 91 0a 3f ef 35 63 be
       -0.02454409 -0.1965797 0.54127806 -0.22188543
000260 c3 45 bc 3e d6 ae 9f 3e a5 d0 1a 3f 51 d8 e0 bd
       0.36771974 0.31188077 0.60474616 -0.10978759
000270 a4 5e 60 3e ba ee 89 3e 25 cb 87 3c 6c ed 64 be
       0.21911103 0.26939946 0.016576359 -0.22356194
000280 12 a0 fe be 59 eb 9c 3e 4f 82 92 be c1 82 2e bc
       -0.497315 0.30648306 -0.28615043 -0.010651291
000290 8a d1 c2 be 32 24 5d bd 83 6d 01 3f 24 4d a7 3e
       -0.3805049 -0.053989597 0.50557727 0.3267604
0002a0 99 34 dc 3e b9 38 01 3f b4 68 be 3e 5e 80 bf 3e
       0.4300888 0.50477177 0.37189257 0.37402624
0002b0 ca 6e 67 bb 8c 66 45 be 30 37 af 3d 7e 3c 20 3e
       -0.0035313838 -0.192774 0.08555448 0.15648076
0002c0 da 0f 18 3e ca 54 8d be 3c 97 64 3e f2 b8 4b be
       0.14849797 -0.2760375 0.22323316 -0.1989477
0002d0 39 50 82 3e 04 5e e8 bd f9 b4 7c be 32 44 c2 3e
       0.2545183 -0.11346057 -0.2467841 0.37942654
0002e0 7f e4 0f 3f 2a 57 98 3e 68 22 4a be 26 28 03 3f
       0.5620803 0.29754 -0.19739687 0.51233137
0002f0 11 08 37 be c8 8e 17 3f 9d 49 c6 be e5 ae fb 3c
       -0.17874171 0.5920224 -0.38728037 0.030723045
000300 00 52 64 3e 19 40 da be 0b de bd 3e 19 53 ea 3e
       0.22296906 -0.42627028 0.37083468 0.45766523
000310 24 a1 55 bd 68 34 a2 3e f2 66 87 3e 05 41 c8 be
       -0.05215563 0.31680608 0.2644573 -0.39112106
000320 db c9 e3 3e 8f 53 09 3f 54 ef 16 3f 40 29 f2 be
       0.4448994 0.53643125 0.58958936 -0.47297096
000330 20 a3 c0 3e 01 ff f1 3e 86 ae ae 3d e0 4a dc bc
       0.37624454 0.47264865 0.085293815 -0.026891172
000340 90 86 2c 3e 8a 1c a0 3d d8 f0 9d 3d c6 21 94 bd
       0.16848207 0.078179434 0.07711953 -0.07233004
000350 af 66 12 3f bd b9 b3 3e d8 6e 16 3f a9 1c 28 be
       0.5718793 0.35102645 0.58762884 -0.16417183
000360 05 61 d4 3d 43 d2 0b bd 66 48 6c be 02 de 08 3f
       0.103700675 -0.034136068 -0.23074493 0.5346376
000370 47 33 f5 3e e2 1b 23 3e 47 e2 d6 be 65 d4 3d be
       0.47890684 0.15928605 -0.4196951 -0.18538053
000380 7c 33 f0 3d 18 e3 b3 3e 90 c3 13 3f 26 22 f8 3d
       0.1172857 0.35134196 0.5772028 0.12115888
000390 30 47 9d 3c 31 64 02 3f 67 d6 71 be a5 ad 8a be
       0.019198984 0.5093413 -0.23616944 -0.27085605
0003a0 96 a8 96 be 38 86 a9 bd b0 03 c5 bd b8 93 41 bd
       -0.29425496 -0.08277553 -0.09619844 -0.047260016
0003b0 74 d2 7f bd ee e2 15 3f 39 1b 20 3d b1 ed 5d be
       -0.062456563 0.5854939 0.03908846 -0.21672703
0003c0 df ad a7 be 17 e8 9b be 91 6d 88 be 95 cc fa 3e
       -0.3274984 -0.30450508 -0.26646093 0.4898421
0003d0 d2 b3 cd 3d 18 f4 3e bd 58 dc 0d 3f 49 67 98 bb
       0.10044064 -0.046619505 0.5541434 -0.0046509844
0003e0 cf f5 21 bc ed 17 b2 3e 90 09 75 be 3e 9c ac 3e
       -0.0098852655 0.3478388 -0.23929429 0.33712953
0003f0 70 89 88 be f4 36 2f bc 42 9b ff 3e be 03 09 3f
       -0.26667356 -0.010694254 0.4992314 0.53521335

w_e.weight f4 [1, 32]
000000 e8 51 21 bd 86 2c ef 3d 4c aa 29 3d 0d 16 2b be
       -0.039384753 0.11678414 0.041422173 -0.1670763
000010 bc 5a 09 be 6c 0e 46 3d d3 54 0e be 1a b3 ff 3d
       -0.13413519 0.048353598 -0.13899545 0.12485333
000020 c8 f9 e2 3c 84 5a 26 3d 7d 0b 14 3e 80 f5 16 bb
       0.027706996 0.040613666 0.14457507 -0.0023034513
000030 da 2e cc 3d 40 f0 d5 bc 35 37 34 3e de 66 ec 3d
       0.09969874 -0.026115537 0.17599185 0.11543058
000040 80 12 af bc 14 33 17 be d4 0a 21 be cd 97 b4 bd
       -0.021371126 -0.14765579 -0.15726787 -0.08818016
000050 43 34 9d bd 1a 6a f4 bd 1b c4 24 be 88 b3 b6 3c
       -0.07675984 -0.119343 -0.16090433 0.022302404
000060 38 58 92 bd 7f 9e 1e be 7e 0c 9b 3d fa ba 1a be
       -0.07145733 -0.15490149 0.07570742 -0.15110388
000070 c0 d9 c9 bb 61 18 2d 3e 5b 53 8c bd a6 b5 87 bd
       -0.006159991 0.16903831 -0.06851836 -0.066264436

w_h.weight f4 [1, 32]
000000 27 89 ad bd b0 45 dc bd 76 59 d4 3d 80 5f 34 bc
       -0.08473425 -0.10755479 0.10368626 -0.011009097
000010 56 88 f7 bd 3f d0 04 be fd c3 09 be ef 75 e7 bd
       -0.12086551 -0.12970065 -0.1345367 -0.11301791
000020 8e db aa 3d 0c 57 66 3d 8d 08 2c 3e b0 7d ea bd
       0.08342658 0.056235358 0.16800137 -0.11449754
000030 e0 05 f4 3c 36 35 2a be 12 ff e9 3d 40 83 ca 3b
       0.029787958 -0.16621861 0.11425604 0.006180197
000040 eb 13 03 3e 5f bf 2d 3e 3b a4 2b 3e d2 44 cc bd
       0.12800567 0.16967534 0.16761868 -0.09974064
000050 1f 3c 31 3e e0 fd 47 3c e0 10 b2 bc 66 8a 31 be
       0.1730809 0.012206525 -0.021736562 -0.17337951
000060 5b 19 85 bd 09 07 c6 bd 86 50 93 3d 2c d4 ea bd
       -0.06498977 -0.096693106 0.07193093 -0.1146625
000070 14 47 bb bd 44 3a 4b 3d eb b1 30 3e 90 cd 3b 3d
       -0.091444165 0.049616113 0.1725537 0.045850337
