logs/nc/2020_1_18/11/model.pth (torch_old, 133505 bytes, 15 tensors)

encoder.layers.0.hy_linear.bias f4 [16]
0	0xbf3b5554	-0.73177075
1	0x3d816a80	0.063191414
2	0xbffaaa76	-1.958327
3	0xbf530cdf	-0.82441515
4	0x3df55492	0.11979021
5	0xbb4da277	-0.0031377354
6	0xbd90f117	-0.07077234
7	0x3d4e5719	0.05037603
8	0xbdf71c72	-0.120659724
9	0xbdca4f21	-0.09878374
10	0xbd3e3806	-0.046440147
11	0x3f7dddf6	0.9916681
12	0x3edc2b68	0.43001866
13	0xbf82a783	-1.020737
14	0x3c841287	0.016122116
15	0xbfc2d8d1	-1.5222417

encoder.layers.0.hy_linear.weight f4 [16, 1000]
0	0xbb29206c	-0.0025806678
1	0xbb21d219	-0.0024691878
2	0x3c1830c0	0.009288967
3	0x3c4b6f76	0.012416711
4	0x3bd244a3	0.0064168735
5	0x3a21c381	0.0006170795
6	0xbb6395c5	-0.003472672
7	0x3b5773fa	0.0032875524
8	0x3c1d003e	0.009582577
9	0x3a6388dc	0.00086797564
10	0xbb3604d9	-0.0027773886
11	0xbbaae7ef	-0.005215637
12	0x3bb2e1b3	0.0054590343
13	0xb94ca7df	-0.00019517493
14	0x3a6cd7c5	0.0009034838
15	0x3be160fd	0.006878017
16	0x39f288d8	0.00046259793
17	0x3c6861d9	0.014183485
18	0x3b2e00d2	0.0026550782
19	0x3bf644fa	0.007515547
20	0x3c037b15	0.0080249505
21	0x3b637eac	0.0034712953
22	0x3b6de59c	0.0036300188
23	0x3c1a3992	0.00941314
24	0x3b9ca9e2	0.004780994
25	0x3c1a625e	0.009422867
26	0x3a81f96c	0.0009916252
27	0x3a2b1cb7	0.0006527411
28	0x3c7f2553	0.015572864
29	0x3ae62e6e	0.0017561445
30	0x3c22fe95	0.009948392
31	0xbb4828e5	-0.0030541953
32	0xbada4eda	-0.001665558
33	0x3ad270e9	0.0016055378
34	0x3beb9e8e	0.007190532
35	0x3ba26120	0.004955426
36	0xbb538045	-0.00322725
37	0x3a60b092	0.0008571233
38	0xbb12cccf	-0.0022399907
39	0x3b77d69a	0.0037817121
40	0x3b91978b	0.004443114
41	0x3b916af7	0.0044378
42	0x3ba00cf4	0.0048843566
43	0x3b7651ae	0.0037585306
44	0x3baeae3c	0.005330829
45	0x3b687b02	0.003547371
46	0xbb48dd89	-0.0030649623
47	0xbbd5d8c6	-0.0065260855
48	0x3ba406d5	0.0050056973
49	0x3c324e14	0.010882873
50	0x3a72f223	0.00092676486
51	0x3c6459bf	0.013937413
52	0x3c2fd7d1	0.010732607
53	0x3c9872aa	0.018609364
54	0x3af8a1cd	0.0018969119
55	0x3b912d07	0.0044304165
56	0x3a1d3883	0.00059974956
57	0x3b99009d	0.0046692626
58	0xbb093a36	-0.0020939237
59	0x3c2c8d75	0.010531773
60	0xbabf0af5	-0.0014575409
61	0x3c4484ef	0.011994584
62	0xbadc951d	-0.0016829107
63	0xbac4cc6f	-0.0015014539
64	0xbb111120	-0.0022135451
65	0x3bb93113	0.005651602
66	0xb886a709	-6.420731e-05
67	0x3b1ef5a0	0.002425529
68	0x3c010bf9	0.00787639
69	0x3c6c1dab	0.01441137
70	0x3b19601a	0.0023403228
71	0x3b861308	0.004091624
72	0x3c41a383	0.011818769
73	0x3bde6d48	0.0067879297
74	0x3bcd264f	0.0062606703
75	0x3c15f759	0.009153211
76	0xbb92feca	-0.0044859396
77	0x3be68b7a	0.00703567
78	0x3b302415	0.0026876975
79	0x3b8162e5	0.0039485567
80	0x3b473e7a	0.003040223
81	0x3c71de27	0.014762438
82	0x3ac7e236	0.0015249911
83	0x3ba4728b	0.0050185374
84	0x3c478e83	0.012179974
85	0x3c6dcb38	0.014513783
86	0x3b1f31fa	0.0024291263
87	0x3ad6fac9	0.0016401644
88	0x3bde58eb	0.006785502
89	0xbb64a8f4	-0.0034890743
90	0x3c072627	0.008248842
91	0xbbcad8ec	-0.00619041
92	0x3c620429	0.013794937
93	0xb96b2b94	-0.0002242758
94	0x3c2f7ea7	0.010711349
95	0x3c66673a	0.014062697
96	0xb8397c3f	-4.422315e-05
97	0xbb1d2bb4	-0.0023982348
98	0x3b876732	0.004132175
99	0x3c108fc5	0.00882334
100	0x39a711df	0.00031866037
101	0xba1dd3f3	-0.00060206576
102	0x3b4e8398	0.0031511541
103	0x3be4eb66	0.0069860695
104	0x3bbb6b29	0.0057195616
105	0x3c36b558	0.011151634
106	0xba91d51b	-0.0011126132
107	0x3ba8348e	0.005133218
108	0x3ab7c201	0.001401961
109	0xb97d295a	-0.00024143365
110	0x3bbe1d0c	0.0058018025
111	0x3c1c5a91	0.009543077
112	0x3aef57b2	0.0018260388
113	0x3c162402	0.009163858
114	0xba851dcf	-0.0010155978
115	0x3a96ca00	0.0011504292
116	0xba1152c8	-0.00055436464
117	0x3c5fe7ee	0.013666136
118	0x3be02256	0.0068400307
119	0x3c160cb5	0.009158303
120	0x3a0aae61	0.00052902667
121	0x393839ca	0.00017569136
122	0x3955644b	0.00020350625
123	0x3aa1e56f	0.0012351702
124	0x3c33ebf0	0.010981545
125	0x3c21e87f	0.009882092
126	0x3acde6a5	0.0015708996
127	0x3bb89057	0.005632441
128	0xbbdcb9e9	-0.0067360294
129	0x3b6a122b	0.0035716395
130	0x3b92f74a	0.0044850456
131	0x3bcd4a5b	0.0062649674
132	0x3bc5207d	0.006015836
133	0x3c2d0f13	0.010562676
134	0x3c04bf3f	0.008102237
135	0xbc500876	-0.01269733
136	0x3ba98cdb	0.005174262
137	0x3bd91266	0.0066245077
138	0xb8f494e2	-0.00011662558
139	0xbb1a7c40	-0.0023572594
140	0xbc058634	-0.008149672
141	0x3bb195c3	0.0054194643
142	0x3c065f46	0.008201426
143	0x3bc3eb88	0.0059790052
144	0x3ac7b738	0.0015237099
145	0x3b9a0b9a	0.00470109
146	0x3c0905be	0.008363185
147	0x3c365749	0.011129209
148	0x3c39b794	0.011335272
149	0x3bcc78ae	0.006239972
150	0x3baa33c3	0.0051941588
151	0x3c3d2b29	0.011545935
152	0x3bfa9a2b	0.007647773
153	0x3b84f8d8	0.004057985
154	0x3bf3bec0	0.0074385107
155	0x3b160333	0.002289009
156	0x3c0d393c	0.008619603
157	0xbb889499	-0.004168105
158	0x3bb0dacf	0.0053971778
159	0x3bed0cbc	0.007234184
160	0x384cbbde	4.8812355e-05
161	0x3c2a47eb	0.010393123
162	0x3b6ed7b2	0.0036444482
163	0xb9bd7274	-0.00036134163
164	0x3be248b3	0.006905639
165	0x3b31e7b8	0.0027146172
166	0x3c564c34	0.013079692
167	0xba55d134	-0.0008156479
168	0xbb356fc0	-0.0027685016
169	0x3bac9504	0.0052667875
170	0xba3a8ac0	-0.0007116012
171	0x3bd44199	0.0064775464
172	0x3c40ca5e	0.011766998
173	0x3a0a83c3	0.0005283916
174	0xbb20978f	-0.0024504398
175	0xbb0e2ef9	-0.0021695478
176	0x3b4c21c1	0.0031148049
177	0x3bfb0f9c	0.007661773
178	0x3bd947b5	0.0066308626
179	0x3bf3d8cf	0.007441617
180	0xba5c147d	-0.0008395387
181	0xbb44535e	-0.0029956917
182	0x3bb04e7b	0.0053804494
183	0x3bd6e723	0.0065583154
184	0x3c0e0841	0.00866896
185	0x3b3bdc09	0.0028665087
186	0x3c33bb43	0.01096994
187	0x3c690b06	0.01422382
188	0x3c1e5397	0.009663484
189	0x3c141533	0.009038257
190	0x3b8005f9	0.003906962
191	0x3811ec33	3.479067e-05
192	0x3becdfe5	0.0072288387
193	0x3a481a9b	0.0007633359
194	0x3b21a17f	0.002466291
195	0x3bb72462	0.005589054
196	0x3c3496b3	0.011022258
197	0xba6e8c4f	-0.0009099887
198	0x3af9fe9d	0.0019073073
199	0xbc485d27	-0.0122292405
200	0x3c14904b	0.009067605
201	0x3b8eafd8	0.0043544583
202	0x3b8c2b92	0.004277655
203	0x3a279fd7	0.00063943624
204	0x3a9e9ace	0.0012100579
205	0x3b971bcb	0.0046114675
206	0x3a0fb2bc	0.00054816506
207	0x3b4e8227	0.0031510682
208	0xbb45a788	-0.003015967
209	0x3bab54c9	0.005228613
210	0x3b0a9dc2	0.002115116
211	0x38750abe	5.8422556e-05
212	0x3c302b82	0.010752561
213	0x391bd947	0.00014862894
214	0x3af827eb	0.0018932795
215	0xbc02dbb3	-0.007986951
216	0xbb071334	-0.0020610811
217	0x3b46fdca	0.0030363672
218	0x3c41714a	0.011806795
219	0x3ba8b6ad	0.00514873
220	0x3c610685	0.0137344645
221	0x3b8fc1fb	0.004387138
222	0x3be6c7d4	0.0070428643
223	0x3beaf524	0.0071703363
224	0x3c274d3c	0.010211285
225	0x3aae4297	0.0013294992
226	0x3c1b0c2f	0.009463354
227	0x3c7729bc	0.015085634
228	0x3c32f39f	0.010922342
229	0xba9ea2f1	-0.0012103004
230	0x3c188ce2	0.009310933
231	0xbb4ad091	-0.003094707
232	0xbc215607	-0.009847171
233	0xbae4fdb0	-0.0017470624
234	0x3b968c5b	0.0045943684
235	0x3b71a7ea	0.0036873766
236	0x3c0008f3	0.007814634
237	0x39e5cff3	0.00043833218
238	0x3c064afe	0.0081965905
239	0xbba4cecb	-0.0050295345
240	0xbc41196b	-0.011785845
241	0x399f5b4f	0.00030394873
242	0xbb199d85	-0.0023439836
243	0xba707005	-0.00091719656
244	0x3c4e34bf	0.012585818
245	0x3c4649d4	0.012102563
246	0xb9fa7b4a	-0.00047775573
247	0xbae17461	-0.0017200821
248	0xbc557e0a	-0.013030538
249	0x3bf783e2	0.0075535635
250	0x3b5702fd	0.0032808178
251	0x3c280f77	0.010257593
252	0x39bf512d	0.0003649084
253	0x3be3c799	0.006951284
254	0x3c142295	0.009041448
255	0x3a8c79f8	0.0010717502

encoder.layers.0.conv.att f4 [1, 1, 32]
0	0xbc8414fb	-0.016123286
1	0xbcf3b658	-0.029750034
2	0xbd370568	-0.04468289
3	0x3eb2c866	0.34918517
4	0xbe226909	-0.1586038
5	0x3bb62ee5	0.0055597895
6	0x3e9bd014	0.3043219
7	0xbe875d87	-0.26438543
8	0xbe8fbc55	-0.28073373
9	0xb9869509	-0.00025669512
10	0xbcdd3e6d	-0.027007306
11	0xbe974925	-0.29547992
12	0xbeb11b44	-0.34591115
13	0x3f16d58e	0.5891961
14	0x3c8d74a4	0.017267533
15	0x3e6b6099	0.22986068
16	0xbc9733b3	-0.01845727
17	0xbd1b432c	-0.037905857
18	0xbd4b33cb	-0.04960994
19	0x3f8d2d69	1.1029483
20	0xbe6b71bc	-0.22992605
21	0x3c61c15f	0.013779013
22	0x3f8d22a8	1.1026201
23	0xbef0aeab	-0.4700826
24	0xbf8fce6a	-1.1234868
25	0x3bbc41c4	0.0057451446
26	0xbc33ac5c	-0.010966387
27	0xbec2fd44	-0.3808385
28	0xbee3f543	-0.44523057
29	0x3fd8f577	1.694991
30	0x3f43732e	0.76347625
31	0x3f5b5a90	0.8568506

encoder.layers.0.conv.bias f4 [16]
0	0xbc799813	-0.015234011
1	0xbcc9cc13	-0.024633443
2	0xbd3200d5	-0.043457825
3	0x3dc44fd2	0.09585537
4	0x3de74ea1	0.11294294
5	0xbd0e1475	-0.034687478
6	0x3e05f2fb	0.13080971
7	0x3f98df0c	1.1943069
8	0xbd4a2fcd	-0.049361993
9	0xbd2edb60	-0.04268968
10	0xbd95ed8e	-0.073207006
11	0x3e5582d6	0.20850691
12	0x3e719875	0.23593314
13	0x3e19f530	0.15034938
14	0x3f70c231	0.9404631
15	0x3df08ee3	0.117460035

encoder.layers.0.conv.linear.weight f4 [16, 16]
0	0xbb9b87a3	-0.0047463938
1	0xbb71909b	-0.0036859873
2	0x3b829be8	0.0039858706
3	0xbb4b116a	-0.0030985721
4	0xba56ef33	-0.00081990956
5	0x3c288b9b	0.010287191
6	0x39da359d	0.00041620145
7	0xbc398d19	-0.011325144
8	0xb88937e9	-6.543083e-05
9	0x3bacd8b4	0.0052748565
10	0x3b902ec9	0.0044001085
11	0xbbcb6138	-0.0062066577
12	0x3a2eae66	0.00066635606
13	0x3bf3221a	0.0074198367
14	0xbbf4471f	-0.0074547674
15	0x3bed4787	0.0072411927
16	0xbb8352f7	-0.004007693
17	0xbbecc412	-0.007225522
18	0x3c0ac84a	0.008470604
19	0xba8c8b71	-0.0010722709
20	0xbad55e2d	-0.0016278677
21	0x3cac3084	0.021019228
22	0x3a93ccac	0.0011276207
23	0xbcb70070	-0.022339076
24	0x397f4bb3	0.00024346895
25	0x3c2dcfbb	0.010608609
26	0x3c139659	0.009008014
27	0xbc2b6ed9	-0.01046344
28	0x391c00b6	0.00014877584
29	0x3c3d548f	0.011555805
30	0xbc64944b	-0.013951371
31	0x3c3c8b69	0.011507847
32	0x3b30b1d2	0.0026961458
33	0xbc13e97b	-0.009027834
34	0x3c95eb0c	0.018300556
35	0x3bc6544f	0.006052531
36	0x39a2a08e	0.0003101867
37	0x3cd779de	0.026303228
38	0xba47fef1	-0.0007629237
39	0xbcf120de	-0.029434618
40	0xbb433760	-0.0029787645
41	0x3c3a41ef	0.011368259
42	0x3c29f930	0.010374352
43	0xbcdd1704	-0.026988514
44	0xbb905a77	-0.0044053155
45	0x3cf22fc1	0.029563786
46	0xbc829ba6	-0.01594336
47	0x3cc24338	0.023713693
48	0xbd6f00ab	-0.058350246
49	0x3bea9690	0.0071590617
50	0xbdac3c1e	-0.08409904
51	0xbd2dc412	-0.042423315
52	0xbc9204ff	-0.017824648
53	0xbf258914	-0.6466229
54	0xbbb57961	-0.005538151
55	0x3f091a9a	0.53556216
56	0xbe7c035b	-0.24610655
57	0xbf31cd47	-0.69453853
58	0xbee24e0a	-0.44200164
59	0x3d6baf98	0.057540506
60	0xbd776d64	-0.060407057
61	0xbd82da1a	-0.06389256
62	0x3f325bfb	0.696716
63	0xbd5b48a4	-0.053536072
64	0x3d0264c4	0.03183438
65	0xbd30471c	-0.043036565
66	0x3d91546b	0.070961796
67	0x3d2325c7	0.03983095
68	0xbcbb0716	-0.022830527
69	0x3ddbccc7	0.107324176
70	0x3ca8f2b3	0.02062354
71	0xbde90239	-0.11377377
72	0x3c97976e	0.018504824
73	0x3d6d53a8	0.05794111
74	0x3d473241	0.04863191
75	0xbd44e946	-0.04807403
76	0xbcc91e4a	-0.024550576
77	0x3d445024	0.04792799
78	0xbd8f4e84	-0.069973975
79	0x3d85fab8	0.065419614
80	0xbbb2ae6c	-0.0054529216
81	0x3b258358	0.002525529
82	0xbbc0d8f9	-0.00588524
83	0xbba3d4dc	-0.00499974
84	0x3aa148aa	0.0012304981
85	0xbbfa6f52	-0.007642665
86	0xbaf9b087	-0.0019049802
87	0x3c047900	0.008085489
88	0xba971559	-0.0011526748
89	0xbba1e983	-0.004941167
90	0xbb852aa7	-0.0040639224
91	0xbb28c367	-0.0025751234
92	0x3a968e70	0.0011486541
93	0x3b6a7d47	0.0035780238
94	0x3bc3b1a8	0.005972106
95	0xb9c1e891	-0.00036985104
96	0xbd0370ef	-0.032090124
97	0x3aa78dcb	0.0012783346
98	0xbd9bb9ee	-0.07603823
99	0x3ce9d6e2	0.028544847
100	0xbd15a2c8	-0.036532193
101	0xbf2d7c16	-0.67767465
102	0x3b6b4aea	0.0035902807
103	0x3f108785	0.56456786
104	0xbe89a827	-0.26886103
105	0xbf36e5bb	-0.7144429
106	0xbee4ad6d	-0.44663563
107	0x3d14e07a	0.03634689
108	0xbe09e92b	-0.13467853
109	0xbce2dbff	-0.027692793
110	0x3f3a9d02	0.72895825
111	0xbd9d8d03	-0.076929115
112	0xbd360575	-0.044438798
113	0xbe533d73	-0.2062891
114	0xbdb1f468	-0.08689195
115	0xbcec070d	-0.028811956
116	0xbda9360a	-0.0826226
117	0x3eed60f3	0.4636303
118	0x3dddf14f	0.108370416
119	0xbf05a995	-0.52211887
120	0xbd667d99	-0.056272123
121	0x3e0d257d	0.13783832
122	0x3dd9f5d9	0.10642595
123	0x3d536473	0.051609468
124	0xbd223969	-0.03960553
125	0xbd4aade5	-0.049482245
126	0xbe53cbd5	-0.20683224
127	0xbd6b15d3	-0.05739386
128	0x3cb63f41	0.022246959
129	0xbdd7b48c	-0.105324835
130	0xbcee765b	-0.02910917
131	0x3ca9b3aa	0.020715553
132	0xbd10fbd4	-0.035396412
133	0x3f803a34	1.0017762
134	0x3d9b80cf	0.07592928
135	0xbf6d43d4	-0.9268162
136	0x3e6991dc	0.22809547
137	0x3f5adc49	0.8549238
138	0x3f0e97f5	0.5570062
139	0x3ceb579c	0.028728299
140	0x3c88872e	0.016666021
141	0xbc18ffbe	-0.009338317
142	0xbf5d8e01	-0.86544806
143	0xbd924e59	-0.0714385
144	0xba3a3045	-0.00071025296
145	0x3a7e348d	0.0009697162
146	0x3c07ab11	0.0082805315
147	0xbaef50e0	-0.0018258356
148	0x3a97d2f5	0.0011583256
149	0xbb545f5a	-0.0032405467
150	0xba81d484	-0.0009905254
151	0x3b386dab	0.002814154
152	0xbad3f38f	-0.0016170609
153	0xbb29dd1e	-0.002591915
154	0xbaef5f44	-0.0018262644
155	0x3a8cba64	0.0010736701
156	0x3afe2c27	0.001939182
157	0xba87cbce	-0.0010360421
158	0x3b406dff	0.0029362438
159	0x3bf46967	0.007458854
160	0x3cbbd7f4	0.022930123
161	0xbaf95728	-0.0019023167
162	0x3d099fbb	0.033599596
163	0x3cb27bb5	0.021787504
164	0x3be2d92c	0.0069228616
165	0x3b5a4e2c	0.0033310754
166	0xbbbe61cf	-0.0058099995
167	0xbbf2f844	-0.0074148495
168	0xbc30a6f9	-0.010781997
169	0xbbbde2ff	-0.0057948823
170	0xbafeff7b	-0.0019454801
171	0xbd533016	-0.05155953
172	0xbc85a158	-0.016312286
173	0x3d623a87	0.055231597
174	0x3b0f84b1	0.0021899159
175	0x3d272fe8	0.04081717
176	0x3d92b3dc	0.07163212
177	0xbd937c61	-0.07201458
178	0x3e06328e	0.13105223
179	0x3daebe52	0.085323945
180	0xbd2bd7fe	-0.041954033
181	0x3e2d2b5f	0.16911076
182	0x3d117c9e	0.035519235
183	0xbe38c347	-0.18043242
184	0x3d00580a	0.03133396
185	0x3db81416	0.08988206
186	0x3d9ce0a5	0.07660035
187	0xbdc28e74	-0.09499827
188	0xbd6545e2	-0.05597485
189	0x3dc25d7c	0.09490487
190	0xbde1c250	-0.1102339
191	0x3dfc84e6	0.12330036
192	0x3dad0559	0.084482856
193	0xbda43d43	-0.08019497
194	0x3e10c7e7	0.14138757
195	0x3dcca1bd	0.09991787
196	0xbd3f7d64	-0.04675044
197	0x3e49ff5f	0.19726323
198	0x3d1c0ff4	0.03810115
199	0xbe57db90	-0.2107985
200	0x3d19a46d	0.037510324
201	0x3dd38eb3	0.10329952
202	0x3dbc1df3	0.091854
203	0xbde055ec	-0.10953888
204	0xbd87801e	-0.06616233
205	0x3ddfecb8	0.109338224
206	0xbe018264	-0.12647396
207	0x3e0b06ab	0.13576762
208	0xbc3aa74a	-0.011392424
209	0xbcb44088	-0.022003427
210	0xbd7686c5	-0.06018712
211	0x3be464f4	0.0069700424
212	0xbda848b0	-0.08216989
213	0xbf9eb736	-1.2399662
214	0x3c7c019c	0.015381243
215	0x3f86021e	1.0469396
216	0xbed2efdd	-0.41198626
217	0xbfa3c863	-1.2795528
218	0xbf428d40	-0.7599678
219	0x3d7a71a8	0.061143547
220	0xbe226ccf	-0.1586182
221	0xbd555e93	-0.052092146
222	0x3fa48700	1.2853699
223	0xbdb2d19f	-0.08731388
224	0x3dab838c	0.083747
225	0xbe47811c	-0.19482845
226	0x3d7f60c0	0.062348127
227	0x3decc98e	0.11561881
228	0xbe22ffd1	-0.15917899
229	0xbf0f872d	-0.56065637
230	0x3ddf281c	0.10896322
231	0x3ee90b56	0.4551646
232	0xbeab791b	-0.33490834
233	0xbf7ff860	-0.99988365
234	0xbf2359ea	-0.6380907
235	0xbd98c45f	-0.0745933
236	0xbe7e9826	-0.24862728
237	0x3da552a1	0.08072401
238	0x3f7e14ec	0.99250674
239	0x3d6dad4b	0.058026593
240	0xbca8bca7	-0.020597769
241	0xbc6657f3	-0.014059055
242	0xbd178b43	-0.036998045
243	0xbca122cc	-0.019669913
244	0xbcc72e7d	-0.02431416
245	0xbef3bb1e	-0.47603697
246	0x3ca306bc	0.019900672
247	0x3eca8bd0	0.39559793
248	0xbe4496fe	-0.19198224
249	0xbef9e3bd	-0.48806563
250	0xbea6f964	-0.32612145
251	0x3d2109a6	0.039315842
252	0xbd7ecb8f	-0.062205847
253	0xbd055384	-0.03255035
254	0x3efa3d61	0.48874953
255	0xbcab35dd	-0.020899707

encoder.layers.0.conv.linear.bias f4 [16]
0	0x3b5e08cc	0.0033879755
1	0x3bc0c180	0.005882442
2	0xbca99ab4	-0.020703651
3	0x3d955752	0.07292046
4	0x3aa526d4	0.0012600073
5	0xbac9abc7	-0.0015386277
6	0x3e24080e	0.16018698
7	0xbd3e087b	-0.046394806
8	0x3e0fa0b5	0.14026149
9	0x3c9eedd2	0.019400511
10	0xbd2d2f56	-0.04228147
11	0xbd769ad4	-0.06020625
12	0xbdcbd358	-0.0995242
13	0x3e63d6ce	0.2224991
14	0xbe80f2dd	-0.2518529
15	0x3d8ec56f	0.06971251

encoder.layers.0.conv_e.weight f4 [1000, 16]
0	0xbb1ebe1d	-0.0024222203
1	0x3312c6b3	3.417399e-08
2	0x88a577d5	-9.958749e-34
3	0xbb1f5839	-0.002431406
4	0xbb919519	-0.0044428227
5	0x310454aa	1.9256654e-09
6	0x3164b34b	3.3280283e-09
7	0x0932cde9	2.152279e-33
8	0x31f462ed	7.112581e-09
9	0xbba652a1	-0.005075768
10	0x334a9542	4.716754e-08
11	0xb6161d58	-2.2368822e-06
12	0xbba53fdc	-0.005043013
13	0xb1f25016	-7.0522317e-09
14	0xbb0d327f	-0.002154499
15	0xbb7eb28b	-0.0038863744
16	0x3932e3a7	0.0001706021
17	0x32ffb20d	2.9766875e-08
18	0x088203ce	7.824985e-34
19	0xba9b1aa7	-0.0011833505
20	0x39bb03c7	0.00035670234
21	0x31cd2e24	5.971531e-09
22	0xb20886ae	-7.9468645e-09
23	0x8934a0c6	-2.1742307e-33
24	0x30d45b5b	1.5450995e-09
25	0xb95a824b	-0.00020838638
26	0x32ba92a8	2.1719941e-08
27	0x35f9221a	1.856187e-06
28	0xba38a83a	-0.00070441107
29	0x2fa505ae	3.001736e-10
30	0xba0a55a6	-0.0005277045
31	0xb9d19757	-0.00039976343
32	0xba08b1e6	-0.0005214497
33	0x322d9a99	1.0105077e-08
34	0x884d14f9	-6.1714597e-34
35	0xba91d285	-0.0011125362
36	0xba1f323e	-0.00060728553
37	0x31b9a446	5.4028844e-09
38	0xb2bb1025	-2.1777007e-08
39	0x88803474	-7.716051e-34
40	0x32891d02	1.596209e-08
41	0xbb0f5498	-0.002187049
42	0x3330fba2	4.1207052e-08
43	0xb50f6cb0	-5.342981e-07
44	0xbb074d7f	-0.0020645557
45	0x31b0f57c	5.1501825e-09
46	0xb9b84aac	-0.0003515085
47	0x395b7a4e	0.0002093103
48	0xbac1ec08	-0.0014795074
49	0x32d2c5b4	2.4537123e-08
50	0x8896c446	-9.07394e-34
51	0xbab56bec	-0.0013841367
52	0xbac34253	-0.0014897085
53	0xb079dcc5	-9.0899405e-10
54	0xb197d5b8	-4.4189754e-09
55	0x08f28e69	1.4598326e-33
56	0x321b054a	9.02339e-09
57	0xbaf2be5a	-0.0018519864
58	0x3300bee3	2.9975933e-08
59	0x34c63af4	3.6923268e-07
60	0xba672427	-0.0008817338
61	0x30e685d7	1.6772742e-09
62	0xbaa1b737	-0.0012337927
63	0xba3795cf	-0.0007003219
64	0xbb37742f	-0.0027992835
65	0x3372124a	5.636165e-08
66	0x8843f122	-5.896413e-34
67	0xbb562d4d	-0.003268081
68	0xbb5d86a0	-0.0033802167
69	0x31a39fc3	4.762087e-09
70	0xb24522f6	-1.1474858e-08
71	0x090c0181	1.6852594e-33
72	0xb2035489	-7.644425e-09
73	0xbb9a13e3	-0.0047020777
74	0x334beb23	4.7478476e-08
75	0x3558cf8e	8.07683e-07
76	0xbb5cd3ce	-0.0033695581
77	0xb383fa58	-6.1457e-08
78	0xbb670f1e	-0.0035256813
79	0xbb3a0902	-0.0028386717
80	0xba190ad8	-0.00058381027
81	0x33337d4a	4.1790635e-08
82	0x08e603bf	1.3843502e-33
83	0xba8500c0	-0.0010147318
84	0xba40db58	-0.00073569035
85	0x3233be73	1.0462474e-08
86	0xafdead9d	-4.0504924e-10
87	0x889c5c08	-9.410545e-34
88	0x319bd258	4.535007e-09
89	0xbaed50dd	-0.0018105764
90	0x32c437e8	2.2842826e-08
91	0x362af1fd	2.547283e-06
92	0xbb268908	-0.0025411267
93	0x2f3ad179	1.6991021e-10
94	0xbaad94ca	-0.0013243195
95	0xba8a4aa8	-0.0010550814
96	0xbabe4d2d	-0.001451885
97	0x33c76daf	9.286611e-08
98	0x883944a7	-5.5752113e-34
99	0xbb6237f2	-0.003451821
100	0xbb7dba6f	-0.003871586
101	0xb1e3fcc5	-6.635306e-09
102	0xb2c30209	-2.2701913e-08
103	0x08d8a4af	1.3038744e-33
104	0x32aff338	2.0483284e-08
105	0xbb9040f8	-0.004402276
106	0x33822036	6.059456e-08
107	0xb51f83ed	-5.9424093e-07
108	0xbba4e6f0	-0.0050324127
109	0x33766119	5.7364648e-08
110	0xbab5f00c	-0.0013880744
111	0xbb2dc058	-0.002651235
112	0xbb307413	-0.0026924654
113	0x34163f93	1.3992967e-07
114	0x07a47cb6	2.4749276e-34
115	0xbb191b07	-0.0023362057
116	0xbb7151bb	-0.0036822397
117	0x3149aa81	2.934627e-09
118	0xb2245362	-9.5650154e-09
119	0x085ece18	6.7047957e-34
120	0x3298b891	1.777906e-08
121	0xbb64eabf	-0.0034929959
122	0xb30c39d9	-3.2648902e-08
123	0x353b3c29	6.9750473e-07
124	0xbb794417	-0.003803497
125	0x32f4f4db	2.8516686e-08
126	0xba52811e	-0.0008030104
127	0xbb1df02d	-0.0024099455
128	0xba8d4332	-0.0010777472
129	0x33267a81	3.8761304e-08
130	0x08829e2f	7.861279e-34
131	0xbb0658b8	-0.0020499658
132	0xbaa5b2e8	-0.0012641819
133	0xb13149e0	-2.5798883e-09
134	0x31b6e139	5.322502e-09
135	0x07f65cc4	3.706849e-34
136	0x3230ce63	1.0291475e-08
137	0xbb4a6bf4	-0.00308871
138	0x324e8fb3	1.2023452e-08
139	0xb5da21c6	-1.6252095e-06
140	0xbacc1fac	-0.0015573404
141	0xb26fc565	-1.3956513e-08
142	0xba348d94	-0.0006887552
143	0xbab50c5f	-0.0013812891
144	0x39ca0995	0.00038535582
145	0x335ca885	5.137601e-08
146	0x890e0bfc	-1.7098263e-33
147	0xbb0b2f3b	-0.0021237868
148	0xb93e0c3c	-0.0001812437
149	0xb0269428	-6.060099e-10
150	0xb5e56ee8	-1.7094108e-06
151	0x09582682	2.601816e-33
152	0xb188445b	-3.965892e-09
153	0xbb29a0db	-0.002588323
154	0xb431f614	-1.6573932e-07
155	0x35061d0c	4.996116e-07
156	0xbab29c07	-0.0013626822
157	0x30fa0bac	1.8193211e-09
158	0xbab5303b	-0.0013823578
159	0xbb1498cf	-0.0022674089
160	0xbb8869f0	-0.0041630194
161	0x33abfcbf	8.008782e-08
162	0x88a41765	-9.875891e-34
163	0xbb8f83de	-0.0043797335
164	0xbba061c0	-0.004894465
165	0x31bb24f4	5.4466174e-09
166	0x32d7ef4f	2.513812e-08
167	0x088cd2f8	8.475542e-34
168	0xb2a88401	-1.9617802e-08
169	0xbbe6966f	-0.007036976
170	0x32ecb8f7	2.7558128e-08
171	0x352649ae	6.1947037e-07
172	0xbbb073b2	-0.0053848857
173	0xb2989ad3	-1.7765535e-08
174	0xbb710f59	-0.003678283
175	0xbb9431cb	-0.0045225373
176	0xbb165bc5	-0.0022942882
177	0x33efda33	1.1168995e-07
178	0x889e3393	-9.521404e-34
179	0xbb1eaa7c	-0.0024210503
180	0xbb471466	-0.0030377149
181	0xb07f12cc	-9.279517e-10
182	0x3126da71	2.4280349e-09
183	0x880bef52	-4.211011e-34
184	0x32a2aca8	1.8937797e-08
185	0xbb80c3e5	-0.0039296024
186	0x3193ba5a	4.299449e-09
187	0x34992da4	2.853168e-07
188	0xbbb68a8d	-0.0055707158
189	0xb1ea82ba	-6.825158e-09
190	0xbb4c8a95	-0.003121053
191	0xbb9338e3	-0.0044928654
192	0xbada5629	-0.0016657758
193	0x33639964	5.2992064e-08
194	0x08abdc82	1.0343529e-33
195	0xbb05a85f	-0.0020394546
196	0xbafaf7e9	-0.0019147369
197	0x3065e160	8.362999e-10
198	0xb23d6ca5	-1.1025951e-08
199	0x08ac476a	1.0368663e-33
200	0xb1e68497	-6.7089547e-09
201	0xbb50fe9d	-0.0031890043
202	0xb3cf3ec4	-9.650606e-08
203	0xb5964906	-1.1197124e-06
204	0xbb3c486a	-0.0028729686
205	0x31a8d5b9	4.913741e-09
206	0xbab2d8c7	-0.0013644927
207	0xbabebc22	-0.0014551918
208	0xbab8772c	-0.0014073602
209	0x3421ea57	1.5079546e-07
210	0x888b2643	-8.3747535e-34
211	0xbab6652e	-0.0013915652
212	0xbb33fa55	-0.0027462442
213	0xb09838b3	-1.107557e-09
214	0x361ab6ff	2.3054306e-06
215	0x08ba4bdc	1.1212302e-33
216	0xb1848f86	-3.8580223e-09
217	0xba58adbc	-0.00082656345
218	0x32cc3a15	2.3775138e-08
219	0xb56b0e67	-8.756528e-07
220	0xbb3072e5	-0.0026923951
221	0xb276c69d	-1.4364244e-08
222	0xbaab7959	-0.0013082429
223	0xbb514629	-0.0031932688
224	0x3ad0235b	0.0015879677
225	0xb2dac4e1	-2.546807e-08
226	0x8782a460	-1.9656837e-34
227	0xbafc2261	-0.001923632
228	0xbab569e4	-0.0013840762
229	0xb11ad316	-2.2529938e-09
230	0x32398036	1.0797569e-08
231	0x078cca04	2.1183593e-34
232	0xb24d87fb	-1.1963489e-08
233	0xbac72184	-0.0015192484
234	0xb30c4e75	-3.2667646e-08
235	0x351e2dc0	5.892616e-07
236	0xbab66789	-0.0013916354
237	0xb199d801	-4.477443e-09
238	0xba6ea673	-0.00091037824
239	0x3a63654c	0.0008674457
240	0xbaf2d54f	-0.0018526706
241	0xb373123f	-5.659444e-08
242	0x87cb7574	-3.0613078e-34
243	0xbacdb855	-0.0015695194
244	0xba4134ab	-0.0007370214
245	0x30e4312a	1.6603157e-09
246	0x318d819d	4.1183754e-09
247	0x087af8f1	7.5524268e-34
248	0xb2ac90f4	-2.0089352e-08
249	0xbb35c226	-0.002773413
250	0xb3b61d94	-8.480416e-08
251	0xb42842b4	-1.5670486e-07
252	0xba551786	-0.00081288104
253	0xb257a553	-1.25522375e-08
254	0xbaecd234	-0.0018068017
255	0xbb29d2c9	-0.0025912991

encoder.layers.0.conv_e.bias f4 [16]
0	0x3eafc374	0.34328806
1	0xb50bb27a	-5.204125e-07
2	0xb5707273	-8.957351e-07
3	0x3ede7de6	0.43455428
4	0x3efbff02	0.49217993
5	0xb597501e	-1.1273694e-06
6	0xb432c76f	-1.6650095e-07
7	0xb7aeca3a	-2.0836585e-05
8	0xb5992173	-1.1409123e-06
9	0x3f0a6d14	0.5407269
10	0xb4fb36f3	-4.6792374e-07
11	0xbac03f06	-0.001466722
12	0x3efb295a	0.49054986
13	0xb5a1bdd9	-1.2050688e-06
14	0x3eba1462	0.36343676
15	0x3efbbfac	0.49169672

decoder.scale f4 [2]
0	0x3f1ecdcf	0.6203279
1	0x3f4fffce	0.812497

decoder.point f4 [2, 16]
0	0xb7cce075	-2.4423216e-05
1	0xbd56296d	-0.0522856
2	0x3b186f2e	0.0023259628
3	0x3e007b4e	0.12547037
4	0x3c197d2f	0.009368225
5	0x3ae047d0	0.0017111246
6	0x3d82d0a3	0.063874505
7	0x3e4647f4	0.19363385
8	0x3e031a88	0.1280309
9	0x383ce25d	4.503351e-05
10	0xbbe050f3	-0.0068455874
11	0x3c624d53	0.013812381
12	0x3b92875c	0.0044717025
13	0x3d0d42a0	0.034487367
14	0xbce80b83	-0.028325802
15	0x3dc18cbf	0.09450673
16	0xb81e0167	-3.767144e-05
17	0x38f7082f	0.00011779402
18	0x39e362b0	0.00043370342
19	0x3e48ae6c	0.19597787
20	0x3ab02d8f	0.0013441312
21	0x3ac6fa7d	0.0015180852
22	0x3e2143b1	0.15748478
23	0x3e79a4ef	0.24379323
24	0x3daa71ba	0.08322473
25	0x384c63a8	4.8730202e-05
26	0x3c89c0f9	0.01681565
27	0x3bcb55ba	0.0062052878
28	0xb9b4c19d	-0.00034476529
29	0x3dda81d1	0.10669292
30	0x3d1b682c	0.037941143
31	0x3dce686d	0.100785114

decoder.tangent f4 [2, 16]
0	0xb7f87638	-2.9618954e-05
1	0x3c90886a	0.017643172
2	0x39eb2a55	0.00044854233
3	0x3e29d35e	0.16584536
4	0xbce220c2	-0.02760351
5	0xbb9afd39	-0.0047298935
6	0x3e2845ee	0.16432926
7	0xbe5a11f8	-0.21295917
8	0xbebcfbd2	-0.36910874
9	0x37542e46	1.2646959e-05
10	0xbd4a7c49	-0.049434934
11	0xbd6e1991	-0.05812985
12	0xbda6bcbb	-0.08141466
13	0x3ea2898c	0.31745565
14	0x3efd0eff	0.49425504
15	0x3d91e6a8	0.07124072
16	0x389f1c2b	7.5869575e-05
17	0xb94f669b	-0.00019779282
18	0x39033b17	0.00012515146
19	0xbdc09787	-0.094039015
20	0x3ccf66cb	0.02531757
21	0x3a9e32b6	0.0012069556
22	0xbdce6ed5	-0.10079733
23	0x3e30358b	0.17207925
24	0x3ebeb9ce	0.37251133
25	0x36c66293	5.9123354e-06
26	0x3d0f1fb1	0.034942333
27	0x3d6718a9	0.056420002
28	0x3d3e3139	0.04643366
29	0xbec3e2da	-0.38259012
30	0xbf3e3b63	-0.74309367
31	0xbd6b8d5c	-0.057507858

decoder.cls.weight f4 [16, 2]
0	0xbe7d79e7	-0.24753533
1	0x3e7cbb58	0.24680841
2	0xb5b56ccf	-1.3517218e-06
3	0xb763e240	-1.3582932e-05
4	0x8b3ba173	-3.613635e-32
5	0x0b823f35	5.016928e-32
6	0xbea05dbb	-0.3132151
7	0x3ea04558	0.31302905
8	0xbeb70eb3	-0.35753402
9	0x3eb5b8e6	0.3549263
10	0x346682c6	2.1467994e-07
11	0x3433fdf5	1.6763063e-07
12	0xb50df59b	-5.2883996e-07
13	0x35462c78	7.382546e-07
14	0x8a26ac3d	-8.025004e-33
15	0x0b50094f	4.0066346e-32
16	0x35f9b238	1.8603814e-06
17	0xb5e9aff3	-1.7411061e-06
18	0xbec6e99c	-0.38850105
19	0x3ec6daa4	0.38838685
20	0xb320dd46	-3.745415e-08
21	0xb6aa41a1	-5.074035e-06
22	0x380f7e57	3.421152e-05
23	0xb54ce42c	-7.6327956e-07
24	0xbebb3565	-0.36564174
25	0x3eb9cd4a	0.36289436
26	0xb4b0bbd1	-3.291921e-07
27	0x345c0958	2.0492496e-07
28	0xbe8a2eda	-0.2698887
29	0x3e8ae056	0.2712428
30	0xbeb83193	-0.35975322
31	0x3eb7b3f0	0.3587947

decoder.cls.bias f4 [2]
0	0xbd6f10d3	-0.058365654
1	0x3d6f10d3	0.058365654

decoder.w_e.weight f4 [1, 16]
0	0x3d81ed78	0.06344122
1	0xb73e3c77	-1.1338961e-05
2	0x09c2ef6c	4.6928952e-33
3	0xbd4521ad	-0.04812782
4	0xbccc3d32	-0.024931524
5	0x355e2711	8.2758294e-07
6	0xb5f7e9d6	-1.8470989e-06
7	0x088e6256	8.569433e-34
8	0xb6b8b195	-5.5043006e-06
9	0xbd2a7710	-0.041617453
10	0xb682de94	-3.9002134e-06
11	0xb84577a6	-4.707989e-05
12	0xbcc22735	-0.023700336
13	0x3544854e	7.3209674e-07
14	0x3c01bc57	0.007918439
15	0xbd469a1d	-0.048486818

decoder.w_h.weight f4 [1, 16]
0	0xbbfe1cfe	-0.007754921
1	0xbc9fa3f0	-0.019487351
2	0xbbf40045	-0.007446321
3	0x3f05d7ac	0.52282214
4	0xbe8abaca	-0.27095634
5	0xbc019319	-0.007908606
6	0x3edd6851	0.4324365
7	0x3d8727c7	0.06599384
8	0x3eb48330	0.35256338
9	0xbb696b3f	-0.0035616902
10	0xbd0c33ab	-0.034228962
11	0xbf1b3426	-0.6062645
12	0xbf286b71	-0.6578894
13	0x3e99f062	0.3006621
14	0xbd03bdc8	-0.03216341
15	0x3e6a6adb	0.22892325
