logs/nc/2020_1_18/12/model.pth (torch_old, 480289 bytes, 15 tensors)

encoder.layers.0.hy_linear.bias f4 [16]
000000 2a 8d 1b be 6e a6 a1 3e 80 34 2b 3e d0 43 34 3f
       -0.15190569 0.31572288 0.16719246 0.70415974
000010 54 11 f3 3e fb 09 39 be 7a 89 fd 3e c9 25 2c 3e
       0.47474158 -0.18070213 0.4951895 0.16811289
000020 df 5b c5 be 2d 30 26 bc 92 44 85 3d ce 74 e4 3e
       -0.38546655 -0.010143322 0.065072194 0.44620365
000030 74 39 54 bf 33 96 ec 3c 09 cf 92 3c f9 9d 06 3f
       -0.82900167 0.028880214 0.017920988 0.525848

encoder.layers.0.hy_linear.weight f4 [16, 3703]
000000 e4 55 90 3d 23 1a 54 3d 36 a6 3f 3d 0a 55 ae bc
       0.07047632 0.05178274 0.04678937 -0.021280784
000010 d6 b3 e9 3d b9 2c 0b bd 87 b6 76 3c a8 ac e8 3c
       0.11411254 -0.033978198 0.015058166 0.028402641
000020 c1 32 0e bd 2a ac ca 3d 11 32 1c 3c c8 62 83 3c
       -0.03471637 0.09896119 0.009533421 0.016038314
000030 cc 6a 57 bc d1 35 3c 3d ff b6 0c bd 95 e2 a5 3c
       -0.013148021 0.04594976 -0.034354206 0.020249644
000040 b3 b6 d4 bc e7 e5 13 bd 69 44 ce bd 1a 55 be bd
       -0.025966024 -0.036107924 -0.10071642 -0.092935756
000050 92 a5 79 3d 42 e0 d1 3c 37 5f da bd cf 56 02 3d
       0.060948916 0.02561963 -0.10662692 0.03182107
000060 7f 08 5d 3d 4d cd 0c bd 00 61 71 bc 66 c4 92 bc
       0.05396318 -0.034375478 -0.014732599 -0.017915916
000070 23 8d c9 3c 8b 62 94 3c 5a 12 ef bd 20 1c 3e bc
       0.024603432 0.018113395 -0.11673422 -0.011603385
000080 d1 6f 55 bd 75 1b ca bd f3 99 ad 3d d1 93 6c 3d
       -0.05210859 -0.09868518 0.08476629 0.057758156
000090 84 f8 58 3d c2 1a c3 3d 03 14 0c bd c8 1a 9d 3d
       0.052971378 0.09526588 -0.034198772 0.07671124
0000a0 b9 8c 23 be 05 96 2c 3c 2d 10 7e 3c 4e 42 4d 3c
       -0.1597165 0.010533814 0.015506786 0.012528015
0000b0 c1 62 a0 bd bc 25 18 3d 45 b9 8d 3d c3 1a 8c bd
       -0.07831336 0.03714536 0.06920103 -0.06841042
0000c0 7a 6c 0b 3d c8 58 de 3d 97 19 0a 3d 20 ff ec 3d
       0.034039 0.108567774 0.03371581 0.11572099
0000d0 82 c1 a4 bd ee 29 bd 3d 91 be 3e 3d ff 57 a8 3c
       -0.08044721 0.09236513 0.046568457 0.020549772
0000e0 de 7d 0f 3e a9 e8 94 bc fb 0b 7b bd b4 81 4d 3d
       0.14012858 -0.018177347 -0.061290722 0.050172523
0000f0 4e a9 52 bc a8 d2 eb 3d 58 dd 96 bc 84 5a 0e 3d
       -0.012857748 0.11514789 -0.018416092 0.03475429
000100 be 81 93 3c c0 0c 37 bd 2c ce ab bd a3 b3 89 3c
       0.018006202 -0.044689894 -0.083889335 0.01680929
000110 46 5e 1e 3d 1d 77 ea 3d 96 83 89 bc 86 3b ff 3c
       0.038664125 0.114485 -0.016786378 0.031156313
000120 ac fa 53 bd e7 b8 ad 3d 69 5f 29 3d 3a a2 06 3c
       -0.05175273 0.08482533 0.041350756 0.008217389
000130 78 2f 2c bc ea 8f a4 3d 21 1a 8c 3d b9 59 be bc
       -0.010509364 0.08035262 0.06840921 -0.023236142
000140 fb 3b 31 3b 5f 45 e6 3d 40 ef 03 be ac 88 91 bc
       0.0027043808 0.112437 -0.12884235 -0.017765366
000150 66 7c b9 bc be 9a 0b bd f3 d6 c5 bb d2 00 bc 3c
       -0.022642326 -0.03408312 -0.006037587 0.02294961
000160 2b 1c 62 3d 1b b6 48 3d 08 45 ce 3d 9b fb 15 bc
       0.055202644 0.049001794 0.100717604 -0.009154226
000170 03 e2 ab 3c d9 47 3d 3d d0 8a bf 3b c4 4e 55 3d
       0.020981794 0.046211097 0.005845405 0.05207707
000180 93 e7 bb bd db 1a 84 ba 03 b3 7e 3d be 4c 67 3c
       -0.09175029 -0.0010078804 0.062182438 0.014117418
000190 db 6e a7 bb fd df e7 3d 1e 76 5f 3d 24 d8 75 3d
       -0.0051096505 0.11322019 0.054556005 0.06002058
0001a0 34 37 2e bd 47 31 90 bd f2 7e 52 bd 1d f5 08 3e
       -0.042533115 -0.07040649 -0.051390596 0.13374753
0001b0 8a f0 e9 bc eb 8f c2 bd 19 ef 81 3d eb 11 23 bd
       -0.02855708 -0.095001064 0.063444324 -0.03981201
0001c0 3c 79 f7 3d 06 0e 6a 3c 3c 37 fd 3d 9a 3b 7d bc
       0.120836705 0.01428557 0.12364051 -0.015456105
0001d0 b4 af 1d 3d 78 14 05 3d 8e fa 13 bd ff 6f 40 3d
       0.03849764 0.032490224 -0.03612762 0.046981808
0001e0 09 5e 14 3e 52 a2 11 3e 7e ce b6 3d ea 5d 40 bd
       0.14488997 0.14222077 0.08926104 -0.046964563
0001f0 a1 8f ba 3c 38 2b 1c 3d d1 b7 22 bd 25 dd 41 3c
       0.022773566 0.038127154 -0.039726082 0.01183251
000200 74 15 02 be fe ae 72 3d bb e1 3e 3e 34 bb 08 bb
       -0.12703496 0.059248917 0.18640797 -0.0020863535
000210 b4 48 da 3d 02 ec e3 bc ed 89 3f 3c c5 6d f0 3d
       0.10658398 -0.027822498 0.011690599 0.11739687
000220 79 14 6b 3d 93 f0 0c bc a6 b7 b4 bd 0c de 0e 3c
       0.05739257 -0.008602279 -0.08824091 0.008719932
000230 8f 3b 6d bd be 19 ed bd 09 de 97 3d 92 21 e2 3c
       -0.057918128 -0.115771756 0.07415397 0.027603898
000240 49 1e 41 bd 97 63 a2 bc e8 e1 77 bd 13 51 69 bc
       -0.047148023 -0.019822879 -0.060518175 -0.014240521
000250 87 ae c9 3d a4 11 88 bd a2 f5 e8 3b 04 2b 49 bd
       0.098477416 -0.0664399 0.00710936 -0.04911329
000260 e0 49 ca bd 90 a4 01 3e e2 a4 01 bd b5 ba 1d 3e
       -0.09877372 0.12660432 -0.031651385 0.15403254
000270 90 17 e2 3b 16 a1 df bc e8 65 92 3d e2 8e a3 3d
       0.0068997815 -0.027298491 0.07148343 0.07986237
000280 f6 4d 02 3e 41 3a 65 3d 88 aa 6f bd ea df 00 3e
       0.12725052 0.05596376 -0.05851224 0.12585416
000290 cb 8b ec 3d 0e 7e 1a 3d 6b b6 22 bd c5 5d 17 bd
       0.11550101 0.03771787 -0.03972475 -0.03695466
0002a0 ea fe a5 bc 81 1f e2 3d b2 bc a6 bc a2 a1 47 3c
       -0.020263154 0.11041165 -0.020353649 0.012184532
0002b0 40 9b ba 3d 80 23 80 3c 9b ca c7 bd 65 a6 fd bc
       0.09111643 0.015641928 -0.09755441 -0.030963132
0002c0 bf ca 35 bd d8 89 c4 bd 51 9a ae 3c d9 18 2c 3d
       -0.044382807 -0.09596604 0.021313818 0.042015884
0002d0 66 85 98 3c bb d4 96 3d 29 88 5a bd de 44 e3 bc
       0.018618297 0.07364794 -0.05335251 -0.0277428
0002e0 f7 22 19 3e e6 c4 0e be bc 84 83 3d d1 e9 2f 3b
       0.14954744 -0.13942298 0.064218014 0.0026842246
0002f0 18 e8 07 3c 01 98 86 3c 47 59 37 be 08 cb 00 3d
       0.008295082 0.016429903 -0.1790515 0.031443626
000300 79 cb 75 bd 4f 2d 75 3d c3 e2 25 3d fd d8 21 3d
       -0.0600085 0.059857663 0.04049946 0.039513577
000310 3b 5e 25 be 9a b2 62 be b2 2c 1b bd ba 9e a7 bd
       -0.16149227 -0.22138444 -0.03788442 -0.081845716
000320 bf 3c 8e 3d f7 4b 27 3c 52 e5 83 bc a1 ba 5f bd
       0.0694518 0.0102109825 -0.01610056 -0.054621343
000330 4f 36 e3 3c 4f 3e 8f 3d 92 53 be bb 84 77 f7 3c
       0.027735857 0.06994306 -0.005808302 0.030208357
000340 55 76 ed b7 39 b0 38 bd cb 5b 07 3d 87 26 6f bc
       -2.8307704e-05 -0.045089934 0.033046525 -0.014596588
000350 5e 8d a5 bc 4b 3d f5 3b 61 cc 82 bd 05 07 28 bc
       -0.02020901 0.0074841133 -0.063866384 -0.01025558
000360 9b bf 31 bd d7 83 9f bd 8a c5 b8 3c 40 42 01 3d
       -0.04339562 -0.07788818 0.022555131 0.03155732
000370 4c 65 af 3d ee 00 ad bc 54 c1 35 bd e0 08 11 bd
       0.08564243 -0.021118607 -0.044373825 -0.035408854
000380 81 93 97 bd 75 80 98 bc a3 6a 6a bc 81 fd e1 3b
       -0.07401181 -0.01861594 -0.014307651 0.006896675
000390 3b 4e 96 3c 3c 4f fb 3d fb 2a 35 bc a4 98 35 3d
       0.01834785 0.12270972 -0.011057611 0.044335023
0003a0 f0 7d d0 3d 0c d2 94 3d a6 99 4e 3d 3d d5 41 3d
       0.10180271 0.07266626 0.0504395 0.0473225
0003b0 f9 6a 04 be e3 e8 93 3c 7b 6c 17 3d 1d a3 0e 3c
       -0.12931432 0.018055385 0.03696869 0.008705881
0003c0 28 66 1d 3d 99 89 a4 3d f9 5b ae 3d b5 0d a3 bb
       0.038427502 0.08034057 0.08513636 -0.0049759992
0003d0 50 91 a8 3c a7 0b 20 3d 48 17 47 3d 52 cb 55 bd
       0.020577103 0.039073613 0.048606187 -0.052195854
0003e0 e2 16 a4 bd e8 45 a7 3d bd be 63 3e a1 23 a6 3d
       -0.08012177 0.081676304 0.2224073 0.081122644
0003f0 23 d8 8b 3d 5e 81 19 3c 00 11 db bd c6 88 7f bd
       0.06828334 0.009369222 -0.10696602 -0.062386297

encoder.layers.0.conv.att f4 [1, 1, 32]
000000 66 8d 84 be 5f dd db 3e 05 21 5f bf 02 56 e9 be
       -0.25889128 0.4294233 -0.8715976 -0.4557343
000010 6b 76 0e bf 0d 6d 49 bf 55 c2 3a be 7a 71 44 3e
       -0.5564944 -0.78682023 -0.18238194 0.19183913
000020 aa d4 69 bd 7c de 0c 3f 4f 12 d1 bd 3e 57 7a be
       -0.057087578 0.55026984 -0.1020857 -0.24447343
000030 af 71 56 be d7 6f 0a 3f 10 d4 f5 bc 17 6b ee be
       -0.20941804 0.54076904 -0.030008346 -0.46566078
000040 29 22 83 be ea 22 de 3e 7d 81 5a bf c6 b2 01 bf
       -0.25612 0.43386012 -0.85353833 -0.5066341
000050 97 46 0b bf 6c 29 39 bf 3a 36 81 be 7d 51 47 3e
       -0.54404587 -0.7232883 -0.25236684 0.19464679
000060 ab 66 62 bd 81 f0 0d 3f 8f 45 1b be 38 b7 96 be
       -0.055273693 0.55445105 -0.15163253 -0.2943666
000070 bf 35 94 be f7 62 0b 3f e9 d9 f8 bb c2 a6 d6 be
       -0.28947255 0.54447883 -0.0075943363 -0.419241

encoder.layers.0.conv.bias f4 [16]
000000 6f 19 af 3d 16 c0 2e bf 78 a9 f7 3e 89 7c 03 3f
       0.08549773 -0.6826185 0.48371482 0.513619
000010 94 1d 3e 3e 57 61 0e 3f 81 e6 5e 3d 7a cd 7c be
       0.1856597 0.5561728 0.054419044 -0.24687758
000020 f1 b7 da 3d 96 6e 53 bf 9b e6 17 3e d8 1f 66 3d
       0.10679615 -0.82590616 0.14834063 0.056182712
000030 46 44 24 3e 36 f8 54 bf 84 5d 06 3d 34 f0 c6 3e
       0.16041669 -0.8319124 0.032804027 0.38855135

encoder.layers.0.conv.linear.weight f4 [16, 16]
000000 30 d7 48 bf 04 7c a7 be 22 1e a7 3e e0 e5 a4 3d
       -0.7845335 -0.32711804 0.32640177 0.08051658
000010 c4 f0 c5 be 9f f4 2b bf 83 b2 6d be 35 8c 2b 3f
       -0.38660252 -0.6717014 -0.23212628 0.67010814
000020 ff c3 db 3e 52 86 53 3f 94 24 83 be 28 01 ec bd
       0.4292297 0.8262683 -0.25613844 -0.11523658
000030 86 17 dc bd 9a 8f e2 3e 8d cc 4b bf 9d 0f 0e 3f
       -0.10746674 0.44250184 -0.79608995 0.55492574
000040 40 d7 a4 3d d8 c2 23 be 3e 4a 1e be 20 2f 74 be
       0.08048868 -0.15992296 -0.15458009 -0.23846102
000050 22 18 0c be ea 3d fc 3c 11 ef d3 bd 14 6e da 3c
       -0.13681081 0.030791242 -0.10348333 0.026663817
000060 38 d6 15 3e f0 4d 63 3c 4a e0 ea 3d 0c 63 37 be
       0.14632499 0.013873562 0.11468561 -0.17908877
000070 2f 7b 3d 3e 29 95 26 bd dc db c9 3d 41 01 55 be
       0.18504022 -0.040669594 0.09856388 -0.2080126
000080 7f 73 5d 3f 6f 32 11 3f dc 4e 46 bf 05 05 0e 3f
       0.8650436 0.5671758 -0.7746408 0.5547641
000090 84 e1 0d 3f 35 47 16 3f 74 27 20 3f 28 ea b0 3e
       0.55422235 0.58702403 0.625602 0.34553647
0000a0 1e a8 04 bf 0c 6f 3c be 35 55 eb be a0 9e 00 3f
       -0.51819026 -0.18401736 -0.45963445 0.5024204
0000b0 d0 9b c7 be c9 71 8a bf 94 e3 c0 be c6 20 d9 3e
       -0.38986063 -1.0815974 -0.37673628 0.42407817
0000c0 36 9d 33 be bc d1 9f 3e f4 6f 19 3f 1e f7 50 3d
       -0.1754044 0.31214702 0.5993645 0.05101692
0000d0 6c bc 08 3e 8b 4d 7d 3e b6 b6 42 3d 1f b6 aa be
       0.13353127 0.24736612 0.047537528 -0.33342072
0000e0 4d 31 90 be dc 92 f9 be 6f 17 55 bf 50 14 90 3e
       -0.28162614 -0.48744857 -0.8323888 0.28140497
0000f0 7f d1 52 bd ec bf e8 3e e7 4e 4c be 06 0d 11 3e
       -0.051469322 0.45458925 -0.19951974 0.14165124
000100 ef 7f ca be d9 9a 30 3e 96 3a b3 3e 74 09 13 3e
       -0.3955073 0.1724657 0.35005635 0.14359075
000110 ff 0a d7 3d 2c ba 89 be 54 b5 08 3d ee d6 6d 3e
       0.10500144 -0.2689985 0.033376053 0.2322652
000120 06 9b 15 be 70 f5 06 3e ab 9c 3a be 52 5c 45 3e
       -0.14609918 0.13179564 -0.18223827 0.19273499
000130 63 10 42 be 79 6b c3 3e 50 23 75 be 58 65 a3 3e
       -0.18951564 0.38167933 -0.23939252 0.31913257
000140 7f 05 a4 be e1 13 be 3e f3 a3 84 3e ae 46 02 be
       -0.32035443 0.3712454 0.25906333 -0.12722275
000150 62 59 d9 3e ac 91 9f be 6b 1a ca 3e 38 e1 0c 3f
       0.42451006 -0.31165826 0.3947328 0.55031157
000160 ac af d1 be eb f5 4a 3f 2e 27 ba 3f 7f 55 eb 3e
       -0.4095434 0.7928149 1.4543207 0.45963666
000170 39 bd 40 be c2 5d 81 3f 40 75 11 3f 19 1e 6f 3e
       -0.18822183 1.0106738 0.56819534 0.23351325
000180 46 27 57 bf 22 c6 91 bd f5 7b 3f 3f 13 b4 aa 3d
       -0.840443 -0.07117869 0.7479852 0.08335128
000190 2b 87 61 bd 31 0a 23 bf a2 5d b3 be 22 ef 01 be
       -0.055060547 -0.63687426 -0.35032374 -0.12688878
0001a0 6c db 6a 3e a7 44 8b bd 1c 74 00 bf 39 7e 5e bd
       0.22935265 -0.06800204 -0.5017717 -0.054319594
0001b0 68 ef 7f 3e ee 7e 1e 3f d7 31 69 bd 8a a9 45 3e
       0.2499367 0.6191243 -0.056932297 0.19302955
0001c0 85 54 0e 3d cb 50 8e bd 99 7c 80 bd 42 94 db bd
       0.034748573 -0.06949004 -0.06273765 -0.10721637
0001d0 e9 77 75 bd 46 26 7d 3c 4e 01 37 bd 0d d7 ae 3b
       -0.05992881 0.01545102 -0.04467898 0.0053356946
0001e0 c8 71 82 3d 51 81 54 3c 6c b9 60 3d b9 63 a3 bd
       0.06369358 0.012970285 0.054864332 -0.07978005
0001f0 b7 d4 b2 3d 04 e3 73 bc e0 ef 06 3d 2b 0b bc bd
       0.087319784 -0.014885668 0.032943606 -0.091818176
000200 10 ed cf be 34 8e 12 bf f9 56 9a bd f4 cc 03 3f
       -0.40610552 -0.57248235 -0.0753612 0.5148461
000210 9c 3b 05 be b4 1a 27 bf e0 f4 7f 3e b4 f6 0d be
       -0.1301102 -0.6527512 0.24995756 -0.13863641
000220 dd 91 e4 3e 7e 13 50 be 42 9b 25 3f 74 e8 00 bf
       0.44642535 -0.20319936 0.6469003 -0.50354695
000230 aa c1 e9 bd 5f fa 9c bf 2d b6 f1 3e 25 c7 28 be
       -0.114138916 -1.2263907 0.47209302 -0.16482218
000240 16 7a cc 3d 1d a4 4a be 40 9b 47 be 1d 41 90 be
       0.099842235 -0.19789167 -0.19492817 -0.28174677
000250 84 ce 2a be 2c ae 0c 3d 58 29 f8 bd 26 92 12 3d
       -0.16680342 0.03434579 -0.12117261 0.03578391
000260 03 f1 37 3e 13 05 11 3d a1 e1 1d 3e 4f 36 59 be
       0.17963032 0.03540523 0.15418102 -0.21212123
000270 de e4 62 3e 2a b5 3f bd 90 d3 dc 3d c3 15 83 be
       0.22157618 -0.04680363 0.1078254 -0.2560254
000280 cf 29 3c be fc 72 85 3d d0 47 a7 3e 86 63 d7 3c
       -0.18375324 0.06516072 0.32671976 0.026292574
000290 21 3f 61 bd 14 00 d0 bc ae ae b3 bd de 1a e2 bd
       -0.054991845 -0.025390662 -0.08773552 -0.11040281
0002a0 f5 93 07 3d 46 37 14 3d b7 6b 95 bf 59 77 0c 3d
       0.033100087 0.036185525 -1.1673497 0.034293506
0002b0 b5 04 99 3c c1 23 94 3e 37 91 3f bf 11 7b dc 3d
       0.018679002 0.28933528 -0.74830955 0.107656606
0002c0 e7 f0 07 bf c1 e0 90 be 96 1a 05 3f 77 66 9a 3e
       -0.5310196 -0.28296474 0.5199369 0.301563
0002d0 ff c8 fb bd 6c 57 90 be 34 98 55 3d 64 74 0f bf
       -0.12294196 -0.28191698 0.052147105 -0.56036973
0002e0 c9 b6 13 be 65 09 79 bf 61 03 cf 3e ac 73 3f be
       -0.14425196 -0.9727996 0.40432265 -0.18696469
0002f0 5f 9d f6 bc 0a a8 52 bf 96 97 50 3f 52 30 fc bd
       -0.030104337 -0.8228766 0.814813 -0.12313904
000300 b3 18 d3 be bf ec d2 bd da e6 39 3f 48 05 f8 3d
       -0.41229782 -0.10299062 0.72617877 0.12110382
000310 c1 14 14 3d 30 ad 5c 3e cf 80 a5 3e ea 88 42 bf
       0.036152605 0.21550441 0.32324836 -0.75990164
000320 61 d3 92 be ea 0d bc bf c5 58 82 3e 76 34 bc 3c
       -0.28676894 -1.4691746 0.2545835 0.022974234
000330 81 8b af 3d 15 6a 6c 3d 62 1b 5e 3f ac 02 8d be
       0.0857153 0.057718355 0.8676053 -0.275411
000340 80 dd c8 3d ca 8b 44 be ae cf 44 be 22 f0 8d be
       0.09807873 -0.1919395 -0.19219849 -0.2772227
000350 d2 56 27 be f0 bb 0a 3d e7 fe f8 bd c3 6b 0f 3d
       -0.16341713 0.033870637 -0.12157994 0.03501488
000360 74 8f 36 3e 9c 03 05 3d e5 86 1b 3e d4 58 57 be
       0.1782816 0.032474145 0.15188177 -0.21029979
000370 77 00 60 3e cd 08 41 bd 35 63 e0 3d d8 fe 7c be
       0.21875177 -0.047127534 0.10956422 -0.2470659
000380 89 8d c4 3d 14 21 63 3e f5 ca 1f 3e 78 67 ed be
       0.09597308 0.22180587 0.15604766 -0.46368003
000390 94 cb 88 3e 18 0a d5 3e e8 d8 69 3e ad 7e 4a 3e
       0.26717818 0.41609263 0.2283665 0.19774885
0003a0 5f 57 c6 be 22 0b 8d 3e ba b0 89 3f e2 ba a4 3e
       -0.38738534 0.27547556 1.0757058 0.3217383
0003b0 82 94 0c 3e 46 5b 8c 3f 48 8c 5c 3f 72 26 5d be
       0.13728526 1.0965354 0.8615155 -0.21596697
0003c0 a8 5c c6 bd c9 75 98 3d 8e f5 68 be df 45 71 3e
       -0.096856415 0.07444341 -0.22749922 0.2356181
0003d0 91 70 2e 3d 31 b1 de be 64 b8 46 3d 36 04 e2 3e
       0.04258782 -0.4349456 0.048515692 0.44143838
0003e0 80 dc ae 3d 03 de 11 3f f8 00 89 bc 4f d0 65 3d
       0.08538151 0.5697939 -0.016724095 0.05610686
0003f0 c9 d7 5b be bd 0e 6f be a3 d1 be be bf 55 9e 3e
       -0.21469034 -0.23345466 -0.37269315 0.30924794

encoder.layers.0.conv.linear.bias f4 [16]
000000 9f 26 69 3e a6 1d 75 be 58 e0 bb 3e 56 95 40 3e
       0.22768639 -0.23937091 0.36694598 0.18806967
000010 8b 7c 7a 3e d9 72 ef 3e f4 a7 8c 3e 14 fc e9 bd
       0.24461572 0.4676731 0.27471888 -0.11425033
000020 d6 e4 1e 3e cb 82 a5 be 3c ca 12 3d 83 12 b2 3e
       0.15516981 -0.3232635 0.035837397 0.34779748
000030 45 41 7c 3e f0 f2 a6 be 0d 67 12 3e 34 00 75 3e
       0.24634273 -0.32607222 0.14297123 0.23925859

encoder.layers.0.conv_e.weight f4 [3703, 16]
000000 34 8a 90 b9 f5 f0 90 2d 03 25 87 b1 a7 a7 de 2b
       -0.0002756879 1.6477911e-11 -3.933225e-09 1.5820582e-12
000010 43 98 c7 39 5e 3b 00 ad d5 7c 7f ac 5d 5c 38 b2
       0.00038069682 -7.28914e-12 -3.6306975e-12 -1.0731211e-08
000020 f1 50 6a 39 0c 45 8f ad 87 aa 11 b9 a2 b6 4a ac
       0.00022346132 -1.628788e-11 -0.00013891804 -2.8807308e-12
000030 ce f2 14 3a 7a f0 de 2f 68 8f 84 2c e7 bb e2 b2
       0.00056819327 4.0552434e-10 3.767587e-12 -2.639531e-08
000040 58 b5 c4 ba 4d ff 9c ac 22 a2 d5 b2 e0 93 f3 2c
       -0.0015007658 -4.4621308e-12 -2.4870193e-08 6.922893e-12
000050 c5 00 72 39 fb 89 23 ad 80 33 9c 2c d5 fa 74 b2
       0.00023079205 -9.296115e-12 4.4395043e-12 -1.4259702e-08
000060 8e 33 5c ba ed f2 18 ac 4d 77 14 bb 3c 5f 94 ac
       -0.0008400016 -2.173535e-12 -0.0022654117 -4.216986e-12
000070 a2 0f 0c ba d1 45 cb 31 fd 62 1f 2d dc 5a 0a b9
       -0.00053429056 5.916015e-09 9.060083e-12 -0.00013194553
000080 0f d1 3a 3a 8e 4c 91 2c 02 1f a2 b1 11 6c 89 2c
       0.0007126489 4.129647e-12 -4.7183457e-09 3.905772e-12
000090 51 dc 23 ba fb a8 12 ad 2f a5 94 ac b3 48 98 30
       -0.0006250786 -8.33666e-12 -4.224752e-12 1.1080118e-09
0000a0 b4 f3 da 38 a6 ea 42 ac 8b 8a ab 3a 93 74 27 2d
       0.00010440443 -2.7699314e-12 0.0013087554 9.518736e-12
0000b0 cb 8a 61 bb cd d7 24 af 99 c8 9d ac d0 93 8f 31
       -0.0034415002 -1.4992381e-10 -4.484479e-12 4.178652e-09
0000c0 86 f7 85 39 0f 47 8a 2c 85 5c 0b 31 b8 4f 5e 2d
       0.00025552156 3.930085e-12 2.0279753e-09 1.263694e-11
0000d0 87 6d a5 b9 84 51 bc 2b 29 ec cb 2c eb d5 49 b1
       -0.00031552857 1.3380829e-12 5.795826e-12 -2.9370948e-09
0000e0 90 88 90 b2 7f 81 98 ac 6e 95 2a bb 7f c9 6d ac
       -1.6825908e-08 -4.334477e-12 -0.0026029008 -3.3791578e-12
0000f0 a7 f2 10 39 61 80 0a af c8 b1 93 aa ec 7b 10 32
       0.00013823305 -1.2596636e-10 -2.6235806e-13 8.41008e-09
000100 9d ee cc b9 e5 83 43 ac f8 55 ac b1 49 77 83 ac
       -0.00039087693 -2.7784383e-12 -5.0156324e-09 -3.7364872e-12
000110 2d 06 25 37 e7 04 d6 2c fc 0d 6f 2d 82 cf db b1
       9.836204e-06 6.08279e-12 1.3588682e-11 -6.3973298e-09
000120 45 37 b1 b8 50 ac 06 ad bf 03 9c ba bd 3e 3a ad
       -8.4503125e-05 -7.655279e-12 -0.0011902972 -1.0586807e-11
000130 fe e6 86 b9 58 6f 99 ac 63 d3 73 2d cc b3 94 af
       -0.00025730574 -4.360883e-12 1.3859888e-11 -2.7048797e-10
000140 4a 7b 10 b8 0b d5 6f 2b a4 e6 35 30 b6 6b 9c 2d
       -3.4447097e-05 8.5205513e-13 6.6175176e-10 1.778298e-11
000150 9a 86 5a 39 fe 0e d1 2c b6 f0 e0 2c 77 12 83 b1
       0.00020840243 5.9418017e-12 6.393187e-12 -3.814701e-09
000160 bf e4 d2 39 52 be e1 2c d7 82 e8 39 ed 5f f0 2b
       0.0004022475 6.4160144e-12 0.00044347972 1.707965e-12
000170 4c 7c db 39 5f e8 4a af 1b 27 51 ad 08 f1 47 31
       0.00041863543 -1.8454348e-10 -1.1888958e-11 2.9095322e-09
000180 f6 c1 dd 38 81 a8 a7 ad d5 da ae b0 55 77 7a 2c
       0.00010574229 -1.9060533e-11 -1.2722362e-09 3.559338e-12
000190 aa be 91 39 49 a7 69 ad eb 5d ae ad c5 77 2e 31
       0.0002779861 -1.3281661e-11 -1.9823218e-11 2.5388414e-09
0001a0 df 79 c9 38 8d 40 aa ac b4 d7 d6 39 b3 27 65 2c
       9.607127e-05 -4.838857e-12 0.00040977972 3.2564895e-12
0001b0 ee da 95 39 9f 09 a9 2e bc 41 45 ad 0c b8 5e 30
       0.0002858261 7.686939e-11 -1.12127495e-11 8.1024676e-10
0001c0 60 ff 86 ba c5 69 8b 2c 27 c7 b0 b0 32 a1 1c 2d
       -0.0010299496 3.9623604e-12 -1.2862288e-09 8.903366e-12
0001d0 eb 66 08 39 00 1d ae ac 40 32 aa ad c5 35 ef 2f
       0.0001300831 -4.948597e-12 -1.9349078e-11 4.3512052e-10
0001e0 97 0d 1e ba 2c 06 af 2a 05 02 dc ba c1 b4 26 2c
       -0.0006029247 3.1090527e-13 -0.001678527 2.3690357e-12
0001f0 18 f8 17 ba 9a 33 46 af a6 79 e6 ac 6e f8 e0 2e
       -0.0005797162 -1.8026328e-10 -6.550499e-12 1.02304706e-10
000200 76 53 a2 39 12 7f 4d ac 4d e8 02 b1 98 aa f2 ac
       0.0003096123 -2.920279e-12 -1.9049538e-09 -6.8969934e-12
000210 52 4e 4b 3a 91 e6 f4 2b 7c 4a 55 2c fc 1b 65 31
       0.0007755506 1.7401238e-12 3.0310468e-12 3.3339793e-09
000220 f0 24 cf 39 68 b4 ba 2c ba 21 13 3b ed 87 72 ac
       0.00039509637 5.306467e-12 0.0022450523 -3.4465722e-12
000230 ad 0b 84 3a 45 86 c5 2e 47 67 b0 ac 1b de c3 ae
       0.001007428 8.982374e-11 -5.013687e-12 -8.907027e-11
000240 21 7d 5d ba eb 76 b3 ac 36 c5 7f b1 c8 93 0d 2d
       -0.00084491266 -5.1006885e-12 -3.7219485e-09 8.047736e-12
000250 91 7a 43 3a 44 53 19 a9 bc 73 ad 2b 93 45 9b b1
       0.00074569235 -3.4045046e-14 1.2324512e-12 -4.5190034e-09
000260 88 8d e2 39 ca 18 24 2b c2 f5 84 3a 5e eb 45 ac
       0.00043211528 5.8298906e-13 0.0010144042 -2.8126039e-12
000270 fe 29 00 ba b4 90 ca ad cc 6c 7b 2b 5a cc 43 30
       -0.000488907 -2.3029002e-11 8.93241e-13 7.123099e-10
000280 ab 23 5f 39 df 6b 03 ac d0 0e b7 b1 82 05 90 ad
       0.00021280225 -1.86761e-12 -5.327685e-09 -1.637335e-11
000290 8c bf 08 ba 7a a0 df ac b0 73 06 ac 4f 47 3b 2f
       -0.0005216531 -6.3558577e-12 -1.9106765e-12 1.7032885e-10
0002a0 8e fc dc b9 b0 9f 29 2d 43 a6 eb 39 be c3 54 2d
       -0.00042149838 9.6419955e-12 0.00044946568 1.2094268e-11
0002b0 2f 85 93 b9 b3 a0 84 ae 71 85 98 2d 20 e9 18 b0
       -0.00028137254 -6.031211e-11 1.733966e-11 -5.562857e-10
0002c0 6e 46 dc 3a b7 d1 70 2d 45 d2 cd b1 10 4e d5 ac
       0.0016805658 1.3688987e-11 -5.99019e-09 -6.062491e-12
0002d0 e4 da f8 b9 d1 97 da ac a3 2c 4d ac 87 3a 29 b2
       -0.00047465332 -6.2127877e-12 -2.915703e-12 -9.850402e-09
0002e0 ab 8d 30 b9 0c 5d 9f ac 28 82 8d 3a 7e 8b 1a ad
       -0.00016837443 -4.529382e-12 0.0010796236 -8.78486e-12
0002f0 ae 20 94 39 4d 22 41 af 84 53 b9 ac 65 e5 45 b2
       0.00028253108 -1.7565434e-10 -5.2672883e-12 -1.15190675e-08
000300 ea 93 7d b8 7f 6e f1 2c d6 0a a4 b1 e0 f1 64 2c
       -6.0457656e-05 6.8618995e-12 -4.77426e-09 3.2535016e-12
000310 77 54 a7 39 6e 58 3d ad fa 95 88 ac 89 00 d6 2d
       0.00031915653 -1.07630415e-11 -3.8820032e-12 2.4329221e-11
000320 e6 b2 82 39 c0 66 18 ad 2a 4c e9 3a 5b cf f1 2c
       0.00024928822 -8.663015e-12 0.0017799188 6.872653e-12
000330 14 4d 22 ba c2 72 62 2e 9f 2f 95 2c 4d 6a 53 31
       -0.0006191295 5.1488376e-11 4.2401217e-12 3.0764966e-09
000340 2f 9e 0c ba 21 fb 78 2c 75 8e de af 4f 7e 57 ad
       -0.00053641474 3.5382324e-12 -4.0482787e-10 -1.2249381e-11
000350 03 9e 02 ba 44 df 94 2d 55 7d 59 ad 4c 98 e3 b0
       -0.0004982652 1.6924802e-11 -1.2362851e-11 -1.6559709e-09
000360 4e ef 29 3a 6e 7a 5d ac 6d 32 de ba c8 cb 9d ad
       0.00064824976 -3.147395e-12 -0.0016952284 -1.793933e-11
000370 53 18 05 ba c7 62 15 af 5e d5 3f ad 34 e7 ca b1
       -0.0005077172 -1.3586564e-10 -1.090447e-11 -5.9052585e-09
000380 4b d2 2b b9 f0 00 9c ac 91 74 58 b0 25 5f 38 ad
       -0.00016386171 -4.4338908e-12 -7.8745993e-10 -1.0480315e-11
000390 77 6e 80 39 a1 cc bb ac 14 62 8e ac 14 9c 0d b0
       0.00024496365 -5.337578e-12 -4.0467716e-12 -5.15173e-10
0003a0 6e 34 6d ba e9 a5 34 2d a9 08 ab 39 47 80 22 2d
       -0.0009048645 1.0268655e-11 0.00032622114 9.237117e-12
0003b0 c5 2d be 39 00 23 74 2d 3d e4 4d aa a8 2b ff 2e
       0.00036273725 1.3877566e-11 -1.8286844e-13 1.16038124e-10
0003c0 7e c1 b2 3a 9e f8 10 ad c6 cf 18 b2 90 7f 00 2c
       0.0013637987 -8.240656e-12 -8.894807e-09 1.8260705e-12
0003d0 cc 65 41 39 e9 33 15 2d 41 86 47 ad 73 16 8a 2f
       0.00018443837 8.481196e-12 -1.1341651e-11 2.5118005e-10
0003e0 6d de b8 39 d1 38 ab ac 77 fa b8 39 91 e0 27 2d
       0.00035260935 -4.86642e-12 0.00035281826 9.542715e-12
0003f0 1a 41 67 38 fa f5 20 af 34 25 79 2d 35 e2 1b 31
       5.5135322e-05 -1.4639304e-10 1.4162272e-11 2.2684052e-09

encoder.layers.0.conv_e.bias f4 [16]
000000 f2 44 5a 3e 9b 2c da bb 58 2b 0e b6 b9 e1 69 bb
       0.21315363 -0.0066581494 -2.1184878e-06 -0.003568752
000010 a9 be e1 3d 69 71 ad bb 23 be 87 ba fe c1 85 b4
       0.11022694 -0.0052930606 -0.0010356348 -2.4914328e-07
000020 80 35 a1 3d 4c d9 25 bb 81 79 95 3e f2 f8 4c b8
       0.078715324 -0.002530652 0.29194263 -4.886924e-05
000030 14 48 e5 3d bb 75 0e b1 3e 8f ad bb a0 ed 8c b5
       0.111953884 -2.0730642e-09 -0.005296617 -1.0499971e-06

decoder.scale f4 [6]
000000 67 23 4c bf 67 ec de 3e 26 32 80 3f 06 fa 81 3f
       -0.7974152 0.43539736 1.0015304 1.0154426
000010 03 ad 86 3f 9e c3 9d 3f
       1.0521549 1.2325323

decoder.point f4 [6, 16]
000000 78 28 ec 3c c0 db 4e 3e 09 01 24 3e 11 fe fb bc
       0.02882789 0.20201015 0.1601602 -0.030760797
000010 fa 1c 22 3e e6 af 1e 3e 54 ef ee bc 7a a0 86 bc
       0.15831366 0.15496787 -0.029166855 -0.016433943
000020 fc 4e 9d bb 07 a6 30 bc 21 3f 53 bd 5e a3 ee bd
       -0.0048006754 -0.0107817715 -0.051573876 -0.116522536
000030 2d ad 8f 3d 28 6e de 3a c3 d6 93 3b d5 fe 73 3e
       0.070154525 0.0016970085 0.0045116856 0.2382768
000040 7c a8 b2 3d 44 30 ea bc a3 f8 de 3d 09 40 30 3d
       0.08723542 -0.028587468 0.108872674 0.04302982
000050 4d ca 0a 3e 5a 3b ec 3d 62 dd 86 bd 84 4d 42 3e
       0.13553734 0.11534758 -0.06585194 0.18974882
000060 67 11 40 bd c4 b7 83 b3 a0 e0 e0 bc 32 1b b7 bd
       -0.046891596 -6.1335896e-08 -0.02745086 -0.08940734
000070 d4 93 1b bd 9d 1f 4b 3e e7 72 02 bd 67 ce 74 3d
       -0.037982777 0.19836278 -0.03184786 0.059767153
000080 f9 aa 7c 3c 4a 57 5a bc 09 3c 1b 3e c8 a9 02 bc
       0.015421622 -0.013326475 0.1515962 -0.007975049
000090 eb c1 49 3d fd ba 8a 3e 88 1d 21 3d c4 31 44 be
       0.0492572 0.27095786 0.039334804 -0.19159609
0000a0 6e 55 92 bd 43 f9 37 3e e5 e6 25 3e 26 d9 2d be
       -0.07145201 0.1796618 0.1620136 -0.16977367
0000b0 a0 c6 db 3d be 02 84 bd 02 40 0e 3d 2b ef e1 3d
       0.10731244 -0.064458355 0.03472901 0.11031946
0000c0 20 61 20 3e 86 83 1a bc dc 99 b7 3e 44 7e 32 3e
       0.1566205 -0.009430772 0.35859573 0.17430979
0000d0 fd c6 cd 3d ee 28 e1 3e 18 ab 2b 3d 95 67 d6 3d
       0.1004772 0.4397654 0.041911215 0.104689755
0000e0 e7 70 32 3d 03 d9 9b 3d f9 f6 0d 3d f1 fa 65 3d
       0.043564703 0.07609751 0.03465936 0.05614752
0000f0 23 2f 91 3d a8 89 46 bd 1c 07 52 3d af be 53 3e
       0.07089069 -0.048471123 0.05127631 0.20678209
000100 4b 93 1b be 32 03 e8 b5 ec 2e 71 3e 84 e4 e2 3d
       -0.15192907 -1.7286277e-06 0.23553056 0.11078742
000110 c5 46 25 3e 0d 6c 6b 3d f8 82 28 3d e1 7e db bd
       0.16140278 0.057476092 0.041140527 -0.107175596
000120 25 ed 0d bc eb a4 d4 37 6b 1c 10 3c 85 2a 8e 3d
       -0.008662497 2.5349165e-05 0.008795838 0.06941704
000130 e7 a5 f5 3d 25 ec 1d 3a 6f 4c 4e 3d 8f 22 14 3c
       0.11994534 0.0006024263 0.05036586 0.009041443
000140 a6 9d 97 3d 89 5a 8e 2e 97 58 83 3d f4 9b 43 3e
       0.07403116 6.473495e-11 0.064133815 0.1910246
000150 d4 d8 87 3e a1 aa 7e 3e d1 b9 71 3e 08 d5 d4 ba
       0.26532614 0.24869777 0.2360604 -0.0016237805
000160 d7 f7 45 3c 0c 10 e7 af a2 9f f1 3c 86 d5 08 3e
       0.012083015 -4.2030057e-10 0.029495064 0.13362703
000170 e6 14 1a 3e 3f 9f 86 3b 88 07 18 3d e0 25 43 3e
       0.15047035 0.004108339 0.037116557 0.19057417

decoder.tangent f4 [6, 16]
000000 ae 73 13 be 86 af f9 3d f5 d8 27 3e ea fa b3 bd
       -0.14399597 0.121916816 0.16391356 -0.087880924
000010 68 f7 81 3d 53 f0 38 be bb ca b0 be 66 cf 3f 3d
       0.06346017 -0.18060426 -0.3452967 0.04682865
000020 35 32 b1 3d a2 2f 77 3c 8d 27 04 bf 3d 8a cb bd
       0.08652154 0.01508704 -0.5162285 -0.09938476
000030 79 a9 00 3e a5 e6 96 bd bf 89 01 be 02 38 2e be
       0.12564649 -0.07368211 -0.12650202 -0.17013553
000040 c4 90 4d 3e 03 b7 4d bd db 05 e6 bd 6d dc a2 3d
       0.20074755 -0.05022336 -0.112315856 0.07952199
000050 88 1a 42 3c 2f 45 1a 3f 82 5f ad bb 51 77 30 3e
       0.011847146 0.60261816 -0.0052909264 0.17233016
000060 62 5c 18 3d ba 80 7a 34 20 fe ad 3c 77 ad 80 be
       0.037197478 2.3329895e-07 0.02123934 -0.25132343
000070 dd da 1d be d6 49 9e 3e 2d 8d 06 3f b3 87 37 3e
       -0.15415521 0.30915707 0.5255917 0.17922859
000080 63 c9 15 3f 4b f9 c5 bc 4e 43 e7 be 73 c3 18 3e
       0.58510417 -0.024166724 -0.45168537 0.14918308
000090 87 0f 29 3e b3 d7 a9 bd 0b 91 5e 3f 52 a8 a6 3e
       0.1650983 -0.082930945 0.8694007 0.32550293
0000a0 db 6a a4 be cf d2 60 be dd 47 f3 3e 09 52 3d be
       -0.32112774 -0.21955417 0.47515765 -0.18488325
0000b0 d5 9e e6 bd 4f ca f6 3d 02 bf ba be d6 75 b2 3c
       -0.112607636 0.12050306 -0.36473852 0.021784704
0000c0 6f 0a 5a be 33 2d b5 bc a0 00 b8 3e 4e c8 9b ba
       -0.21293043 -0.02211628 0.35937977 -0.0011885257
0000d0 0a 97 7b be 2d 5a 05 bf 40 75 34 be e4 01 3e 3e
       -0.24569336 -0.5209072 -0.17622852 0.18555409
0000e0 87 1c 8c bd 63 d5 54 bd 47 ba 72 3e f6 0e d2 be
       -0.06841379 -0.051961314 0.23703872 -0.4102704
0000f0 54 e7 ab be 21 53 dd bd b4 83 19 bf ed 05 2e bc
       -0.33574927 -0.10806871 -0.5996659 -0.01062153
000100 61 bc bd be 39 3c 27 36 3f 98 c6 3d 7c a7 c5 3e
       -0.37057784 2.4919993e-06 0.096970074 0.38604343
000110 f6 f8 b9 3c 61 8f 7c 3e 1d ce 28 3d d4 19 4b 3e
       0.022701722 0.2466407 0.04121219 0.19834071
000120 74 a3 ca be c2 e7 cc 37 92 48 09 3e 71 a5 10 3c
       -0.3957783 2.4426616e-05 0.1340659 0.008828507
000130 9d 5e 25 3f a8 75 4c bc 93 84 73 3e ff d1 85 bd
       0.64597493 -0.012479223 0.23781042 -0.06534194
000140 ae 20 b9 3d 0f f2 11 2f 8a bb 8d 3c 24 a2 8e 3d
       0.09039436 1.327367e-10 0.01730134 0.069645196
000150 62 00 0f be 7d 02 57 3b 35 d6 a7 3d fb 8b 94 bb
       -0.1396499 0.003280788 0.081951536 -0.0045332885
000160 fe 97 31 3f c3 1d af 30 89 09 6e 3d f6 76 d8 3e
       0.69372547 1.2741385e-09 0.058114562 0.4227826
000170 2d 50 eb 3e 05 5b b5 bb 10 12 c0 be 46 0b e7 3c
       0.45959607 -0.005534532 -0.3751378 0.028203618

decoder.cls.weight f4 [16, 6]
000000 07 d7 bd bd 27 70 d9 bd fe 6c 1d be 6e 27 e5 3d
       -0.09269529 -0.106170945 -0.15373608 0.11189161
000010 cf e3 a0 3c 87 ff d0 3d d5 4a 15 2f 97 b8 1d af
       0.019639878 0.10204988 1.3578057e-10 -1.4344646e-10
000020 9d dc ce af b6 67 7f 2f f2 4a be ad dd 2d 1e 2f
       -3.7627937e-10 2.322896e-10 -2.1633782e-11 1.438631e-10
000030 0b 73 28 b4 07 0b 9a 33 5c d1 cc 32 fc 69 fc 34
       -1.5688072e-07 7.17319e-08 2.3843931e-08 4.7015772e-07
000040 a1 0c 8a 34 a3 91 c5 b4 67 fa b6 af 0c d6 9a ad
       2.5713692e-07 -3.6800074e-07 -3.328353e-10 -1.7602829e-11
000050 2e 4d 81 ad 4a 59 cb af 93 1f a5 af b9 e3 f0 ae
       -1.4699877e-11 -3.6988929e-10 -3.003576e-10 -1.0954388e-10
000060 7b 2c 70 bd 57 a2 26 bd ad d9 aa bd 0b d4 4b 3d
       -0.05863617 -0.040682163 -0.083422996 0.049762767
000070 0a 26 7c 3d c4 d7 83 3d 4b ee b5 2f 75 fc c9 ac
       0.061559714 0.064376384 3.3093026e-10 -5.740792e-12
000080 19 2f 4e 2f 5c 53 e6 ae 25 5f 72 2f f6 a7 48 2f
       1.8752323e-10 -1.0473997e-10 2.2043574e-10 1.8249566e-10
000090 ae c5 cb 2f e2 22 d5 ad fe 83 9a 2d 85 c7 df ad
       3.7065945e-10 -2.4230788e-11 1.756639e-11 -2.544077e-11
0000a0 b5 79 14 2e e9 86 d8 2f e1 bf 1f b3 13 0f 1d b4
       3.37594e-11 3.938603e-10 -3.7194585e-08 -1.4627248e-07
0000b0 33 5b f5 b4 c5 fb 72 b3 94 cd 29 b6 01 93 ae 34
       -4.5701162e-07 -5.6574e-08 -2.5302625e-06 3.2516985e-07
0000c0 f5 99 72 bd 52 a6 b9 bc 7a cc 5e bd e0 87 1f 3d
       -0.059228856 -0.022662316 -0.054394223 0.03894794
0000d0 46 dc 29 3d d3 7c 76 3d f2 00 a2 2e 4f a0 0b 2f
       0.041469835 0.060177635 7.367075e-11 1.269893e-10
0000e0 99 ba 61 2f d7 ef 9c 2d 5f d7 d1 2f 49 9e 3e 2e
       2.0529924e-10 1.7841657e-11 3.816991e-10 4.3341584e-11
0000f0 65 c8 1b be 07 11 1c be 54 61 0c be 58 49 01 3e
       -0.15213163 -0.1524087 -0.13709003 0.12625635
000100 ee 2a d6 3d c6 7e 30 3e 2c cd 21 ad 6d c0 24 ae
       0.10457407 0.1723586 -9.197348e-12 -3.746019e-11
000110 1c 79 c2 ae dd 0f 66 af 9c 67 0a ad a0 9e fc 2c
       -8.843612e-11 -2.0924014e-10 -7.867398e-12 7.1798817e-12
000120 b5 47 a3 bd 31 b2 0a bd a7 5d a1 bd 6d 37 6e 3d
       -0.079726614 -0.033861343 -0.07879191 0.058158327
000130 6d 7e 77 3d ea 5c 90 3d 65 20 88 b4 f1 98 2a b5
       0.060423303 0.07048972 -2.5355544e-07 -6.3552494e-07
000140 74 a0 b8 35 9c 90 15 33 06 23 25 34 56 99 19 b5
       1.3755766e-06 3.4823287e-08 1.5379564e-07 -5.7220075e-07
000150 b3 57 ce ae c5 42 1e ad 7b 19 f6 ad f6 38 aa af
       -9.383374e-11 -8.996086e-12 -2.7978278e-11 -3.0963293e-10
000160 79 3a 98 2f 6d 2e a5 2e 1f c3 2f b2 76 f1 9e b6
       2.7690186e-10 7.511578e-11 -1.0230706e-08 -4.7368767e-06
000170 c6 2b b0 b4 9d dd 67 b4 c2 c7 79 35 e2 44 1b b4
       -3.2814404e-07 -2.1594174e-07 9.3050414e-07 -1.446056e-07

decoder.cls.bias f4 [6]
000000 4c 94 93 bc 0e a6 3e be 8e d2 1f bd e0 bf a0 3d
       -0.01801505 -0.18618032 -0.03901916 0.07849097
000010 73 47 97 3c 19 ec 3e 3e
       0.018466687 0.18644752

decoder.w_e.weight f4 [1, 16]
000000 77 99 14 3d 69 cd ec 2c 6d 79 78 33 45 fb 55 ae
       0.036279168 6.7303285e-12 5.7852436e-08 -4.8653765e-11
000010 0e 45 7b 3c b3 6e 91 ab 51 4c 2b af 07 ae 20 34
       0.015336288 -1.0333595e-12 -1.5579472e-10 1.4964472e-07
000020 17 03 28 3c d0 cb 59 2c 56 cc ab 3c 5a d3 f1 2d
       0.010254643 3.0950693e-12 0.020971458 2.7492387e-11
000030 57 cc 68 3c e9 9a 5f 33 77 da 81 2c 95 23 62 b4
       0.014208875 5.2062124e-08 3.690655e-12 -2.1060835e-07

decoder.w_h.weight f4 [1, 16]
000000 ac 5c 19 3e 74 f5 c7 b1 79 1e e5 3e b9 8c e7 3e
       0.14976758 -5.819567e-09 0.4474981 0.4522455
000010 2d 92 f4 3e 8f 40 0b 3f ce 9d 23 bd b1 d7 57 2c
       0.47767773 0.54395384 -0.039945416 3.067307e-12
000020 7c 78 f9 3d 52 a9 b1 af 9c eb 98 3d d8 9a b2 3e
       0.12181184 -3.2316422e-10 0.07466814 0.3488376
000030 e9 fb 98 3d 32 3f eb ae 89 b6 ca 3d a6 5e ea 3e
       0.07469923 -1.06977885e-10 0.09898097 0.45775336
